models/wgan-gps/industrial_1y_discriminator.pth (torch, 873895 bytes, 11 tensors)

conv1.weight f4 [32, 4, 5]
000000 2d c7 26 be 49 f4 54 3d 39 98 20 be 40 f1 ff 3d
       -0.16286917 0.05199078 -0.15683068 0.12497187
000010 ec ee 37 be de eb 7e bd 2e 33 f6 bd 3b 1d 60 3d
       -0.17962235 -0.06223666 -0.120214805 0.054715376
000020 1b 60 64 3e ea 52 ec bd 7b 4c c2 3d 7f 98 bc bd
       0.22302286 -0.11539252 0.09487244 -0.09208774
000030 ca f8 43 3d 9a 07 02 3e 85 af 39 3e 45 75 b8 3d
       0.047844686 0.12698212 0.18133362 0.090067424
000040 3b 6f 12 3e e1 61 76 be da ce 5e 3d 77 ee 02 3d
       0.14300244 -0.24060775 0.054396488 0.0319657
000050 03 a0 4b be 35 a4 62 be 8a 2a 30 be 62 c6 12 bd
       -0.19885258 -0.22132953 -0.17203727 -0.035833724
000060 2d df 7e bd f2 6f 58 3e 7f d2 81 3d 32 ca 64 3e
       -0.062224556 0.21136454 0.06338977 0.22342756
000070 e1 52 8c bb f3 2c f7 3d 4a eb 33 be 6e 53 58 be
       -0.004282341 0.1206912 -0.17570224 -0.21125576
000080 83 50 8b bd 21 85 dd 3d 45 7f 31 3e e0 c9 3e bd
       -0.06802466 0.10816408 0.17333706 -0.04657924
000090 64 40 36 be 13 a8 4c be b4 d8 bf 3d ad 6c 40 3e
       -0.17798 -0.1998599 0.09367505 0.18791457
0000a0 32 a5 2c be 0e 70 dd bd 1b d4 da 3d db 57 0c 3d
       -0.16859892 -0.10812388 0.10684987 0.034263473
0000b0 7d 10 33 3e df 94 59 3e 3d ed d1 bd 94 9b d0 bd
       0.17486759 0.21248196 -0.10250328 -0.10185924
0000c0 ee fb 30 3e fb 4d 37 3d 59 3f ec bd 50 c9 64 be
       0.17283604 0.044752102 -0.1153552 -0.2234242
0000d0 8a 39 c6 3d 6f b5 5f be 06 97 1b bd 49 28 f9 3a
       0.096789435 -0.21846555 -0.037985824 0.0019009198
0000e0 4f 69 3d 3e 1e a3 f7 3d 49 64 60 3e 4f b0 15 be
       0.18497203 0.12091659 0.21913256 -0.14618038
0000f0 ad 8b bb 3c ad 9f 62 3d 77 76 cb 3d 21 2e 54 be
       0.022893751 0.05532806 0.09934705 -0.20720722
000100 10 51 09 3e e1 82 20 bd 00 6e b0 3d 17 12 37 bd
       0.13409829 -0.039187316 0.08614731 -0.044694986
000110 24 af b0 bd 9a 59 3e be 37 dd c5 bd 62 04 a4 bd
       -0.086271554 -0.18588868 -0.09661334 -0.080086485
000120 b5 e8 43 3e 00 db ab bd 1e 9a 26 3e dd ae 0b 3d
       0.1913174 -0.0839138 0.16269729 0.03410231
000130 1a 82 27 3e 8e c4 04 be ee b8 25 be 6a 1c e6 3d
       0.16358224 -0.12965605 -0.16183826 0.11235888
000140 8f 07 00 3d f2 7a 51 bc 9d 01 ba bd e4 3c 99 bd
       0.03125721 -0.01278566 -0.09082339 -0.07482317
000150 38 11 28 3e a6 5d ed bc e6 63 67 3d 35 18 8e bc
       0.16412818 -0.02897532 0.056491755 -0.017345527
000160 fc 39 92 3d 4b d2 18 be 72 f3 05 be ab 2a 12 3e
       0.07139966 -0.1492397 -0.13081148 0.14274089
000170 db 29 4e 3e f7 5b 0e 3d 0a b0 67 bd 34 19 0c be
       0.20133154 0.034755673 -0.05656437 -0.13681489
000180 f0 72 ff 3d 23 aa 8a bd 15 89 4c be 27 67 5d 3e
       0.124730945 -0.06770732 -0.19974168 0.21621381
000190 67 d1 63 bd 50 00 8c 3c ad 2b ba bd 1e bc c4 bd
       -0.055619624 0.017089993 -0.09090362 -0.09606193
0001a0 1e 14 5e be a6 be 00 be c7 54 57 bd f1 96 a9 bd
       -0.21687362 -0.12572727 -0.052571084 -0.08280743
0001b0 2b 37 f0 bc 04 44 59 3e 6b dc 18 bc 35 a0 1d 3e
       -0.029323181 0.21217352 -0.0093298955 0.15393145
0001c0 fd 91 17 3e d1 a5 0f bd f2 ac b7 bd 48 61 2f 3d
       0.14801784 -0.035070244 -0.089685336 0.042817384
0001d0 18 28 a0 bc 34 79 09 be 77 f4 21 3e 6d 6c 49 3d
       -0.019550368 -0.13425142 0.15815912 0.04917567
0001e0 1e 05 57 3d fd cd 08 3e a6 34 57 bd 2e 36 81 bd
       0.052495115 0.13359828 -0.052540444 -0.06309162
0001f0 b8 05 08 3e 1d 83 08 3d 26 c7 5d 3e bb 29 01 be
       0.13283432 0.033328164 0.21658 -0.12613575
000200 78 fa 8b bd de 79 5e 3e 38 06 0d be 8f af 27 3d
       -0.068348825 0.21726176 -0.13771904 0.04093891
000210 8d 93 36 3d c8 50 0c 3d 20 bd 6b bc ed 56 60 be
       0.04457431 0.034256727 -0.014388353 -0.2190816
000220 d3 e6 43 3e a4 e1 4a 3e f4 7b 51 bd 8b 64 13 3e
       0.19131021 0.19812638 -0.0511436 0.14393823
000230 ef db 84 bb b2 c0 4b 3e f2 9b ed bd ff ca 4d 3e
       -0.0040545384 0.19897726 -0.1160201 0.20096968
000240 45 7c 40 be 51 56 b9 bd 3b 56 44 be b3 98 fa 3d
       -0.18797405 -0.09049667 -0.1917352 0.12236156
000250 9f ce e9 3c 66 dc 0d 3e d2 f7 0d 3c 70 b5 0f be
       0.028540907 0.13853607 0.008665042 -0.14034057
000260 7c fc 25 3e 27 73 41 3e 90 71 18 bd 15 80 3d be
       0.16209596 0.18891583 -0.037217677 -0.1850589
000270 7d 15 c4 3c c4 ff 36 bc 98 f5 51 bd 91 a7 16 be
       0.023936028 -0.011169378 -0.051259607 -0.14712359
000280 84 43 3f 3d c2 2a 71 3d 45 11 0c 3e f4 32 af bd
       0.046695247 0.058878668 0.13678463 -0.085546404
000290 75 bc 20 bd de 81 f0 3d 65 3e 16 3e 1e da 49 be
       -0.039242227 0.1174352 0.14672239 -0.19712111
0002a0 83 3f 29 3e 77 05 c6 3d ad 89 ee bc 4d 1d 9e bc
       0.16528134 0.09669011 -0.029118383 -0.019301081
0002b0 07 7b e0 bd 7c 22 34 be a2 22 e6 bc a2 5e ba bd
       -0.109609656 -0.1759128 -0.028092686 -0.09100081
0002c0 16 99 51 be 39 63 7e 3d 8a 7e 3e be e2 ee 07 be
       -0.20468554 0.062106345 -0.18602958 -0.1327472
0002d0 d6 f2 e5 bd 2e d7 af 3c a8 c7 2b be c7 98 45 3c
       -0.11227958 0.02146491 -0.16775382 0.012060351
0002e0 74 c0 39 3e 97 4b 9f bd 27 dc af bd 50 67 39 bd
       0.18139821 -0.077780895 -0.085869126 -0.045264542
0002f0 12 9f aa bc fe 1a 27 3e f3 55 47 bd af 91 45 3e
       -0.020827804 0.1631889 -0.048665952 0.19293855
000300 f6 ce 84 3c 4d cd 5b be df 25 36 3e 32 77 b6 3d
       0.016211968 -0.21465035 0.17787884 0.089094535
000310 6d 1f 19 be 62 26 36 3e 8b d7 de bd 74 eb 07 3b
       -0.14953394 0.1778808 -0.10880955 0.0020739706
000320 2d ed 51 be 90 53 22 3d a2 3b 03 3e f5 30 5e be
       -0.20500632 0.039630473 0.12815717 -0.21698363
000330 23 65 be bd 11 1a 40 3e 32 e5 98 bc 0f 71 56 3e
       -0.09296634 0.18759944 -0.018663976 0.20941566
000340 27 68 e2 bd fe 12 4a be 10 a4 39 be ba 2a 22 bc
       -0.11055022 -0.19733807 -0.18128991 -0.009897882
000350 c4 35 0f be 1c d8 06 be 2c 52 e3 bc 3e 63 fe ba
       -0.13985354 -0.13168377 -0.027749144 -0.0019408239
000360 8e d3 d3 bd 70 42 14 3e f7 8f 1b be da 0b 47 be
       -0.10343085 0.14478469 -0.15191637 -0.19438115
000370 8d 0a 59 be 0d f4 4e bb 4f 55 14 be 9d bb 2f 3e
       -0.21195431 -0.003157857 -0.14485668 0.17161413
000380 06 93 b8 bc 16 1c 5a be 3c 5c d5 bd 68 ca 9c 3d
       -0.022531044 -0.21299776 -0.10417983 0.076557934
000390 29 b1 61 be 5e 21 4f be 0d db 11 be dd a1 2b be
       -0.22040237 -0.20227572 -0.14243717 -0.16760965
0003a0 02 a6 ec 3d 50 ff fa 3d 12 f2 5b 3e 8f 91 14 bd
       0.11555101 0.12255728 0.21479061 -0.036271628
0003b0 b8 39 b0 3d dc 2c 1b bc d6 c7 ee 3c 9a a4 36 bd
       0.08604759 -0.0094711445 0.029148024 -0.04459057
0003c0 ec 5b 2f 3e d8 76 c5 bd 3f 2c 11 be fd d1 ac 3d
       0.17124909 -0.09641808 -0.14177035 0.084384896
0003d0 0e aa 8b 3c 1c e6 32 3e aa e3 14 3e 68 4e 31 be
       0.017048862 0.17470592 0.14539972 -0.17315066
0003e0 99 0b a6 3d b4 81 26 3e 33 00 ab bd b5 a5 6c bd
       0.08107681 0.16260415 -0.083496474 -0.057775218
0003f0 89 19 08 be f7 1a 47 be 00 0d f6 3d 4d 04 54 3d
       -0.13290991 -0.1944388 0.12014198 0.051761914

conv1.bias f4 [32]
000000 ed 23 af 3d 2a 27 da 3c 11 56 22 bd b7 95 60 be
       0.08551774 0.026630003 -0.03963286 -0.21932112
000010 bc 0a 58 3b 9e 49 8f 3c a9 d0 78 bd 2b 69 c1 bd
       0.0032965383 0.017491158 -0.06074587 -0.09443887
000020 bf 9e 0c be 80 19 f6 3d 0c f6 74 be 63 4e 5a 3e
       -0.13732432 0.120165825 -0.23921984 0.21318965
000030 eb ca fc bd d8 a4 41 be e6 71 82 3d 80 62 76 3e
       -0.12343391 -0.18910539 0.06369381 0.24061012
000040 72 0c 5d be 86 a4 e7 bd 9c 8b 44 3e 48 21 44 3d
       -0.21586779 -0.11310677 0.19193882 0.047883302
000050 64 77 4d be 38 bd 1e 3e af f9 f5 bd d5 16 c5 bd
       -0.20065075 0.15501869 -0.12010514 -0.096234955
000060 9a 58 45 be ca 88 57 be 6d 46 19 3e 91 d6 84 bd
       -0.1927208 -0.21048275 0.14968272 -0.06486238
000070 72 76 cb bc d4 17 58 bc 59 b0 90 bd ac 39 51 3c
       -0.024836753 -0.013189275 -0.07064886 0.012770098

conv2.weight f4 [64, 32, 5]
000000 cc bf 5f 3c 16 7b 5d bc 72 a2 ca 3c 02 52 42 3d
       0.013656568 -0.0135181155 0.024735663 0.04744149
000010 c8 11 23 bd 99 4c 33 bd d4 c4 27 3c 8e 15 85 bb
       -0.03981188 -0.04377422 0.010239799 -0.0040614074
000020 dc d8 a2 3c 60 e6 a8 bc f9 71 cd bb ed 05 1d bb
       0.019878797 -0.020617664 -0.00626969 -0.002395983
000030 27 c1 a0 3d 22 62 ef bc 07 d7 7a 3d 7f 37 59 bd
       0.07849341 -0.029221598 0.061240222 -0.05303144
000040 dc 4b 7c 3d 16 a0 18 bd 12 3d 71 bb d4 19 86 3d
       0.061595783 -0.037262045 -0.0036810082 0.06547895
000050 6c 34 05 3b d7 f8 d6 bc c7 29 1d 3c 9b 8d 00 3d
       0.0020325435 -0.026241703 0.00959248 0.031385045
000060 75 df 62 3d b8 b8 45 3c 03 b4 1c 3d cd 79 87 3d
       0.055388886 0.012067966 0.03825761 0.066150285
000070 ba 77 22 3d d3 e7 66 ba 30 cd a0 bc ca 83 0c bd
       0.03966496 -0.0008808348 -0.019629091 -0.03430537
000080 d3 20 2f bb 27 de 2b 3c 04 ea 74 3d 5b 6e fd 3c
       -0.0026722446 0.010489977 0.059793487 0.03093641
000090 6f 8b 07 bc d9 20 80 bd 4c c3 4f bc 56 7f 88 3d
       -0.00827299 -0.06256265 -0.01268084 0.066649124
0000a0 30 5c 54 3d 9d de f3 3c 62 0c da 3b 1d 48 16 3d
       0.05184573 0.029769236 0.006654308 0.036689866
0000b0 f2 d2 1e 3d f3 50 80 3c ad 4b 76 bd 9a 30 c3 bd
       0.038775392 0.0156636 -0.060130764 -0.095307544
0000c0 cd 03 82 bd d2 1c 03 3d 9b b2 bd 3c 8d c5 83 bd
       -0.06348381 0.032009907 0.023156455 -0.06434164
0000d0 2c df 7e 3d 74 c4 6e 3d c3 7e 10 3d 49 49 56 3d
       0.062224552 0.05829282 0.03527714 0.052315984
0000e0 c9 21 ac 3b a3 9c ae bd e6 f2 00 bd 0d 90 34 3d
       0.005253051 -0.0852597 -0.031481646 0.04408269
0000f0 2e 04 d9 3c 89 61 6e bd e1 43 f8 3b bf 3a 51 3d
       0.02649125 -0.058198486 0.007576451 0.051081415
000100 7a da ab bb bd 0c 04 3d dc 55 86 bd 69 17 c7 3c
       -0.0052445503 0.03223871 -0.06559345 0.024303155
000110 3c 10 12 bc 31 59 4d bd 12 1e c9 3c 6b 2b 47 3d
       -0.008915003 -0.050133888 0.024550471 0.04862539
000120 54 1b c8 bb 94 98 82 3d 95 9e 8a 3d 4f 0f 80 bd
       -0.0061067734 0.06376758 0.06768528 -0.0625292
000130 fb bf 43 3b 08 ae 0c 3d ed a4 01 bd 09 fa 24 bc
       0.0029869068 0.034345657 -0.031651426 -0.010069379
000140 07 0b 04 3d 64 7b c8 bc fc a0 2d bd 7e 93 93 3c
       0.03223708 -0.0244729 -0.042389855 0.018014666
000150 1b ea 02 bd 24 c8 3f 3d e4 c0 9f 3d ee f3 cc 3c
       -0.03196154 0.04682173 0.07800463 0.025018658
000160 ea 58 e4 3c db ee 35 3c bb 3a 0e bd c7 c2 e8 3c
       0.027874429 0.011104311 -0.03472398 0.02841319
000170 6a f1 75 bd a6 7f 98 3d 45 60 94 bd c9 c9 06 bc
       -0.060044684 0.07446222 -0.072449245 -0.00822682
000180 3b 73 0d 3d 8e f5 d5 3d 8e 59 2d bd f8 f1 94 bd
       0.03453372 0.104472265 -0.042321734 -0.072727144
000190 b7 59 a0 bd f0 ae 82 3d 7d 13 cd bc 5b 08 93 3c
       -0.07829612 0.06381023 -0.025033707 0.01794832
0001a0 83 32 f4 3c 15 85 1c 3d b3 28 74 3d 88 af d7 bd
       0.029809242 0.038212854 0.059609126 -0.10531527
0001b0 45 0a 23 bd ac b7 16 bd 2e 1f 26 bc 52 12 3e bd
       -0.039804716 -0.036796257 -0.01013927 -0.04640419
0001c0 47 af 87 bd e6 fe 36 bd 96 bb 9b 3c 1c a7 75 3c
       -0.066252284 -0.044676684 0.019010346 0.014993455
0001d0 33 df 3e 3d c8 95 0c 3d 5d 5f 78 bd 0d a2 8c bd
       0.046599578 0.03432253 -0.06063782 -0.06866846
0001e0 62 e9 2a 3d 0d 4b 6f 3c 1e 35 6d bd 49 44 04 3d
       0.041726477 0.014605296 -0.057911985 0.032291684
0001f0 f4 bf 5d 3d 71 b7 63 bd cf 39 1c bd 82 4c 45 bb
       0.05413814 -0.055594865 -0.038141068 -0.0030105417
000200 f9 87 40 bd 64 48 6a 3b 8f 81 88 3d b9 d0 68 3d
       -0.047004674 0.0035748715 0.06665336 0.05683968
000210 e5 4d 28 bd 8d e6 ae 3c 29 c6 f5 3c ed 82 49 bd
       -0.04108991 0.02135017 0.030001717 -0.049197126
000220 65 00 84 3c 26 83 96 bd c3 2c 74 bd 4e 7c a2 3c
       0.01611347 -0.07349233 -0.059613 0.019834664
000230 53 a4 c5 bc cc 44 8a bc 70 e1 5f 3c dd d3 24 bd
       -0.024126207 -0.016878508 0.013664588 -0.04024111
000240 9e 51 60 3c 46 eb 95 bd 7c 3b 6a 3d ea 35 44 bc
       0.013691334 -0.073202655 0.057185635 -0.011975745
000250 db e6 82 bc ce aa 62 bd d4 b3 fd 3c d8 86 9c 3d
       -0.015979221 -0.055338673 0.030969538 0.07642907
000260 b0 21 b9 bd 83 87 dc bc 57 c4 8b bc 44 35 80 3d
       -0.090396285 -0.026920086 -0.017061396 0.062601596
000270 7d fd a3 3c ee e3 8c bd 35 e6 23 bb b0 9e 21 bc
       0.020018334 -0.06879412 -0.002500904 -0.009864494
000280 ac 64 70 bd c2 91 67 3c 42 e2 5e 3d 66 dc 7e bd
       -0.05868976 0.014133872 0.054414995 -0.062221907
000290 d9 3c 9c bd c7 94 40 3d f1 a8 d7 bc 36 9b d7 bb
       -0.07628793 0.047016885 -0.026325675 -0.006579782
0002a0 94 94 99 3c d8 17 b9 3c fc fd 30 3d 52 a1 88 bb
       0.018747605 0.022594377 0.04321097 -0.0041696215
0002b0 f2 7e 88 3d 14 9e 8a bd 97 94 6a bd 68 25 38 3d
       0.06664838 -0.06768432 -0.057270613 0.04495755
0002c0 47 5f 6f bd 57 5e 9d bd 01 13 73 3d ba 78 bf 3c
       -0.058440473 -0.076840095 0.059344295 0.023372997
0002d0 ba 7c 65 bd 19 6c e6 3c cb 73 8e 3c f0 b7 dd bc
       -0.05602715 0.028127717 0.017389199 -0.027065247
0002e0 75 e1 0f 3c 09 49 b5 bc 27 24 6a bd 6b 69 ec 3c
       0.0087817805 -0.022129552 -0.057163384 0.028858861
0002f0 dc 3d 9d bc 53 53 8b bd 42 04 9c bc 44 54 39 bd
       -0.019194536 -0.06803002 -0.019044999 -0.045246378
000300 4d 26 48 3d a2 e5 6d bd 99 15 f4 3c cd 82 7d bd
       0.04886465 -0.058080323 0.029795455 -0.06189232
000310 67 e9 2c bc d3 27 6f 3d 8a 41 11 3c 10 a7 8d bc
       -0.010553694 0.05838759 0.008865723 -0.017291576
000320 e7 5e 74 bc 67 1f 80 3c e5 04 89 bd 9d 8d 35 3c
       -0.014915205 0.015639974 -0.06690387 0.0110811265
000330 63 45 87 3d 11 0a 1f 3d c6 3a 52 3d 13 c7 4a 3c
       0.06605031 0.03882796 0.051325582 0.012376565
000340 27 35 3a bd 69 89 83 3d 8c ca 65 3c a9 f0 86 bd
       -0.045460846 0.06422693 0.014025342 -0.06588871
000350 9e 40 30 3c 3a 04 4f bd 20 46 bb 3c 00 20 84 3d
       0.010757593 -0.05054114 0.022860587 0.06451416
000360 3c 34 c1 3c cf fb a1 3d bd 5f fb bc f5 b9 81 bd
       0.023584478 0.07909357 -0.0306853 -0.063342966
000370 90 8a 98 3d 47 4a 90 bd cf bc d5 b9 ff 96 02 bd
       0.07448304 -0.07045417 -0.000407672 -0.031882282
000380 53 59 0c bd 99 86 8b 3c 41 85 d2 bc 3e 21 67 3d
       -0.034264874 0.017031955 -0.025698306 0.056428187
000390 c6 c6 15 3c fe 83 f6 3c 6e b4 a1 bc 44 4d cf 3c
       0.00914163 0.030092236 -0.019739356 0.025305398
0003a0 c0 9f 33 bd 3c 71 64 bd 52 e6 49 bc 73 4e 64 bd
       -0.04385352 -0.05577205 -0.012322979 -0.055738878
0003b0 2a 99 d6 bc d0 a5 7c bd c3 32 a2 3c 64 02 f1 3c
       -0.026196081 -0.06168157 0.019799596 0.029420085
0003c0 88 29 1f bd 05 cb 43 3d 55 c5 f3 3b a5 51 3e bd
       -0.038857967 0.047801036 0.0074392953 -0.04646458
0003d0 8f 22 f3 3c cd dd 2f bd 38 08 54 bd 5e 14 91 3d
       0.029679565 -0.042936135 -0.05176565 0.07083963
0003e0 6e f9 a8 3c c2 7a f8 bc 25 f4 79 bd 5a 1a 32 3d
       0.02062675 -0.030331973 -0.06102385 0.043482162
0003f0 ae 30 89 3d 0c 1f 87 bc bb ce 57 3d 9c ec 86 3b
       0.06698738 -0.016494296 0.052687388 0.0041175615

conv2.bias f4 [64]
000000 24 cd 25 bd b0 bb 9f bd 25 a1 87 bd 94 c2 51 bd
       -0.04047884 -0.077994704 -0.06622533 -0.051210955
000010 6c e1 ab 3b 09 90 51 bd 49 62 7b bc 32 8f 3e bd
       0.0052453782 -0.051162753 -0.015343257 -0.04652328
000020 7c 9b ae 3c ad 09 c0 bc 5b 4d 03 3c 0e d7 38 bc
       0.021314375 -0.023442114 0.008014048 -0.011281742
000030 ce 27 1e 3d 61 34 42 bd 6b de 76 3d 11 b7 67 bd
       0.03861218 -0.047413234 0.060270708 -0.05657107
000040 14 b1 cb 3c e7 f3 fb 3c a4 54 c8 bd 9f 09 e9 bc
       0.02486471 0.03075595 -0.09781769 -0.02844697
000050 11 a1 89 bc 35 f5 98 3d 6e 56 09 3d 96 2c 99 3d
       -0.016800435 0.074686445 0.03352969 0.07479207
000060 24 62 76 3d 19 90 0d bd fc f1 b5 3d d5 c8 40 3d
       0.060152188 -0.03456125 0.088840455 0.04706653
000070 b0 08 b2 3c db cf 4d bd b4 50 3b 3d 74 ca 16 bd
       0.021732658 -0.050247055 0.04573126 -0.036814168
000080 2e 6b 15 3d f4 54 17 bd 86 77 25 bd 3b f4 0d bd
       0.036479168 -0.036946252 -0.04039719 -0.034656744
000090 ba 9d 19 3d 08 5f af bc 90 6c ca bc 1d 6b a3 3d
       0.037503935 -0.02140762 -0.02470997 0.079794146
0000a0 13 b6 9e 3c 77 c5 64 3d 78 90 ba bd 54 8c ab bd
       0.01937393 0.05585238 -0.091095865 -0.08376375
0000b0 be 87 80 3c 14 e8 68 bd 59 97 37 bb 27 b0 0e 3d
       0.015689727 -0.056861952 -0.0028013794 0.03483596
0000c0 83 a3 08 3d 56 1c 45 3a 3a b2 33 bd 58 77 81 bd
       0.033359062 0.0007519176 -0.043871142 -0.06321591
0000d0 cd d6 74 3c 4c 45 26 bd 98 8d b8 3c cd c3 24 bd
       0.014943791 -0.04059343 0.022528455 -0.040225793
0000e0 5d 46 2f 3d 89 9a b6 bc 9e 75 17 bd f6 38 5d bd
       0.042791713 -0.022290485 -0.036977403 -0.0540094
0000f0 33 4a 88 3d 0e e6 3f 3d e4 d0 be bc 0f 12 a8 bd
       0.066547774 0.046850257 -0.023292966 -0.082065694

conv3.weight f4 [128, 64, 5]
000000 c9 02 7f bc b1 38 95 3c 11 a1 4f 3a fb c2 ea bc
       -0.015564629 0.01821551 0.0007920424 -0.028657427
000010 95 1e 1b 3c a9 39 46 3b 58 10 14 3c ed 75 8e bd
       0.009467741 0.003024677 0.0090371 -0.06956086
000020 82 e5 41 bd 44 0b 38 3d 9a 62 33 3c 7d a6 de ba
       -0.047338016 0.04493262 0.010948801 -0.0016986873
000030 d8 b9 ca 3c 77 91 2c bd fe 91 8c 3b 0e 6a 25 3d
       0.02474682 -0.042130914 0.0042898646 0.040384345
000040 18 3a e3 bc 44 38 03 3d 47 6f 1b 3d 84 5f 79 bb
       -0.027737662 0.03203608 0.03794792 -0.0038051317
000050 04 d0 61 3d b0 25 bd 3c f4 9d a3 bd a9 2f 1b bd
       0.05513002 0.02308926 -0.079891115 -0.03788725
000060 32 66 30 3d 89 e6 2b bd 3e 49 05 bd 0f 45 37 bc
       0.04306621 -0.041967902 -0.032540552 -0.011185898
000070 ac f8 62 ba f0 51 2f bd 16 13 e2 bb f4 ee b7 bc
       -0.0008658271 -0.04280275 -0.006899248 -0.022452809
000080 60 a0 46 3d 50 78 3e bd 6a 1d dc 3b 72 05 86 3c
       0.04849279 -0.046501458 0.0067173736 0.016360018
000090 c7 81 06 3d 52 f5 27 3d 4e 50 13 3d 36 c2 1d 3c
       0.03283861 0.04100544 0.035965256 0.009628823
0000a0 8f 3e 55 3d 51 ef 12 bd 9b 37 b2 3c 82 69 f1 bb
       0.052061614 -0.03587276 0.02175503 -0.007367314
0000b0 75 50 fc bc 5e 44 56 bd ab e3 bb 3c 2e 6d 06 3c
       -0.030800084 -0.052311294 0.022935709 0.008204741
0000c0 cc d8 22 bd e2 d7 6f bc 24 9e bc 3c 12 d4 57 3d
       -0.039757535 -0.014638873 0.023024626 0.05269248
0000d0 02 9f 67 3d 64 da 58 bd 8d fc 6d 3c 53 ff f9 3c
       0.056548126 -0.05294265 0.014525545 0.030517256
0000e0 e0 01 5f bd fc fc 7a 3d 53 e9 09 3d eb 59 0e bd
       -0.054445148 0.06127642 0.03366978 -0.03475372
0000f0 d7 1d 5f bc 64 2b 14 bd 3b bf a8 3c e0 3a 3a 3d
       -0.013617954 -0.036174193 0.020598998 0.045466304
000100 69 cb 24 bd 0a 14 e4 bc 8e f7 34 bc 0c d8 20 bd
       -0.04023305 -0.027841587 -0.01104535 -0.03926854
000110 a0 72 49 bd 17 76 26 bc fd 7c 43 3d 83 cb 39 bc
       -0.04918158 -0.010159991 0.04772662 -0.011340025
000120 d0 2f 3c bd 4e 9f 81 3b 6c f7 c7 bb 0e c6 da 3c
       -0.045944035 0.003955758 -0.006102493 0.026705768
000130 89 5a 2a bc b7 dd 58 bc d9 17 02 3d fa ef 50 3c
       -0.010397562 -0.013236455 0.031761024 0.012752527
000140 02 62 3d bd af 9c 08 3d e5 32 b4 bd cb e3 29 bd
       -0.046236046 0.03335255 -0.0879877 -0.041477006
000150 85 62 bb bc ae bd 85 3c a0 cb 35 bd 84 34 f5 3c
       -0.022874126 0.016325798 -0.044383645 0.029932268
000160 1a c0 5c 3d 8d 72 cc bc 9d 2f de 3c e8 e5 6a bc
       0.05389414 -0.024956966 0.027122313 -0.0143370405
000170 73 7a e2 bb 07 fd 99 3c e4 fd 6c bc c8 90 ea 3c
       -0.0069115697 0.01879741 -0.014464829 0.02863349
000180 f2 13 50 bd 0d 0c 0c bd 3b ee ca 3c c4 06 c0 bc
       -0.05080027 -0.03419118 0.0247718 -0.023440726
000190 38 32 d1 bb 5c 6a d9 bb b7 d8 39 3d f9 70 19 3d
       -0.0063841604 -0.0066349935 0.04537269 0.037461255
0001a0 73 d2 46 bd a4 50 41 bd d2 93 4c 3d 91 1b 10 bd
       -0.048540544 -0.047196046 0.04994566 -0.03518254
0001b0 ba 37 5a bd 90 b1 45 bd 4c cd 9f 3c c6 28 71 3c
       -0.0532758 -0.04826504 0.019507073 0.014719194
0001c0 8f 8c 32 bd 96 8d 33 3d 2c 6e 5f 3c 29 98 25 3d
       -0.04359108 0.0438362 0.013637107 0.040428314
0001d0 fc 4e c3 bc 0a fa 97 3c 1b 45 b6 3c 42 bb 2d 3d
       -0.023841374 0.018551845 0.022249749 0.04241491
0001e0 36 39 8e bc 0a a4 29 3d 55 82 88 bd f5 a3 10 3d
       -0.017361265 0.041416205 -0.06665484 0.03531261
0001f0 52 0c 25 bc ca d5 9c bc 66 2b f0 3c 26 1a 94 3c
       -0.010073738 -0.019144911 0.029317569 0.018078875
000200 02 17 aa bc d6 69 91 3a 46 0b 53 3d 2b 23 69 3c
       -0.020762924 0.0011094164 0.051524423 0.014229576
000210 28 2e 00 bd 95 dc ea bc cb 28 f3 3c cf 93 f7 bc
       -0.031294018 -0.028669635 0.029682538 -0.030221848
000220 09 36 ca 3b 82 51 ae bd d7 9f 7d 3c 3b d1 0b 3d
       0.0061709923 -0.0851164 0.015480003 0.034135085
000230 3b c7 07 bd fe 49 0d bc be f7 b1 bd 69 ae ae bc
       -0.033148985 -0.008623598 -0.08689831 -0.0213234
000240 12 8f b1 bc a1 19 5d 3d 18 50 62 bd 90 d7 a9 bd
       -0.021674667 0.05397952 -0.055252165 -0.082930684
000250 ea bf a9 3c 6e 48 3c bc ca f8 09 bc 84 80 13 bd
       0.020721395 -0.011491878 -0.008421132 -0.036011234
000260 80 c9 cf 3c b9 cb 0e bd cc 18 59 3d 3c a8 ae 3c
       0.025364637 -0.034862254 0.053002164 0.021320455
000270 84 85 a4 3b 76 79 0c 3d bb 94 b9 bc e1 1d 28 bc
       0.005020799 0.03429552 -0.022653928 -0.01026103
000280 44 f4 a9 3c 1f b1 26 39 6b dd aa 3c c7 8e 0c 3d
       0.020746358 0.00015896976 0.020857533 0.03431585
000290 e7 73 ab 3c 9a d4 db 3c 6b eb d8 bc 51 3b 27 bd
       0.02092929 0.026834775 -0.026479444 -0.040828053
0002a0 d9 c9 28 bd 4a 33 2b 3d ea 42 64 bd df d8 a8 bc
       -0.041208122 0.04179696 -0.055727877 -0.020611225
0002b0 15 af 8c bc 19 6c 32 bd 9b db 00 bd c1 c0 37 bd
       -0.01717333 -0.04356012 -0.031459432 -0.04486156
0002c0 9f 15 31 bc 71 cd 39 3d c6 84 cb 3b b0 53 58 bd
       -0.0108083775 0.04536194 0.006210896 -0.052814186
0002d0 39 7c ea bc 9c 2d 44 3c fa 27 8b bd 3f 4a 19 3d
       -0.028623687 0.011973765 -0.06794734 0.037424322
0002e0 95 0d ce 3c 70 48 4d bd 7e 61 47 bc 71 82 07 bd
       0.02515296 -0.05011791 -0.01216924 -0.033083383
0002f0 e1 57 a8 bc d5 87 2e bd 7c e3 06 3d ca 21 a6 ba
       -0.020549716 -0.04261001 0.03293179 -0.0012674865
000300 66 4f af bd 80 91 30 bd a8 f7 58 3d ab 64 31 3c
       -0.08560066 -0.04310751 0.05297056 0.010827224
000310 1f 88 0d 3d 93 f5 0d bd d8 a1 f9 3c 30 f2 71 bc
       0.034553643 -0.034658026 0.03047268 -0.014767215
000320 da 6f 52 bc e3 54 e6 ba d6 a7 74 bd 6a 69 dd 3a
       -0.01284405 -0.0017572906 -0.059730373 0.0016892378
000330 f9 55 26 bc 6b fb a0 bc ce e7 8d 3c 2f d9 3a bd
       -0.010152333 -0.019651135 0.017322447 -0.04561728
000340 25 9a ad 3c e8 e9 cd bb c4 8f 7c 3c ae 49 37 bd
       0.021191666 -0.0062839873 0.015415136 -0.044748
000350 5b 2f 30 3d 91 54 fd bc 91 02 9d bc 91 56 5b bd
       0.04301391 -0.030924113 -0.019166263 -0.053549353
000360 74 ba 24 3b 20 c2 88 3b 0c bb 18 bd 6d 84 15 bd
       0.0025135549 0.004173532 -0.037287757 -0.036503244
000370 dc 08 3a 3d 98 66 be bc a4 ab c6 bc 1f 08 4e 3d
       0.045418605 -0.02324228 -0.024251767 0.050300714
000380 53 16 33 bb 08 b7 0e 3c c3 d5 25 3d 66 ed 27 bd
       -0.0027326539 0.00871063 0.040487062 -0.040997885
000390 5d a4 ce 3c 7d e0 c0 bc 57 51 49 3a f5 b8 8d bc
       0.025224859 -0.023544544 0.0007679662 -0.017300108
0003a0 f7 b9 34 3d 0f 1d 51 3d 24 a1 0c 3c f9 a1 ec bc
       0.044122662 0.051053103 0.008583341 -0.028885828
0003b0 2d 35 11 3c 02 74 9e bd 4c 91 3c bd f8 66 f4 bb
       0.008862776 -0.077369705 -0.046037003 -0.007458564
0003c0 5f 4b 50 3c 3e 87 0f bd a9 5e 79 3c 92 01 b3 bc
       0.012713282 -0.035041086 0.015220323 -0.021851335
0003d0 04 55 2e 3d 56 25 43 bd 06 6b 3c bd 15 20 53 bc
       0.042561546 -0.04764303 -0.046000503 -0.012886067
0003e0 e6 89 fd 3c ab 7e 31 3d ab b4 a4 3c 03 3e de 3b
       0.030949544 0.04333369 0.02010568 0.0067822947
0003f0 eb 31 27 3c 09 26 72 bc 66 d2 08 bd 5d d7 58 3c
       0.010204772 -0.014779576 -0.033403777 0.01323494

conv3.bias f4 [128]
000000 23 30 df bc 6f 0a c5 3c 19 90 c9 bc ff d9 5a 3d
       -0.027244633 0.024052827 -0.024604844 0.053430554
000010 f3 5b d1 3c 2f eb 92 3c c6 84 40 3d aa 3a 3d 3d
       0.02555654 0.01793441 0.047001623 0.046198525
000020 3d b5 c1 3c fa fb fa 3c 01 4a 0b bd 65 2a a9 bc
       0.023645991 0.03063773 -0.034006122 -0.020650098
000030 67 42 dd 3b 51 7c e7 bc 54 11 f5 bc 6a bb b2 3c
       0.0067523005 -0.02825752 -0.02991549 0.021817882
000040 94 c0 e2 bc a7 ff 01 bc d5 5e d1 3c 3e 71 35 3c
       -0.027679719 -0.007934487 0.025557915 0.011074362
000050 3a 33 65 3d ef a3 a6 3d f2 5a 22 bc 90 8c d8 bb
       0.055957057 0.081367366 -0.009909378 -0.006608553
000060 ab 06 dd 3b 7c 2d 1c bc 84 9b d7 bc c8 06 1b 3d
       0.0067451796 -0.009532329 -0.026319273 0.037848264
000070 e8 86 b3 3a e3 ec 52 bc 91 5b 9d 3c 15 39 7b bd
       0.0013696821 -0.012873861 0.019208701 -0.061333735
000080 b2 07 2d bd c3 09 c0 3d e9 8c f5 ba c1 85 bf ba
       -0.042243667 0.09376862 -0.0018734011 -0.0014612005
000090 e8 1e ca 3c 1b 0e e4 3c 84 64 ac bd a4 77 39 bd
       0.02467294 0.027838757 -0.08417609 -0.045280114
0000a0 4b e1 b8 bb d5 96 d8 bc 41 e7 1d 3d ad ae 8f bc
       -0.0056420914 -0.02643911 0.03855062 -0.017539347
0000b0 20 ff 88 3b 7c 25 51 3d 22 44 34 3d fb bf b8 bc
       0.004180804 0.05106114 0.04401029 -0.02255248
0000c0 bb 48 bb bc d7 82 b9 bb 26 f8 e4 3c 03 8b 6e bd
       -0.022861829 -0.0056613493 0.027950358 -0.05823804
0000d0 c0 16 cc bc 66 42 08 3d 78 1c 55 3d aa f4 c3 bb
       -0.024913192 0.033266447 0.052029103 -0.005980094
0000e0 e3 d8 74 3d 89 0d 59 bc f7 57 6c bd 4d 47 43 3d
       0.05977715 -0.013247856 -0.057701077 0.04767542
0000f0 bf 80 0f bc f0 a9 73 3c 48 14 3f bd 34 5f 71 bc
       -0.008758723 0.014872059 -0.0466502 -0.014732171
000100 18 01 f1 bb e5 7f df bc 08 7e be 3c af b2 ea bc
       -0.0073548667 -0.027282665 0.023253456 -0.028649656
000110 e0 39 1f 3d ba ab d8 3c 15 eb a3 3c 75 2c e3 3b
       0.038873553 0.026449073 0.020009557 0.00693279
000120 86 1c 6b bd f6 9b 27 3d 09 e1 1d bd 50 b2 2f 3d
       -0.05740025 0.04092022 -0.03854469 0.04289466
000130 e0 aa 74 bd cc 7e 86 bc 0f f5 ed bc 2d bf f2 bc
       -0.05973327 -0.016417883 -0.029047517 -0.029632175
000140 ef 99 a7 3b 8f 73 62 3d 3a 0b bf 3c 96 1b 40 bd
       0.005114786 0.055285987 0.023320783 -0.046901308
000150 f8 a9 c0 bc ad 3b a8 3c 62 9d bc bc fd 21 43 bd
       -0.023518547 0.020536268 -0.023024265 -0.047639836
000160 2c 31 21 3d cb 15 8a bc 08 e8 24 3d 91 d3 bf 3c
       0.039353535 -0.016856095 0.040260345 0.023416312
000170 6e a0 d4 bc 17 7c 26 bd ee 6b d5 bc d8 53 66 bd
       -0.025955405 -0.040645685 -0.026052441 -0.056232303
000180 c0 fc 86 bd 35 3d 5f 3d fe 96 d1 3c 94 23 7f 3d
       -0.06591177 0.05450173 0.025584694 0.06228979
000190 57 65 13 3d 68 b9 7f 3d 57 eb 50 3d 36 a0 13 3c
       0.035985317 0.062432677 0.051005688 0.009010365
0001a0 40 82 83 3d 2c 12 17 3c 6a 64 5a 3d 15 12 05 3d
       0.064213276 0.009220641 0.05331842 0.032487947
0001b0 a0 a1 a5 bd d9 9b 07 3d b1 1e 63 bd 9e e8 4b bd
       -0.08087468 0.033107612 -0.05544919 -0.049782388
0001c0 02 97 92 3c b3 e1 48 bc 1d d6 b4 bc c9 5a 82 bd
       0.017894272 -0.012260842 -0.022074753 -0.06364972
0001d0 bb 0a ca 3c b4 b1 82 3d 59 c2 c7 3c cb 6e be 3c
       0.02466332 0.063815504 0.024384664 0.02324619
0001e0 af c6 91 bd a8 a2 43 3d 79 96 92 3d 8e 30 8b bc
       -0.07117974 0.047762543 0.07157607 -0.016990926
0001f0 d6 d6 78 bc 84 25 05 3d 74 e1 6c bc 4e 50 1c 3d
       -0.01518794 0.03250648 -0.014458049 0.038162522

linear1.weight f4 [256, 128]
000000 01 e3 e5 3d fc 92 91 bd 98 5e 39 bc 0a 6c d2 bd
       0.11224938 -0.07108113 -0.011314057 -0.10274513
000010 1a c6 e1 ba 4c b6 4a bd 79 0e 12 3c 71 01 8f 3d
       -0.0017225177 -0.049490258 0.008914583 0.06982697
000020 51 48 15 3d bb c7 86 bd 1d ea 8a 3d aa 25 6f 3d
       0.03644592 -0.06581064 0.06782935 0.05838553
000030 6a b5 0c 3c 68 52 9f bd 26 35 8e 3c 0c 2a 86 3d
       0.008588174 -0.077793896 0.017359328 0.065509886
000040 d3 a6 99 bc 40 d7 a1 bd 3d ee ed 3c 67 d5 f6 3c
       -0.018756306 -0.07902384 0.029044265 0.030131055
000050 20 c3 11 bd 58 71 c3 bd 06 8f 96 bd 09 29 87 bd
       -0.035586476 -0.09543103 -0.07351498 -0.06599624
000060 c3 32 d8 3d c7 cc 8a 3d ec f2 ae 3d 08 4c b2 3d
       0.10556557 0.067773394 0.085424274 0.08705908
000070 c3 4d dd 3d 27 56 c6 bd 89 e1 a8 3d 14 77 da 3d
       0.108058475 -0.09684401 0.082461424 0.106672436
000080 a4 b8 1a bd de 3d 07 3d f1 70 98 3d 6e 77 94 bd
       -0.037773743 0.033017986 0.07443417 -0.07249342
000090 60 95 26 3d c4 5a ae 3b 46 d9 a9 3d ca 19 cf bd
       0.0406698 0.0053208787 0.08293395 -0.10112341
0000a0 12 a2 ac 3c b4 ef b3 bd 6d 85 a7 bd 53 3d 38 bd
       0.021073375 -0.08785954 -0.08179746 -0.04498036
0000b0 8c ad f7 3c 29 ad b6 bb 2c 88 42 bd 2f ab 32 3d
       0.03023412 -0.0055748415 -0.047493145 0.043620285
0000c0 80 dc d2 bd a8 34 56 bd b0 4b d7 bc 58 77 af 3d
       -0.10295963 -0.05229631 -0.026281208 0.08567685
0000d0 66 2e 30 3d fa 8f df bd fd b3 6b bc c5 55 8b bd
       0.043013 -0.10916133 -0.014386174 -0.068034686
0000e0 ef 49 08 bd c2 2c 67 3d 08 cb 0c 3d 02 97 a4 bb
       -0.033273634 0.05643917 0.034373313 -0.0050228843
0000f0 c3 1d ee 3c 8d 27 7f 3c 10 0a 7b bc 05 5d 08 3c
       0.029066926 0.0155733945 -0.015322223 0.008322959
000100 eb 63 3f 3d 74 ff a7 bd 1f f7 b9 3d 3d 51 45 bd
       0.04672615 -0.08203021 0.09080338 -0.048173178
000110 fc cc 02 3d 4e e0 1c 3d 82 f3 95 3d c5 e6 a7 3d
       0.03193377 0.03829985 0.07321836 0.08198313
000120 d2 df af bc 21 bb 7e bd bc b7 2e 3d 22 52 e8 3c
       -0.02146903 -0.06219018 0.04265569 0.028359476
000130 94 7a 47 3d b4 4a 7d 3d 10 f1 95 bd 91 a1 47 bd
       0.048700884 0.06183882 -0.0732137 -0.048738066
000140 04 04 9e bc 02 52 5c bd 18 87 b7 bd dd bb 00 bd
       -0.019289024 -0.053789146 -0.08961314 -0.03142916
000150 5c 80 f2 3c fe dd 78 3d 0b d6 14 bd 42 b4 8a bd
       0.029602222 0.060758583 -0.03633694 -0.06772663
000160 83 a3 8f bd 96 6f 03 bd 6e d0 24 3d 9e 6c 80 3c
       -0.07013609 -0.03208884 0.040237837 0.015676793
000170 7a d6 cb 3d 02 84 65 3d 7d eb 36 bd 57 30 c2 3d
       0.099530175 0.056034096 -0.044658173 0.09481876
000180 a7 b2 7b bd bd 37 81 bd fd 6b 3e bc 04 49 a1 3c
       -0.061449673 -0.06309459 -0.011622426 0.019688137
000190 b2 1f 6e bd be 07 91 bd c1 27 33 bd 7e 8f d8 3b
       -0.058135696 -0.07081555 -0.043739084 0.0066089025
0001a0 8e 82 ae 3c cf cc 8b 3d 0e 27 7c bd 75 32 91 3d
       0.021302488 0.068261735 -0.061560683 0.07089702
0001b0 4c c8 de bc 1a 82 a8 3c 4e 89 d2 3d 11 8c 51 3d
       -0.027195118 0.02056985 0.10280095 0.05115897
0001c0 9f 9c b6 bd 8d e6 df bd cd 55 8a 3d 96 6f 9a 3d
       -0.08916592 -0.10932646 0.067546465 0.075408146
0001d0 7e c0 51 bd bc ec c1 3d 46 a7 54 3d d7 39 94 bb
       -0.051208965 0.094689816 0.051917337 -0.0045234966
0001e0 27 63 bc 3d e7 23 51 3c 8c 67 0a 3d f3 c1 cd bd
       0.09198599 0.012764907 0.033790156 -0.100467585
0001f0 77 51 de 3b 86 e7 df bd 09 fb 77 bc 0f dc bc 3c
       0.0067846137 -0.109328315 -0.015135535 0.02305415
000200 ad 82 8d 3a 28 97 77 3c 39 22 30 3c ff 0c 93 bd
       0.0010796391 0.015111722 0.010750347 -0.07180213
000210 d9 a6 8a bd 78 4c 4f 3d 7a 39 37 bd a8 53 ae 3d
       -0.06770105 0.050610036 -0.04473255 0.0851205
000220 28 d7 6f 3d 03 26 c4 bc 5a e0 bd bd 6b 61 52 bd
       0.0585548 -0.023943907 -0.09271307 -0.051362436
000230 9f 0c c8 3c ed 05 42 bd e1 6d 09 3d 95 d6 73 bd
       0.02442008 -0.047368933 0.033552054 -0.059530813
000240 d1 d1 ad 3d ae f7 9f 3b 4f 26 cf 3d 5d 05 0b 3d
       0.08487285 0.0048818206 0.10114729 0.03394066
000250 50 0c 08 3d 2c 69 90 3b 3f 7b c9 bd 61 38 1b bd
       0.033214867 0.0044070687 -0.098379605 -0.037895564
000260 49 d1 02 bd 2e 47 80 3d 8c 2e 90 bd 72 c0 9e 3d
       -0.03193787 0.062635764 -0.07040128 0.0775155
000270 07 d6 c9 ba d5 97 d3 3a 8f cc 7d bd bd ba 3f 3d
       -0.0015398868 0.0016143272 -0.06196266 0.046808947
000280 74 83 55 bd 7b 82 98 bd a3 8a 18 ba 83 66 e9 3c
       -0.052127317 -0.07446762 -0.00058189983 0.028491264
000290 20 fe 77 bd 54 a5 fa bb ca af 8b 3d 43 4f 70 bd
       -0.060545087 -0.007649103 0.068206385 -0.05866934
0002a0 f6 d6 07 3d b9 aa 91 3d 4d fa 19 3d fd da 90 3d
       0.033163987 0.07112641 0.03759222 0.07073019
0002b0 7f 16 af 3c 04 d3 99 bd c3 90 ba bd 19 ac 72 bd
       0.021373032 -0.07510951 -0.09109642 -0.059246156
0002c0 64 de a7 bc 4b 5d a4 bd ff 28 4a bd c1 7a 7b 3c
       -0.020491786 -0.08025607 -0.049355503 0.015349091
0002d0 62 73 c1 3d 08 b3 b1 bc 8b 3f 2a bd 37 8c 3e bd
       0.09445836 -0.021691814 -0.041564506 -0.046520438
0002e0 1c 63 2b 3c 14 70 9c bc 20 f0 ae 3d 5f d4 e0 bc
       0.010460641 -0.019096412 0.08541894 -0.027445016
0002f0 b7 42 16 3d bd 7d 10 bd b0 44 89 3d 0d 37 e4 bc
       0.036684718 -0.035276163 0.06702554 -0.027858282
000300 be f2 6e bd aa be 99 3d c9 67 cf bc fc fc 21 3d
       -0.058336966 0.075070694 -0.025318043 0.039547905
000310 5a 12 cb 3b c6 69 c2 bc 2f 2d 94 3b 1d 70 9a 3d
       0.006197256 -0.023732077 0.004521988 0.07540915
000320 01 56 81 3d 0e f5 99 3b 28 22 2f 3d 0f 79 6d bd
       0.06315232 0.0046984022 0.042757183 -0.05797678
000330 d8 21 bb 3c 50 0a 09 bd 4a 56 98 bd 30 f1 70 bd
       0.022843286 -0.0334571 -0.07438333 -0.058823764
000340 57 33 7a bd b5 6d 9f bd d6 c4 4f 3b d6 05 a9 bd
       -0.061084118 -0.07784597 0.0031703017 -0.08253066
000350 10 15 83 3d 88 fc a1 3d d1 bc 23 ba af 28 f3 3c
       0.06400502 0.07909495 -0.00062460924 0.029682485
000360 ef 2d 81 bd 3a 02 47 bd f0 8b d5 3c dc c9 7c 3d
       -0.06307589 -0.048586108 0.026067704 0.061715946
000370 08 e8 5b 3d 64 f5 60 bd c5 9e e9 bc 9d 8a c7 3d
       0.05368808 -0.054921523 -0.02851809 0.09743235
000380 a9 37 26 bd ab 08 2e bd 22 a8 a5 3d 31 2f a9 bd
       -0.040580425 -0.042488735 0.080887094 -0.08260954
000390 3b 72 55 3c 60 ba 3a 3d e3 78 53 bd c6 5f 93 bd
       0.013027723 0.045587897 -0.05162896 -0.07196002
0003a0 43 1f 6d bd 95 64 ac bd 46 da 33 3d ad c7 ca 3d
       -0.05789114 -0.08417622 0.043909334 0.099013664
0003b0 bf 67 1f 3d a1 e3 ba 3c db 19 9c bc a2 cd 7c bd
       0.0389173 0.02281362 -0.019055298 -0.061719544
0003c0 84 43 00 3d 93 43 19 3d 86 ca d3 3d 2a 25 2b 3c
       0.031314388 0.03741796 0.10341363 0.010445872
0003d0 cd f2 b9 bc b4 c8 35 bc 6a d7 f0 3c e4 46 28 bd
       -0.022698784 -0.011095215 0.029399592 -0.04108323
0003e0 76 b1 80 bd 2f 09 70 3d c5 c9 82 bd 70 53 a4 bd
       -0.06283848 0.05860251 -0.06386141 -0.08023727
0003f0 14 c5 0d 3d bf 0f 63 bd 64 2d 81 3d af b1 68 bd
       0.034611776 -0.05543494 0.06307486 -0.056810077

linear1.bias f4 [256]
000000 97 d2 ea 3c e8 e8 b4 3d 9b 9e 76 3d 51 cb 2b bc
       0.02866487 0.08833486 0.06020985 -0.010485486
000010 08 f0 97 bd 3e 73 07 3d 78 0c d1 bc 49 bf 10 3d
       -0.07418829 0.033068888 -0.02551864 0.035338674
000020 b6 aa 9e bc 68 52 5c bd e3 6c 88 bc 9d fc 47 bd
       -0.01936851 -0.053789526 -0.016653484 -0.048824895
000030 92 e1 4e 3d 28 02 75 3d b0 fb c4 bc ad 6a ac 3c
       0.05050809 0.05981651 -0.024045795 0.02104696
000040 99 3a 64 3d ee d2 2f bb ff 6e 3f 3d 7a 94 a6 bc
       0.055719946 -0.0026828605 0.046736713 -0.020334471
000050 56 41 bb 3c 0f 3c 85 bc b4 c1 fd bb 71 78 2c bd
       0.022858303 -0.01626399 -0.0077440385 -0.04210705
000060 63 e7 4a 3d 11 8e f3 3c 77 4e 80 bd 44 68 c2 3c
       0.049537074 0.029730828 -0.06264966 0.023731358
000070 22 c4 38 bd 61 a7 0e ba 9f 74 7a 3d 3f 70 a1 bd
       -0.04510892 -0.00054418115 0.061146375 -0.07882737
000080 11 f6 12 ba 7d 36 f6 3c 5a 52 24 3d 9d 0d 85 bd
       -0.0005606125 0.030055279 0.0401176 -0.06496737
000090 15 5e 33 bd 10 2f 0e bd fe 70 c9 3d 35 2e b5 3c
       -0.043790895 -0.03471285 0.09836005 0.02211676
0000a0 6a 99 8c bc 8e dd 89 bd 43 27 2a bd 12 56 f5 bc
       -0.017162997 -0.06731711 -0.04154135 -0.029948268
0000b0 c0 8f 78 3d 78 83 57 3d 48 02 9c 3d 03 a2 fd bc
       0.060683966 0.052615613 0.076176226 -0.030961042
0000c0 7e d7 01 bd 31 3e 06 bd 8c 4e 31 bc a6 b7 5e 3d
       -0.03169965 -0.032774154 -0.01082195 0.05437436
0000d0 7a 16 eb 3c d1 67 51 bc 21 a6 d2 3c 1a 87 5b bd
       0.028697241 -0.012781099 0.025713982 -0.05359564
0000e0 f9 c7 90 3d 14 d1 c1 3d 51 23 96 3d c0 80 fe 3c
       0.07069392 0.094637066 0.07330955 0.031067252
0000f0 2f c9 71 3c d8 35 86 bd d5 f2 3e bd a3 64 92 3d
       0.014757439 -0.06553239 -0.0466183 0.07148101
000100 8b 2c a3 3b 88 12 2c bd f4 c7 94 bd a9 4d cc 3d
       0.004979675 -0.04200986 -0.072647005 0.0997575
000110 4a b4 08 3d 08 cf 55 3d 18 6c a6 3d b5 29 82 3d
       0.033375062 0.052199394 0.08126086 0.06355611
000120 5c fc e5 3b 2d bf bd bd 28 b8 08 3d e5 01 07 3d
       0.007018609 -0.092649795 0.03337875 0.03296079
000130 4e 66 9b bc a8 50 97 3d 5f 18 0f 3d 82 16 45 bd
       -0.018969681 0.07388431 0.03493535 -0.04811717
000140 2a c9 2e bc e0 87 c4 bc 45 68 69 bd 1d 75 3c bc
       -0.010668078 -0.023990571 -0.056984205 -0.011502531
000150 aa 92 44 bd 42 1f 5b 3d 9f 21 8c 3d 29 19 a5 3d
       -0.047991432 0.053496607 0.0684235 0.080614395
000160 4e ad dd 3c f8 c5 c4 3c 8b e0 72 3d 4f 27 9a bd
       0.027060177 0.02402018 0.059296172 -0.07527029
000170 33 6b 1f 3d ef ae da bc 76 7f 23 3d 4b 08 fe bc
       0.038920593 -0.026694743 0.039916478 -0.031009814
000180 ba bc 16 3d eb 32 89 bd 14 66 8e 3d 0e 94 80 3c
       0.036801077 -0.06699165 0.069530636 0.015695598
000190 93 74 93 bc 1b c2 54 3d b7 57 82 bd 9e 1e 96 3d
       -0.017999923 0.051942926 -0.063643865 0.073300585
0001a0 11 8c a1 bc 83 02 58 bc ff 76 24 3d a8 00 8d bc
       -0.01972011 -0.013184193 0.040152546 -0.017212227
0001b0 8e b7 ab bc fc 44 1e bd e4 4c 48 3d 3f f4 47 3d
       -0.02096155 -0.038640007 0.048901454 0.048816916
0001c0 9a f3 da 3c 89 bb 8d 3d 4e 0c 6a 3d 0b 33 99 3d
       0.026727486 0.06920535 0.05714064 0.07480439
0001d0 89 48 9a 3b 66 77 c4 bc d8 64 13 bc 82 20 cd 3c
       0.004708354 -0.023982715 -0.008996211 0.025039915
0001e0 7c 58 a2 bd d7 33 6d 3d 83 79 aa bc 0c ec af 3c
       -0.07927033 0.057910766 -0.020809894 0.02147486
0001f0 06 16 ee 3c ba e3 56 3c 37 9b 6c bd ad 8b 9b bd
       0.029063236 0.013115818 -0.057765212 -0.075950004
000200 0e 00 8b bd 88 b7 24 3d 64 46 cf 3c c1 5e 33 3d
       -0.0678712 0.04021409 0.02530212 0.043791536
000210 ca 14 9e 3d ab 23 37 bd fc 54 37 3d ee 1a 84 3d
       0.07718809 -0.04471175 0.04475878 0.06450449
000220 8f bd 38 3d ae 68 02 3d 02 92 82 bc c5 a5 6e 3c
       0.045102652 0.03183811 -0.015938763 0.01456589
000230 94 2a 65 3b ec 4f 85 bc 04 2a 85 bc 8e 24 88 bd
       0.0034968005 -0.016273461 -0.016255386 -0.06647597
000240 75 83 3e bb 8b 23 3b bc 4e b2 04 3d a7 06 92 3d
       -0.0029070054 -0.011422048 0.032396607 0.07130175
000250 83 dd 8d bd c8 8c ae bd 1d 09 38 bd a7 fe 16 bd
       -0.06927016 -0.08522946 -0.044930566 -0.03686395
000260 e7 55 6a 3d de 42 8b 3c cc f7 45 3c 54 af 97 3d
       0.05721083 0.016999658 0.012083005 0.07406488
000270 70 17 5f bc f0 f9 91 3d 1b 77 79 3d 45 8c 9c 3b
       -0.013616428 0.0712775 0.060904603 0.0047774636
000280 d7 02 a3 3d 16 28 15 bd 5e 96 6a bd 22 8c e2 bb
       0.07959526 -0.036415182 -0.057272308 -0.006913678
000290 45 0f 8a bd 62 13 0d 3d 68 b8 86 bc 4f 25 af 3d
       -0.06741194 0.034442313 -0.016445354 0.08552038
0002a0 0d 83 9d 3d 0a de 66 3d 86 cf 45 3d 1d e7 4e bd
       0.076910116 0.056364097 0.048293613 -0.050513376
0002b0 87 8d 6b 3b 69 96 97 bd 24 9c 9d 3d ef fe e2 39
       0.0035942511 -0.07401735 0.07695797 0.0004329602
0002c0 11 fc d4 3c 1c eb 97 3c 2b 2f ba 3c 2c 65 83 3b
       0.0259991 0.018544726 0.02272757 0.0040098634
0002d0 10 f2 48 bd 58 c8 13 bd 52 53 98 3d d3 c7 f7 bc
       -0.049058974 -0.036079735 0.07437767 -0.03024665
0002e0 ca 98 1e 3c 65 8c 0e 3d 31 0b 17 3d 45 d5 4e bd
       0.009679982 0.03480186 0.036875907 -0.05049636
0002f0 9f 33 73 3d 82 88 57 3d b3 43 d9 3c 08 97 90 3d
       0.0593754 0.05262042 0.02652154 0.07060057
000300 bd 96 cf b9 bf 85 07 bd 1d 32 0e 3d b9 8b 16 3d
       -0.00039594425 -0.033086535 0.03471576 0.036754344
000310 3e d9 6b bd 53 ac 16 3d 06 e0 32 3d 88 e6 7c bd
       -0.057580225 0.036785435 0.043670677 -0.06174329
000320 0f 5b 75 3d 65 08 9f 3d 18 7b 74 3d 15 b1 a2 3d
       0.059901293 0.07765273 0.059687704 0.07943932
000330 c3 53 9e bd a5 df 8a bd e9 32 12 bb 96 30 18 bc
       -0.0773082 -0.06780938 -0.0022308177 -0.009288928
000340 22 7b 21 bd b8 05 3a 3d c7 55 6e 3c 50 74 02 bd
       -0.03942407 0.04541561 0.014546818 -0.031849205
000350 7a 77 24 bd 14 73 93 bc 24 9c f4 3c f7 17 a1 3d
       -0.040153004 -0.01799921 0.02985961 0.07865899
000360 e3 64 ab 3d 70 57 b9 39 33 7a 96 3d 0a a7 af 3d
       0.08368852 0.00035351096 0.073475264 0.08576782
000370 a3 d9 1e bd 52 98 ce bc f0 40 a6 3d 69 ee f9 3c
       -0.038781773 -0.025219116 0.081178546 0.03050919
000380 7c 5d 9d 3d b9 bb 04 bd 09 72 af 3c 89 7c c6 3d
       0.07683846 -0.03240559 0.02141668 0.09691722
000390 09 9e 7a bd 86 67 9b bd e0 32 ab 3d 46 66 95 bd
       -0.06118587 -0.07588105 0.08359313 -0.07294898
0003a0 25 1a 95 bc e3 08 06 bd bc eb be 3c b2 b3 23 bd
       -0.018200943 -0.03272332 0.023305766 -0.039966293
0003b0 43 fa 86 3d cf aa 6f bd fa 04 cc 3c 90 24 84 3d
       0.065907024 -0.058512505 0.024904717 0.06452286
0003c0 68 a0 85 3d d0 8d 1b bd ab 90 9f bd e8 8a c3 bc
       0.06524736 -0.03797704 -0.07791265 -0.023869947
0003d0 b1 6a c0 3c f9 33 85 bd 93 d0 db 3c 6f 80 bc 3d
       0.023488374 -0.065040536 0.026832854 0.09204184
0003e0 a2 86 2a bd 8e a6 56 bd 79 26 25 3d fa bd 8f 3d
       -0.041632302 -0.052404933 0.040319894 0.07018657
0003f0 91 a6 2c bd 5b 40 ac 37 95 5a 88 3d 0b a3 68 3d
       -0.042151038 2.0533966e-05 0.06657902 0.056796115

linear2.weight f4 [512, 256]
000000 a5 7d a7 ba 6b ea 61 3d e2 cb e7 3c ac a6 ea bb
       -0.0012778534 0.0551552 0.028295461 -0.007160982
000010 c5 00 38 bd 71 01 be 3c ee 98 99 bd e8 d5 0c 3d
       -0.04492261 0.023194047 -0.07499872 0.034383684
000020 a6 11 8b bc ce fb 37 bd f3 10 7e 3d f9 59 65 bc
       -0.016976189 -0.044917874 0.062027883 -0.013998502
000030 fa b2 cc bc 1c 8a 15 3c 14 23 19 bd 25 7e 10 3c
       -0.024987686 0.009127166 -0.03738697 0.008819138
000040 5e aa 3d 3d 8a b2 67 bd ed f6 4c bc 5b 05 98 3d
       0.046305053 -0.056566752 -0.012510044 0.074228965
000050 ed 59 8b bd c3 34 1b bc 14 74 89 bd ed 38 12 bd
       -0.06804261 -0.009473029 -0.06711593 -0.03569882
000060 74 15 f8 3c 0d b0 98 3c 3b 45 a1 3d 8f 0b 9c bc
       0.030283667 0.018638635 0.07874533 -0.01904848
000070 72 01 2e bd 46 8b 0b bd 76 17 ab 3c 28 ef 78 3d
       -0.042481847 -0.03406837 0.02088521 0.060774952
000080 9e 0a 90 3c 34 46 a3 3c 7c db bb bc 20 39 3b 3c
       0.017583188 0.019930936 -0.022931807 0.011427194
000090 69 68 13 bd 4f 8d 69 bb 21 85 10 3d cf 16 ab bc
       -0.035988245 -0.0035637205 0.03528321 -0.0208849
0000a0 41 a5 86 3d 2a f7 15 bd 6b 2d 3f 3c 09 89 48 bd
       0.065744884 -0.036612667 0.011668543 -0.048958812
0000b0 13 77 a4 3c 69 a6 5e 3c b9 7b c8 3c 40 5e d9 ba
       0.02007631 0.01358948 0.024473058 -0.0016583875
0000c0 cc e6 7a bc 2e c3 68 bd 43 9b 08 bd b6 71 80 3c
       -0.015313815 -0.056826763 -0.033351194 0.015679222
0000d0 6d d5 8c bc 19 7d 13 3c a7 32 29 3b d2 34 4f bd
       -0.017191613 0.009001994 0.0025817545 -0.050587483
0000e0 e0 35 81 bb d1 3a 0d bc 55 e3 38 3d 44 f1 f0 3c
       -0.00394319 -0.00861998 0.045138676 0.02941192
0000f0 94 41 a3 3b 7d 27 1f bd 2b 71 98 bd b7 a7 f4 bc
       0.0049821828 -0.03885602 -0.0744346 -0.029865129
000100 9b 64 0c 3d 1d c5 06 3d b4 70 23 bd ae cc 21 3d
       0.034275632 0.032902826 -0.039902404 0.03950184
000110 4d 0a 22 bd 65 90 3b 3b 0b 04 5b 3d f0 dd 31 bb
       -0.039560605 0.0028620001 0.053470653 -0.0027140342
000120 19 2b 40 bd 1a 8a da bc ee 31 29 bd ad 51 1a bd
       -0.0469161 -0.02667718 -0.041307382 -0.03767555
000130 99 30 88 3d a9 67 d7 3c 22 7c ce bc c1 ab b0 3c
       0.06649894 0.026294546 -0.025205676 0.021566274
000140 11 2c 85 bd 2e b1 38 3d 97 40 a2 3b d4 21 92 bc
       -0.065025456 0.045090847 0.0049515474 -0.017838396
000150 61 f1 d8 3c c0 2d 0c bd ee 43 2c bd 26 6c 9c 3d
       0.026482286 -0.034223318 -0.04205697 0.07637815
000160 d3 b7 52 bd d0 63 49 bd 00 0a 18 3d ca 4a 04 3d
       -0.05144484 -0.049167454 0.03711891 0.032297887
000170 0d 01 c3 bc 17 30 8c bc 16 64 9b bb 99 f5 ae bc
       -0.023804212 -0.017112775 -0.004742156 -0.021357344
000180 97 dd 1d bc a2 46 6f bd 46 f7 13 3d d0 b2 bc bc
       -0.009635351 -0.05841697 0.03612449 -0.023034483
000190 6c 2a 07 bd 41 10 24 3d 40 95 03 bd 6e ca 1d bd
       -0.03299944 0.040054563 -0.032124758 -0.03852313
0001a0 2b 77 8b 3c ee a1 10 3d 5d 5b 31 3d 7d c1 21 bd
       0.017024597 0.03531068 0.04330002 -0.039491165
0001b0 b2 ad 1e bd de 7b 1c 3d aa 95 46 3c e6 a9 7b 3c
       -0.038739868 0.038204066 0.012120644 0.015360331
0001c0 79 65 9c bd 93 42 4a bd 05 00 0c bb 62 a6 8e bd
       -0.07636542 -0.049379896 -0.0021362316 -0.06965329
0001d0 9d 6b 72 bd 76 dd d5 3b 97 88 9d 3c 7b 98 5b 3d
       -0.05918466 0.0065266443 0.01923017 0.053612214
0001e0 03 da 9e bd c2 d7 71 bd 94 6e a8 bc 11 03 90 3d
       -0.07756426 -0.059043653 -0.02056054 0.07031835
0001f0 e2 f5 97 bd 95 f3 6d 3d 8c 2a 3d 3b 76 4e e2 bc
       -0.07419945 0.058093626 0.0028864471 -0.027625304
000200 64 53 08 3d 6f f8 64 bd 06 8d 1e 3c 59 74 3e bc
       0.033282652 -0.055900987 0.009677177 -0.011624419
000210 ea 77 1a bc 49 f9 81 bd af 2e 68 bd 64 be 04 bd
       -0.009428004 -0.063463755 -0.056685146 -0.032408133
000220 41 95 8a 3d 18 15 12 3d e8 50 6f 3d 6c f9 6f bd
       0.06766749 0.035664648 0.058426768 -0.058587477
000230 84 e1 09 3d 75 15 a0 3d 95 d5 9d bd b2 b4 2a bb
       0.033662334 0.078165926 -0.07706753 -0.0026047644
000240 ce 4b ba bc d7 b5 28 bc 07 b4 42 bd 39 83 51 b9
       -0.022741225 -0.01029726 -0.04753497 -0.00019980677
000250 2e eb d9 3c b0 9f 99 3d 28 75 72 bd 86 08 2f 3d
       0.0266014 0.07501161 -0.05919376 0.042732738
000260 e1 a0 55 bc 7f e7 0c bd 5c 00 f0 bc e2 17 59 3d
       -0.013038845 -0.03440046 -0.029297046 0.053001292
000270 dd e4 79 bd bf cc cb 3b 64 e5 3f bd 70 24 db 3b
       -0.061009277 0.006219476 -0.046849623 0.0066876933
000280 12 98 4f 3c ec 6f 89 3c 70 40 86 3d a8 87 2d bb
       0.012670534 0.016777001 0.06555259 -0.0026478563
000290 61 87 b0 bc 2a 7f 7a 3d 94 fc 75 bd a3 3b 2c bd
       -0.021548929 0.06115643 -0.06005533 -0.04204906
0002a0 2a 57 01 bd 2c 7b d4 bc 24 5d 80 3d 97 d3 d4 bc
       -0.031577267 -0.02593764 0.06267765 -0.0259798
0002b0 04 7f 39 3d ab b2 34 bd b9 b8 2d 3d 94 be 24 bc
       0.045287147 -0.044115704 0.042412493 -0.010055203
0002c0 90 d3 85 3d e5 cf bd bc fa ca 4e 3d 52 e4 10 3c
       0.06534493 -0.02317042 0.050486542 0.008843498
0002d0 3c fe 69 3c 3c 6e 84 bd 57 2b 03 3d fa bc 86 bd
       0.014281806 -0.06466338 0.032023754 -0.06579013
0002e0 bd c4 e9 3c 98 16 b9 3b 63 08 50 bb 76 b4 9a 3c
       0.028536195 0.0056484453 -0.003174328 0.018884879
0002f0 ed 70 05 bd 61 b3 57 bc 5a f8 30 3d 4e 36 38 3d
       -0.032578398 -0.013165326 0.043205597 0.044973664
000300 52 b1 31 3d bd aa 5c 3d 7a 3a 11 bd d9 e8 b7 3c
       0.043381996 0.053873766 -0.03545616 0.022449898
000310 56 01 d3 bc 47 8e f5 bc 61 fd f8 3c b5 d2 98 bd
       -0.025757473 -0.02997507 0.030394258 -0.07462064
000320 56 65 a2 3b d3 86 9a bd 7b 38 10 bd 33 19 2a bd
       0.004955928 -0.07545247 -0.035210114 -0.041527938
000330 b6 29 8d bd 94 2d 8d 3d c4 ed 93 bd 3f 73 31 bd
       -0.06892721 0.06893459 -0.072230846 -0.043322798
000340 bd 13 0f bd 67 6d 76 bd 0c 9d 96 3d 9a 07 2b 3d
       -0.034930933 -0.060162928 0.07354173 0.041755296
000350 13 ec 11 3d 19 2a 7f bc b6 65 9d bd 02 53 96 3d
       0.03562553 -0.015574002 -0.076854154 0.07340051
000360 3e e7 ca 3c 79 0d 7d 3d d2 01 34 bd f2 c4 95 3d
       0.024768468 0.061780427 -0.04394705 0.07312955
000370 3f 55 f1 bc 33 31 82 bd 3e 57 18 bd 60 6f 5f 3d
       -0.029459594 -0.0635704 -0.037192576 0.054549575
000380 17 c2 1b bd 72 ba 6e bd c2 de 91 bd f0 c3 04 3d
       -0.038026895 -0.058283277 -0.07122566 0.032413423
000390 1f 4a 19 bc 50 3a 9b bc dd 29 1a bd 40 84 2d 3d
       -0.009356051 -0.018948704 -0.03763758 0.04236245
0003a0 52 38 86 3d e7 59 8a bd 02 66 3b 3b b5 ae ea bc
       0.06553711 -0.06755429 0.0028594737 -0.02864776
0003b0 80 48 03 3d 72 1f 7d bd 80 71 3b bd a9 08 ab bc
       0.032051563 -0.061797567 -0.04576254 -0.020878153
0003c0 51 3b c8 bc 48 30 dc 3c 71 87 19 3c a1 6c 07 3d
       -0.024442347 0.026878491 0.009370671 0.03306258
0003d0 af 5f e8 3c 9c 82 f6 bc 3c 46 2f bd 49 f3 2e bc
       0.028365938 -0.030091576 -0.04279159 -0.010678121
0003e0 c7 f0 90 bb a2 3e 59 bd c5 a0 1e bd 54 cb 4a bd
       -0.004423234 -0.053038247 -0.03872754 -0.049510315
0003f0 25 8b 79 bc 8e 3a 6a 3d 88 ca 28 bc 66 7d 1b 3d
       -0.015230929 0.05718475 -0.010302193 0.037961386
