models/wgan-gps/tech_1y_discriminator.pth (torch, 873723 bytes, 11 tensors)

conv1.weight f4 [32, 4, 5]
000000 30 cd 19 3e 45 6a 66 bd 1b 9c ed 3d f8 e7 0d 3e
       0.15019679 -0.05625369 0.116020404 0.1385802
000010 52 57 00 3e 63 67 49 3e 56 5f 49 be 6f 7e 61 3c
       0.1253331 0.19668345 -0.19665274 0.013763054
000020 35 7b 0d be f8 cf 12 3e 59 7c 15 3d f2 72 0f bb
       -0.13816531 0.14337146 0.03649554 -0.002188858
000030 82 60 6d be 6b 12 15 be 96 f9 99 3d e5 2d 9f bd
       -0.23181346 -0.14557807 0.07518308 -0.077724256
000040 39 18 50 3d 7f 25 69 3e a3 af a4 3d 80 fe 5b bc
       0.05080435 0.2276821 0.080413125 -0.013427377
000050 9f 91 ec bd 56 84 1f be ce ec 3b 3e 3f c4 23 3e
       -0.115512125 -0.15577826 0.18352053 0.1599283
000060 df 08 08 be 16 da 15 3e 75 bf 1e 3e 2c 34 a5 3d
       -0.13284634 0.14633974 0.15502723 0.080665916
000070 24 9b 37 3e 21 8d 17 be 88 c3 47 3e 8c 4a 40 be
       0.17930275 -0.1479993 0.19508183 -0.18778437
000080 8e 50 5b 3d 46 f0 e1 3d 39 7c 00 bd e0 c2 91 3d
       0.05354362 0.11032157 -0.031368468 0.071172476
000090 79 86 31 be fc d5 08 bd 2e 6b 40 3d 53 89 0a 3d
       -0.17336453 -0.033407196 0.046977215 0.03382237
0000a0 e0 4a b4 bd 8b a0 34 bd 36 69 55 3d bb 8d 28 3e
       -0.08803344 -0.04409842 0.05210229 0.16460316
0000b0 ae 77 37 be 62 56 4f 3e 14 d9 1f 3e b6 3b e7 3d
       -0.17916748 0.20247796 0.15610152 0.11290686
0000c0 0f fc a7 3d 04 04 d9 3d a1 bb 2a 3e 17 21 54 be
       0.08202373 0.10596469 0.16673137 -0.20715748
0000d0 f0 91 9b 3d 14 56 d8 bd 30 60 ac 3c 92 31 3a be
       0.07596195 -0.10563293 0.02104196 -0.18182972
0000e0 bf bb 1d 3e 00 a1 6c be 13 31 f0 bd 96 00 18 be
       0.1540365 -0.23108292 -0.1172811 -0.14843974
0000f0 e9 ba 57 bd 90 09 36 be 97 9d c0 bd 7c 74 27 be
       -0.052668486 -0.17777085 -0.09405058 -0.16353029
000100 57 4c 77 bd 43 60 06 3e 31 4a db bd b1 ca a5 3d
       -0.060375538 0.13122658 -0.1070751 0.08095301
000110 2d 4a 31 3e 27 9f a0 bd 27 70 4b be f8 bd ed 3d
       0.17313452 -0.07842856 -0.19867001 0.11608499
000120 53 23 a1 bd 96 38 46 be b8 03 99 3d e1 23 1b be
       -0.07868066 -0.19357523 0.074714124 -0.15150405
000130 be 56 dc 3d 52 9f 3b be 70 05 b1 bd 3a 63 fc 3d
       0.10758732 -0.18322495 -0.08643615 0.123236135
000140 94 e7 b2 bd e7 51 0e bd b3 04 b8 bc 25 20 28 3d
       -0.08735576 -0.034746077 -0.022463178 0.04104628
000150 9f c8 2a be e5 dd da 3d 47 23 ef 3d 74 65 34 bd
       -0.16678093 0.10686854 0.116766505 -0.044042066
000160 11 e5 c3 3d f6 48 5a 3e 1f 3f 4f be a2 92 0b be
       0.09565175 0.21316895 -0.20238923 -0.13630155
000170 f4 76 53 be 91 e1 cf 3d a4 45 ce bd bd b3 a9 3d
       -0.20650846 0.10150445 -0.10071877 0.082862355
000180 e8 37 05 be 08 a9 02 3e e4 6d bf 3c a5 78 40 3e
       -0.13009608 0.12759793 0.02336783 0.18796022
000190 45 c9 b5 bd 05 23 58 be f0 72 63 3c f0 95 0f bd
       -0.0887628 -0.21107109 0.013882384 -0.0350551
0001a0 32 82 89 bd 2e 4b 14 3c ea 51 8b bd ce 86 3e be
       -0.06714286 0.009051127 -0.06802733 -0.18606111
0001b0 ed d3 9a bc 4a ae 34 3e 8e 4d 94 3d 87 5e 49 be
       -0.018899882 0.17644611 0.07241355 -0.19664966
0001c0 8e 4b 79 3c 8b 13 42 be 61 2d 12 be 53 96 c9 bd
       0.015215768 -0.18952768 -0.14275123 -0.09843125
0001d0 5a 95 0e bd 16 94 c6 bd 41 01 07 be 41 90 34 3e
       -0.0348104 -0.09696214 -0.13184072 0.17633153
0001e0 57 1b d9 3d 0d f4 0d 3e 86 36 72 3e ba f5 be bd
       0.10600918 0.13862629 0.23653612 -0.09324212
0001f0 36 00 d6 bd 8f 72 fd 3d 58 e8 00 be bb ac 3b 3d
       -0.10449259 0.12375366 -0.12588632 0.045819025
000200 c1 59 1a bd da dd e1 3d 18 01 3a 3e bc 80 51 bd
       -0.037683252 0.11028643 0.1816448 -0.05114816
000210 cc fd 58 3e 3a 1b b8 3d 2e 06 2e be 0a f9 36 3d
       0.21190566 0.08989568 -0.16994545 0.044671096
000220 83 fd fb bd 73 ed 02 3e 99 5f b3 3d c2 58 5e 3d
       -0.12304213 0.12785892 0.08758468 0.054283865
000230 21 31 7e 3d f1 22 0a 3e 47 2f d0 bd 23 73 57 3e
       0.06205857 0.13489892 -0.101652674 0.21040015
000240 f2 91 20 be 68 3c 0b bd 79 d7 3f be b0 5d 50 3e
       -0.15680674 -0.033993155 -0.1873454 0.20348239
000250 35 a5 d1 ba c1 42 61 be 23 4e 33 be 4e 10 a6 bd
       -0.001599467 -0.21998121 -0.17510276 -0.081085786
000260 57 e4 21 be 56 6c 32 3e aa 19 aa bd 49 90 f7 3d
       -0.15809761 0.1742414 -0.08305676 0.12088067
000270 a6 16 78 3d 11 2a 85 3c d0 6f 97 bd 92 b5 a1 bd
       0.060568474 0.01625541 -0.073943734 -0.0789596
000280 f5 7d eb bd 0e 72 4e 3e 17 cc 08 3d ca 3a e9 3d
       -0.11498634 0.20160696 0.03339776 0.11388166
000290 4c a7 d5 bd 8a d4 12 be 41 67 f6 bc ae 1f bb bd
       -0.104323 -0.1433889 -0.030078532 -0.09136902
0002a0 8b d6 3a 3e 3c ef 9b 3d 38 e6 7c b8 db 45 0e be
       0.18245904 0.0761399 -6.029589e-05 -0.13893835
0002b0 78 25 d4 bd bb 01 dd bd be 22 05 be 50 99 35 be
       -0.10358709 -0.10791346 -0.13001534 -0.17734265
0002c0 ec a5 46 3e 15 be 87 3d cd 46 16 3e 9d 86 56 bd
       0.19399232 0.06628052 0.14675446 -0.05237447
0002d0 ba f6 01 3e dd 03 c9 bc 56 89 61 3e 37 9f 64 3e
       0.12691775 -0.024537975 0.22025046 0.2232636
0002e0 2d 44 13 3e 40 fe da bc 77 47 72 bd 0f af 62 3e
       0.14381476 -0.026732564 -0.059150185 0.22137092
0002f0 b1 6c 7f 3d 16 ab b7 3d d4 59 bb 3d 89 3e 45 be
       0.062359516 0.08968179 0.09147993 -0.19262137
000300 9d e9 3f 3e b5 ab b9 bc f7 33 0c 3e 2d 52 3b 3e
       0.1874146 -0.022664884 0.13691698 0.18293066
000310 63 51 52 bc 0d 9b 7a 3d 8e 2d 87 bc 55 be 09 be
       -0.012836787 0.061183024 -0.016501214 -0.13451512
000320 1f 70 bd 3d 44 56 2a 3e 53 63 9a 3c 9c ef a1 bd
       0.09249901 0.1663447 0.01884619 -0.0790703
000330 c1 8d 2d be 28 2f 9b bc f8 8c ce bc 57 c4 71 bd
       -0.16948606 -0.018943384 -0.025213704 -0.059025135
000340 1d 40 06 3e aa 30 29 be 1d 18 b2 bd d5 81 3c be
       0.13110395 -0.1652247 -0.086960055 -0.18408902
000350 be 9c 36 be f7 92 ce 3d 97 88 8e 3d 6f ae 3f 3e
       -0.1783323 0.10086625 0.06959646 0.18718885
000360 80 17 9c 3d 28 9b b8 3c d5 a9 0a 3e 3a b2 dc bc
       0.0762167 0.022534922 0.13541348 -0.026940454
000370 fb 76 24 3d 73 ca 39 3d 45 50 1b be a4 4b 49 3c
       0.04015253 0.045359086 -0.15167339 0.012286101
000380 86 40 1c be b2 b4 62 bb 3f 04 dc 3d 7d 5d 51 3e
       -0.15258989 -0.0034592566 0.107429974 0.20445819
000390 fd 01 84 bd b9 7d 34 3e 2b ec 5f 3e d4 01 04 3e
       -0.06445692 0.17626084 0.21867435 0.12891322
0003a0 5f d3 10 be bc fa 21 bd d0 11 3c 3e 13 29 5d 3d
       -0.14143132 -0.03954576 0.1836617 0.05399425
0003b0 71 9b ac 3d cd 90 68 bd a5 27 53 3e eb 2d 96 3d
       0.084280856 -0.056778718 0.20620592 0.07332977
0003c0 c6 5c 94 3d 4a 9f 48 be 7f 22 5c be 91 8d 71 3b
       0.07244258 -0.19592014 -0.21497534 0.0036858062
0003d0 79 62 67 3d 09 3c 23 be 35 1f 5e bd 6c a5 0d 3e
       0.056490395 -0.1594087 -0.05422898 0.13832635
0003e0 b2 fd 5e 3c e8 70 0c be 58 cd fe bc a3 fb 40 be
       0.01361029 -0.13714945 -0.031103775 -0.18845992
0003f0 0a b5 62 be d4 06 2c 3e 67 62 d6 3d 0c b5 3c bd
       -0.22139373 0.1679948 0.104679875 -0.046071097

conv1.bias f4 [32]
000000 dd 89 2e 3e fd 00 e6 3d 1f 11 08 be 9d b5 12 3e
       0.17044778 0.11230657 -0.13287781 0.14327092
000010 3f 9a ba bd d3 b1 62 3e 98 3a c8 3d c3 d8 c1 bd
       -0.09111451 0.22138147 0.09776801 -0.09465172
000020 f9 06 c2 3d 90 64 7c 3e 2b 24 55 bd 38 4b 08 bd
       0.09473986 0.24647737 -0.052036446 -0.03327486
000030 46 26 72 be 71 ff ef 3c e4 8f cf bd 2f 5d 19 be
       -0.23647413 0.029296609 -0.10134867 -0.14976953
000040 39 38 1f 3e f9 30 7a be db ff 27 be 0b 67 05 be
       0.15548791 -0.24432744 -0.16406195 -0.13027589
000050 31 b3 4c 3e 27 b0 06 3e 20 ca 25 3e 81 23 3c 3e
       0.19990231 0.13153134 0.16190386 0.18372919
000060 a9 3c 28 3e 24 0e 51 3d 44 5f d1 b6 85 1d ce 3d
       0.1642939 0.051038876 -6.2397758e-06 0.10064224
000070 c9 e9 38 3e 57 16 54 3e cd c4 28 3e dd ed 0f be
       0.18057932 0.20711647 0.16481324 -0.14055581

conv2.weight f4 [64, 32, 5]
000000 81 13 0d 3d d2 d4 5e 3d 86 cf 41 39 f5 f7 91 bd
       0.03444243 0.05440218 0.00018483223 -0.07127372
000010 3b a4 9c bd a2 de e3 3c 82 69 d9 3b 1c 9f 82 3d
       -0.07648512 0.02781612 0.006634892 0.06378004
000020 c1 9d 80 3d 0b 0c 6c bc 28 b3 9d bd df 19 80 bd
       0.06280089 -0.014407168 -0.07700187 -0.062549345
000030 6d 48 54 bd 3b f0 69 3d b7 fb 87 bd c1 79 85 3b
       -0.051826883 0.057113867 -0.06639808 0.004073352
000040 17 3a 1e bb 9f 1d 1d 3d 01 85 60 bc 53 90 22 bc
       -0.002414351 0.038358327 -0.013703586 -0.009922105
000050 57 2d eb 3c c9 a7 cc bc c4 ed ca 3c 5e fa 90 3c
       0.028708143 -0.02498235 0.024771579 0.01769751
000060 af 43 53 bc 9c 13 0b bb 95 3b a6 bc ac 66 08 bd
       -0.012894555 -0.0021221405 -0.020292083 -0.03330104
000070 67 7e 9a 3d dd 0e 8c 3d 7d 17 59 bd b4 9d 2a 3d
       0.075436406 0.068387724 -0.053000916 0.041654304
000080 ac 6f d7 3c 1e a1 87 3d 55 81 f4 bc 0c 3d ad ba
       0.026298366 0.066225275 -0.029846827 -0.0013217046
000090 c3 a0 cb bc 2e d9 a3 bc 3a db 86 3d 53 2c 55 3d
       -0.02485693 -0.02000102 0.06584783 0.052044224
0000a0 dd 8d d4 bb 52 1f 32 bd 2d 2f 6a bd 39 1e 13 bd
       -0.006486638 -0.0434869 -0.057173897 -0.035917494
0000b0 b7 2a 83 3d c4 2d 1b bd d6 5a 98 3d 33 ef c2 3d
       0.064046316 -0.037885442 0.074392006 0.0951828
0000c0 08 35 f5 3b 15 98 8c bd 0e 58 98 ba 08 ad 5c bd
       0.0074831285 -0.06864945 -0.0011622922 -0.053875953
0000d0 c9 bd a3 bd 59 a5 b1 bc 45 c1 37 bd 1e 38 8d bd
       -0.07995183 -0.02168529 -0.04486205 -0.06895469
0000e0 03 ba 89 3d eb b0 bf bd cf 5e 84 bd 55 8f 28 3c
       0.06724932 -0.09359916 -0.06463396 0.010288079
0000f0 db af 96 3c 64 1b 87 bd 37 58 67 bd b8 f4 66 bd
       0.018394401 -0.06597021 -0.056480613 -0.056385726
000100 f6 55 05 bd c0 3f b6 bc f9 74 e9 bc 02 16 66 bd
       -0.032552682 -0.022247195 -0.02849816 -0.056173332
000110 21 43 53 3d eb 5f 20 bd c6 51 99 3d 66 04 41 bd
       0.05157769 -0.039153975 0.074863 -0.047123335
000120 c0 c3 1b 3d f3 9c 72 bc 21 67 db bc 40 af 1e ba
       0.03802848 -0.014807927 -0.026782574 -0.0006053336
000130 ec 56 eb bc 88 ef 33 3d 17 6c 66 bd e2 09 60 bd
       -0.028727971 0.043929607 -0.056255426 -0.054696925
000140 ea 56 d3 bc 12 87 88 bd af e4 c1 bd 3c 00 5c bd
       -0.02579828 -0.066663876 -0.09467446 -0.05371116
000150 0e 78 95 bc d9 ba 86 3d ce c7 54 3d 92 30 91 bd
       -0.018245723 0.06578607 0.05194836 -0.07089342
000160 0a 38 94 bd ed 7f dd 3c 1c 6f 45 bd b7 04 50 bd
       -0.07237251 0.027038539 -0.048201665 -0.050785746
000170 2a 05 c0 bc dd 6c 8e bc a5 19 39 bd 0e bf 8f 3d
       -0.023439962 -0.017385894 -0.045190472 0.07018863
000180 97 ca 82 3d 28 d2 18 bd 1c e1 aa 3c 28 7c 9d 3d
       0.06386297 -0.037309796 0.020859294 0.076896966
000190 84 7b 7b 3d be 19 8d bd dc e1 b4 3d ba e0 76 bd
       0.06139709 -0.068896756 0.08832142 -0.06027291
0001a0 9a 8b 87 bd 8a 04 43 3d 63 da 53 bd f0 f2 67 3c
       -0.06618424 0.04761175 -0.05172194 0.014157042
0001b0 b9 fe 81 bd f8 25 d5 bb 51 8a cf bc c1 1d c9 3b
       -0.063474126 -0.0065047704 -0.02533451 0.00613758
0001c0 f7 1a 34 bd 58 19 25 3d 09 61 06 bc c9 e7 5e 3d
       -0.04397103 0.040307373 -0.008201846 0.054420266
0001d0 fd 2b c3 39 ad ab 49 3d 43 dd ab 3c 6c 39 a2 3c
       0.00037226072 0.04923599 0.02097953 0.019802772
0001e0 0c a6 44 3d 1d c6 22 bd 4a 8c 7f 3d 6f 71 b2 bc
       0.048009917 -0.039739717 0.06238965 -0.021782605
0001f0 c6 b8 47 bd dd 94 8e 3d aa 64 57 bd bf bd f3 bc
       -0.048760198 0.06961987 -0.052586235 -0.029753564
000200 df ce 86 bd 11 4f d3 bc ac 9e 90 3d 8b d6 26 bd
       -0.06582426 -0.025794538 0.07061514 -0.040731948
000210 ca 8a 07 3c c5 92 6b 3c 45 fc 97 bd b6 ba 5c bd
       0.008272836 0.014378254 -0.074211635 -0.053889
000220 61 90 16 3d 90 62 a2 bc d4 c3 e2 39 8e ca 8d 3d
       0.036758784 -0.019822389 0.00043251982 0.069234
000230 94 35 99 bd 76 81 d2 3c 4e 06 04 3d e3 e8 1d bd
       -0.07480922 0.025696497 0.032232575 -0.038552176
000240 ef 06 2d bc 9d 08 74 bd cc dc a9 ba fd 9f 29 3d
       -0.010560735 -0.059578527 -0.0012959479 0.041412342
000250 a7 c0 46 3d 9a 57 51 bd 02 a4 25 3d 19 a2 dd bc
       0.04852357 -0.051108934 0.040439613 -0.027054833
000260 63 a7 16 3d f2 ca 92 bd aa f6 5f 3c 19 90 97 3c
       0.036780726 -0.07167615 0.013669649 0.018501328
000270 9e 1d 8a bd 62 81 4e bd a9 68 8c bc c0 2d aa bc
       -0.0674393 -0.050416358 -0.01713975 -0.020773768
000280 d9 b3 4a bd d0 e3 99 bd cf d3 b7 bd ea bf 9b 3c
       -0.049487922 -0.07514155 -0.08975946 0.01901241
000290 84 71 3e bd cc 33 32 3d ec 2b a5 3b 30 14 c5 3d
       -0.046494976 0.04350643 0.0050406363 0.09622991
0002a0 ad 0f 9c bd 0a 93 fa bc 2b ba 8e 3d 6f b2 36 3d
       -0.076201774 -0.030587692 0.069691025 0.04460376
0002b0 8c c0 90 3b 40 c1 05 bd d9 83 8e 3c 59 e3 66 bd
       0.0044174846 -0.032655 0.017396854 -0.05636916
0002c0 67 7e 8f 3c bb 41 6c bc bd 62 aa bc b5 aa 84 bd
       0.017516328 -0.014419968 -0.020799035 -0.06477872
0002d0 f8 63 01 bd 45 39 26 bd 6c 00 4f bd cc 30 c1 bc
       -0.03158948 -0.04058196 -0.05053751 -0.023582838
0002e0 7d fb 46 3d df d5 2e 3d 55 9c 1a 3d 75 d3 5a bd
       0.04857968 0.042684432 0.037746746 -0.053424317
0002f0 cf 5d 41 3d 6c 8d 29 bc 03 c0 8a 3d 6a ce 47 bd
       0.047208603 -0.010348659 0.067749046 -0.048780836
000300 1e 3e 35 3d 30 d5 56 bc dd f8 7a 3d ec de 85 bd
       0.044248693 -0.013112351 0.06127249 -0.065366596
000310 ab 8a e5 bc 8c 1b 85 bd a6 b3 1b bd ca 95 81 3d
       -0.028020224 -0.06499395 -0.038013123 0.06327398
000320 4e fc 30 bd 72 f1 25 3c 0b 75 45 bd 09 40 86 3d
       -0.043209367 0.010128366 -0.048207324 0.065551825
000330 74 a9 20 3c fc e4 74 3d bd 8e f5 3c b2 bd d1 3d
       0.009806026 0.05978869 0.02997529 0.1024126
000340 bb aa 5f 3b a8 b7 9a bd bb 32 90 bd bd 85 1d 3d
       0.0034128863 -0.07554561 -0.07040926 0.03845762
000350 21 91 be 3c b0 44 2f bc e5 16 76 bb f1 8f 98 3d
       0.023262562 -0.010697529 -0.0037550267 0.0744933
000360 d7 9d 72 3d 63 de 9a bc 5e 19 a1 3d 32 21 8a 3d
       0.05923256 -0.01890487 0.078661665 0.06744613
000370 de 76 05 bd dc c3 35 bd 0a 4d 07 3d 78 2e 7f 3d
       -0.032584064 -0.04437624 0.033032455 0.062300175
000380 ad aa 85 bd fb a9 39 3c 57 ed 9b bd 67 75 26 3d
       -0.065266944 0.01133203 -0.07613628 0.040639307
000390 20 7f 8d 3d 17 d8 cf 3b 01 df c2 bc a6 43 74 bd
       0.06909013 0.0063428986 -0.023787977 -0.059634827
0003a0 55 07 4c 3d 43 7d f1 3c a1 48 45 3d 89 d5 30 bd
       0.04981168 0.029478675 0.048164967 -0.043172393
0003b0 93 29 e0 bc 27 4f 38 3d 4d 33 8f 3d 28 1a 2f 3c
       -0.027363574 0.04499736 0.06992207 0.0106873885
0003c0 25 27 21 3d 31 13 31 3d 20 03 41 bc 56 12 e7 bc
       0.03934397 0.043231193 -0.01178053 -0.028206985
0003d0 30 b4 a1 3d b6 e6 72 bb dc b5 99 3d 16 2b 47 3d
       0.07895696 -0.0037063784 0.0750539 0.048625074
0003e0 71 a5 9e 3d b4 e4 80 3d 0e 5b 0e 3d de c8 81 bc
       0.07746399 0.06293622 0.034754805 -0.015842851
0003f0 80 68 78 bd a6 40 de 3a fe f0 d9 3c 24 44 9b bd
       -0.060646534 0.0016956523 0.026604172 -0.07581356

conv2.bias f4 [64]
000000 fb c4 e6 3a 9e 9b b5 3d 0f f6 b3 3d 70 b9 98 bd
       0.0017606312 0.08867572 0.08787166 -0.074572444
000010 2a ad 59 3d 29 36 8b 3d 22 2b 1e 3c 8b ba 84 bd
       0.053143658 0.067974396 0.009653838 -0.06480893
000020 ad 72 01 3d ec 95 0f 3d fd 95 00 bd dc ce 59 bd
       0.031603504 0.035055086 -0.03139304 -0.053175792
000030 53 08 20 3d eb f3 b0 3d 35 e4 88 3d 21 0b cb 3d
       0.03907044 0.08640274 0.06684152 0.09914232
000040 92 bf 9b bd 94 6d 72 3d be 7c 0e 3d e1 14 02 bd
       -0.076048985 0.059186533 0.034786932 -0.031758193
000050 66 5b 86 bc 7b 1e 96 3d 2b 82 a4 bc 12 b6 5f bc
       -0.016401004 0.073300324 -0.0200816 -0.013654249
000060 ee cf c7 bd 98 32 9a bd f9 40 32 3d fe 9d 53 bd
       -0.09756456 -0.07529181 0.043518994 -0.051664345
000070 2b a7 b3 bd d7 1d 06 3d ea 61 34 3d 0c bb a6 bc
       -0.08772119 0.0327433 0.04403869 -0.020352863
000080 1e 88 46 bc c2 54 6b bd 65 e7 ae bc 75 e5 bf 3d
       -0.012117414 -0.05745388 -0.021350572 0.09369937
000090 56 9a a5 bd e0 b8 9c 3d d2 cb 52 bd 52 8d c4 bc
       -0.08086078 0.076524496 -0.05146391 -0.023993168
0000a0 28 de 0c bd 08 c2 83 bd 37 cb 59 bd 42 a6 b0 bd
       -0.034391552 -0.06433493 -0.053172316 -0.08625461
0000b0 6c e7 a6 bd 2d 56 87 3c 84 05 ab bd c6 94 b8 bd
       -0.08149609 0.016520584 -0.083506614 -0.09012751
0000c0 3e a7 93 3c 38 32 9a bd 1b a4 d0 ba cc 5f b3 bd
       0.018024083 -0.0752911 -0.0015918048 -0.08758506
0000d0 72 a8 81 bd a3 ae 48 3d 28 17 33 3d b3 76 3c 3c
       -0.063309565 0.04899467 0.043723255 0.0115029095
0000e0 21 92 b3 bd d8 44 2c 3d 64 84 c3 bb 8a d2 e7 ba
       -0.08768106 0.042057842 -0.00596671 -0.0017686647
0000f0 7e 90 33 bd 0f 9a 32 3d 57 b2 c5 bc d9 cf a8 3c
       -0.04383897 0.043603953 -0.02413289 0.020606922

conv3.weight f4 [128, 64, 5]
000000 6b b5 0f 3d 4e a8 10 bc d3 6a 03 bb ce 9a e4 bc
       0.035085123 -0.008829189 -0.0020052686 -0.027905848
000010 2c 42 0d 3d b2 1e a3 3c 11 13 f7 3c c7 22 97 3b
       0.034486935 0.019912098 0.030160459 0.0046123
000020 d5 6d 64 3d bf 4f 12 bd 7a a4 10 bc 1b ee 33 bb
       0.055768806 -0.035720583 -0.008828277 -0.0027455154
000030 d5 27 13 bd 89 64 2a 3d 6c 37 30 bd 27 3c c7 bb
       -0.03592666 0.041599784 -0.043021604 -0.0060801688
000040 5e 47 03 bd 1c b8 1f 3d 4a a1 a0 bc 4f 55 4b 3d
       -0.032050483 0.03899394 -0.019608159 0.049641903
000050 43 36 1d 3c c5 2c bb bc a8 07 63 bd 6c 18 e8 bc
       0.0095954565 -0.022848496 -0.055427223 -0.028331958
000060 95 b8 71 3c b2 a6 54 bd 4a 6f 12 3c cf d0 6f 3c
       0.01475348 -0.051916786 0.008937666 0.014637186
000070 25 6c 57 3c d2 4d 3e bd 82 5a 41 3d 44 8b 24 bd
       0.013148342 -0.046460934 0.047205456 -0.040171877
000080 db fa 50 bc 74 f0 01 bd d4 e3 dd 3c fc 4a 06 3b
       -0.012755121 -0.031723455 0.027086176 0.0020491472
000090 f1 af 55 bd 55 25 ca 3b e9 ea 32 3d 59 29 8e 3a
       -0.052169744 0.006169001 0.04368106 0.0010846063
0000a0 98 8b bc bc ee 66 cf 3b 05 ba 9b bd df ea 55 3d
       -0.023015782 0.006329409 -0.0760384 0.052225944
0000b0 57 36 0f 3d b7 07 e5 3a 39 92 2a 3d 27 9b 13 3d
       0.034963932 0.0017473613 0.041643355 0.036036637
0000c0 67 76 5f bd a9 50 f2 3b 17 06 72 bb 07 e3 01 3c
       -0.054556277 0.0073948693 -0.00369299 0.007927663
0000d0 f2 f2 f0 bc 9a ad b7 3b 82 f1 dc bc 34 02 c3 3c
       -0.02941272 0.0056054117 -0.026970629 0.023804761
0000e0 1b 1d 1d 3c a7 17 d4 3c c3 61 5b bd 86 f5 1b 3d
       0.009589459 0.025890185 -0.05356003 0.038075946
0000f0 92 64 58 3c fa d2 3e bd 37 81 4d bd 8c 8c 0e bc
       0.013207572 -0.04658792 -0.050172057 -0.008700501
000100 46 93 46 bd ee 9a 10 3d e0 1f 10 3d 7e 0d e0 3c
       -0.048480295 0.035304002 0.03518665 0.027350184
000110 71 76 6c 3c b3 5a 28 bd b5 14 45 3d 84 d8 8f bb
       0.0144325355 -0.041102123 0.04811545 -0.0043898243
000120 8b 5e 98 bc bc 0f e4 bc 91 9d a5 bc 28 3f ce bb
       -0.01859977 -0.027839534 -0.020216735 -0.00629415
000130 4e 34 3b ba eb 0b f4 3b 9c af 30 bd 66 38 62 3c
       -0.0007141278 0.00744771 -0.043136224 0.013807392
000140 dd 8f 98 3c 86 d6 c6 ba e1 f7 5f bd 95 ec e9 3a
       0.018623287 -0.0015170134 -0.054679755 0.0017846996
000150 f5 39 df bb 8e c6 f8 3c 14 eb 3e b9 3c 3e 7e bd
       -0.006812329 0.030368116 -0.00018207385 -0.06207107
000160 76 b7 3f 3d f8 e1 3e 3d b3 bf 24 3d e5 cf 51 3d
       0.04680582 0.04660222 0.04022188 0.051223654
000170 33 e7 14 bd f1 4c bb bc 17 a3 36 bd 34 60 2e bd
       -0.0363533 -0.022863837 -0.04458913 -0.042572215
000180 65 18 c4 3a e9 42 83 bd fd 62 2d bd 92 46 52 3d
       0.0014960883 -0.064092465 -0.04233073 0.051336832
000190 74 ca d0 3c 5e 37 3d bd f9 4f c6 bc 7a 65 b1 3b
       0.025487162 -0.04619538 -0.024208056 0.0054137083
0001a0 f1 fa 5a bd 49 c5 9e bb 56 01 15 bd bd c4 40 bc
       -0.053461973 -0.0048452956 -0.036378227 -0.011765656
0001b0 28 bc ab bc 29 55 ca bc b3 c4 1e 3c 9e 8c 45 3d
       -0.020963743 -0.02469881 0.009690451 0.048229806
0001c0 18 d8 4c bc 49 c6 41 bd fe 09 42 3d 8e 72 3f 3c
       -0.012502693 -0.04730824 0.04737281 0.011685027
0001d0 d6 b9 51 bd c9 17 0a 3d 4b 5c 37 3c 59 ff e7 bc
       -0.051202618 0.03371409 0.011191438 -0.028320001
0001e0 30 f2 0e bd 4e b6 2a bd 4b 13 4c 3d 08 7e 57 ba
       -0.034898937 -0.041677766 0.049823087 -0.0008220379
0001f0 42 d9 a5 bc 4c e8 54 3c ba fe db 3b 1c 82 2c bc
       -0.020245198 0.012994837 0.0067137154 -0.010529067
000200 7c 72 9f bc 94 08 a6 3c dc 03 df 3c ca 0c 53 bd
       -0.01946377 0.020267762 0.02722352 -0.05152587
000210 ad 40 24 3d 89 0f 13 3d 36 f8 8d bc 93 16 03 3c
       0.040100742 0.035903487 -0.01733027 0.008000988
000220 ce 20 01 3d de 35 01 3d 19 d7 c0 bc 50 f1 ce 3b
       0.031525426 0.031545512 -0.023540067 0.006315388
000230 e6 8f ac bc f8 77 0b 3c b6 1f 84 bb e1 52 aa bc
       -0.02106471 0.0085124895 -0.0040321006 -0.020791473
000240 40 07 23 3d 91 a4 1f bd b7 1e 97 3b 51 f3 5e bd
       0.039801836 -0.038975302 0.004611816 -0.054431263
000250 34 37 99 bb 5a c6 5d bc e7 0c c9 3c 88 e8 63 3d
       -0.00467577 -0.01353606 0.024542285 0.05564168
000260 04 9a 7e bd fa 41 4e bd 91 2c 2b 3d 6b 32 a5 3b
       -0.0621586 -0.05035589 0.04179055 0.0050414107
000270 fa ac e0 bc 25 d3 0a bd f0 38 38 bc be ee 37 bd
       -0.027426232 -0.03389277 -0.011244044 -0.044905417
000280 74 33 54 3d aa 63 46 3d 0a 3f 92 3d c7 99 06 bc
       0.051806882 0.04843489 0.0714093 -0.008215374
000290 57 84 a4 3c 0f b1 05 bc 8d 97 b1 3c 6b ce 88 3c
       0.020082636 -0.00815989 0.02167871 0.01669999
0002a0 c5 27 58 3d be 2a d2 3c 79 50 67 bc 24 db 60 bd
       0.052772302 0.025655147 -0.014118307 -0.05489649
0002b0 cb 7f 90 bd 7e 54 60 3d 41 8f 3e bd 7d a1 ee bc
       -0.070556246 0.054768078 -0.046523336 -0.029129738
0002c0 7c 32 1c 3b d6 42 27 bd 9a 32 0b bd c0 06 81 ba
       0.0023833802 -0.040835224 -0.033983804 -0.0009843931
0002d0 1a 76 bd ba e8 62 6f bc 8a 3a 76 3d ee 8b 16 bd
       -0.0014454753 -0.014610983 0.06011442 -0.03675454
0002e0 44 e7 53 bd c8 f4 5f bc 7e 79 2f bd b4 bf 98 bc
       -0.051734224 -0.0136692 -0.042840473 -0.018646099
0002f0 24 0f 27 3d dd c9 12 bd 20 9e 5a bc c9 bc c9 3b
       0.040785924 -0.035837043 -0.013343364 0.006156538
000300 f2 8d 4c 3d d8 13 41 3d 4f 95 e3 bb 51 35 3f 3b
       0.049940057 0.047138065 -0.006945289 0.0029176066
000310 c0 54 c8 3c ed cb d7 bc 2a f9 97 bc f2 c3 f9 bc
       0.024454474 -0.026342357 -0.018551428 -0.030488942
000320 3a 71 46 3c 85 03 63 bd 3c 17 4d 3d aa d3 59 bd
       0.012111956 -0.05542328 0.050070986 -0.053180374
000330 9c 0f 30 3c 30 ad f0 bc cb e1 78 bc 07 a4 da 3c
       0.010745909 -0.029379457 -0.015190552 0.026689542
000340 62 17 bf bc e4 48 35 3d f9 01 b9 bc 7b e1 1d bd
       -0.02332658 0.044258967 -0.022583948 -0.038545113
000350 69 93 ab 3c 63 e0 17 3c 2f 65 0f 3d 60 2f 9f bc
       0.020944314 0.009269807 0.035008606 -0.01943177
000360 52 8c 1d 3d b6 fa 05 bd ec 6b 0b 3d a7 2b 16 3c
       0.038463898 -0.0327098 0.03403847 0.009165681
000370 65 cf f4 ba db f4 a4 3c e5 3f 94 3d 43 48 0f 3c
       -0.0018677531 0.020136287 0.072387494 0.008745256
000380 95 16 ec bc 84 69 53 3d dd 8e f8 bc 83 74 78 3c
       -0.028819362 0.0516143 -0.03034156 0.015164497
000390 6f cb 9c 3a e6 fe 30 bb ae 0a 26 3d ff 09 48 bd
       0.0011962483 -0.00270074 0.04053753 -0.048837658
0003a0 0e 93 07 bb 82 4b 14 3d 65 17 02 3d 92 f5 4a bd
       -0.0020687017 0.036204822 0.031760592 -0.0495506
0003b0 a7 c1 eb 3c ca 18 02 3c c7 66 8b 3c 81 8a 9d 3b
       0.028778864 0.0079404805 0.017016781 0.0048077707
0003c0 72 d8 da 3c ba 8a 0a bd e3 f3 98 3c bb 43 77 bb
       0.026714537 -0.033823706 0.018670982 -0.003772958
0003d0 a5 a5 9d bc 31 4b 51 bd b6 2e 11 bd 82 8a c7 3c
       -0.019244025 -0.0510971 -0.035444938 0.024358038
0003e0 52 55 fc 39 fa eb de 3c 18 d0 33 3d 08 82 f6 bc
       0.00048128754 0.027212132 0.043899626 -0.0300913
0003f0 eb 5c 94 3d 5e 4d 27 3c 86 b7 54 3d 8d a5 1c 3d
       0.07244285 0.010211317 0.051932834 0.03824382

conv3.bias f4 [128]
000000 de 30 a3 bc 9b 0f 22 3d f3 75 01 bd 7a bd c8 3c
       -0.019920763 0.039565664 -0.031606626 0.024504412
000010 4c 73 3d bd 6c b5 d1 3b f9 4f 73 3d 03 06 b5 3b
       -0.046252534 0.006399801 0.05940244 0.0055243983
000020 58 dc a8 bb e9 86 bd 3b 83 b3 70 3d ce de c6 bc
       -0.00515322 0.005783905 0.058764946 -0.024276163
000030 17 26 a0 bb 4b 80 4c 3d d6 b9 81 3c 22 d4 ac 3c
       -0.004887353 0.049927037 0.015835684 0.021097247
000040 22 e2 ef 3c 2c ee fb bb f6 55 1b 3c e9 ae 54 3d
       0.029282633 -0.0076883044 0.009480944 0.05192462
000050 b5 fa ee 3b 22 9b 8f 3c 88 e0 a5 3b e3 cc 9d ba
       0.00729307 0.017530028 0.0050621666 -0.001203921
000060 d6 51 22 bd fa e5 09 3d c8 6b 90 3c 70 6d 7e 3d
       -0.039628826 0.03366659 0.01762952 0.062116086
000070 1d f4 f6 3b b2 f2 64 bd 2c ab 2c bd ec d1 55 3d
       0.007536425 -0.055895515 -0.04215543 0.05220215
000080 86 a6 65 3c ac 86 2c 3d 0c a9 79 3a 9d 8f 5f 3c
       0.014016753 0.04212062 0.0009523786 0.01364508
000090 5f f3 78 bd 28 04 09 3c a6 82 0d 3d d4 f9 f5 3b
       -0.06077897 0.008362807 0.034548424 0.0075065885
0000a0 5b 04 12 3c e8 14 37 bd 41 c3 5d 3c c3 ce 01 3c
       0.008912171 -0.044697672 0.013535322 0.007922831
0000b0 b2 0e f0 bb dc d6 a9 3d 52 50 52 3d 7c 56 9a 3b
       -0.0073259706 0.08292934 0.05134613 0.004710017
0000c0 89 4a 35 bd 21 a2 30 bd e8 aa c6 3c bb 94 26 bd
       -0.044260535 -0.04312337 0.024251416 -0.040669184
0000d0 d9 43 40 bd 63 ac c4 bb ab 85 15 3d 15 f1 4c bd
       -0.046939705 -0.0060019954 0.03650443 -0.0500346
0000e0 ff 32 af 3c cc a0 27 3d 12 1c 27 bd 9d e7 4b ba
       0.021386622 0.040924832 -0.040798254 -0.00077783485
0000f0 db 5b 42 bd f1 02 c8 bc af 55 54 bd cf b0 ff 3c
       -0.04745088 -0.024415465 -0.051839527 0.031212239
000100 82 17 be 3c 39 c5 c0 3c 3f 2c 8f 3d 19 ad 50 bc
       0.023204569 0.023531543 0.06990861 -0.012736582
000110 44 a3 2b bd ed 7f bb 3c 7f ce e2 3c b5 8e 39 3d
       -0.04190375 0.022888148 0.027686356 0.04530211
000120 c6 e7 48 bd 7a ee 42 3c 71 25 d8 3c 58 16 3a bd
       -0.04904916 0.011897678 0.026385041 -0.045431465
000130 12 cf 55 3d 65 65 73 3c 88 a3 50 3c 23 cd b5 3c
       0.05219943 0.014855717 0.012734301 0.022192543
000140 1b 38 e2 3b aa 55 1a bd b0 0f c3 3b 44 17 07 3d
       0.006903661 -0.037679352 0.005952798 0.032981172
000150 24 96 cc bc c0 f4 28 bc 67 46 76 3d a3 c3 96 bc
       -0.024973936 -0.010312259 0.060125735 -0.018403834
000160 47 f8 37 bd 10 f6 cd 3b c2 68 47 3d 0c 82 a2 3c
       -0.04491451 0.0062854365 0.04868389 0.019837402
000170 a7 e3 f0 bc 00 87 18 bd 02 53 bd 3c 0b df 83 bd
       -0.029405428 -0.03723812 0.02311087 -0.064390264
000180 6a 26 19 3d 96 f9 ca 3c c1 85 de 3c b7 ae ac 3c
       0.03739015 0.024777215 0.027163388 0.021079404
000190 60 52 26 bd ab 2c 6f 3d 88 e3 86 bd 59 40 dc 3c
       -0.040605903 0.058392208 -0.06586367 0.026886152
0001a0 5b 23 69 bd e0 e5 81 bd da 1e 3c bd 29 72 9a bc
       -0.056918483 -0.06342673 -0.04592786 -0.018853264
0001b0 98 00 b6 bc a4 93 a6 3b 04 e7 ae bc 73 db 72 bb
       -0.02221708 0.005083518 -0.021350391 -0.0037057071
0001c0 67 e1 46 bd a2 57 ff bb 76 6c 18 3d 7d 68 76 3c
       -0.048554804 -0.007792429 0.03721281 0.01503956
0001d0 54 e7 36 3c 08 23 5e 3d 96 28 04 bd 85 77 36 bd
       0.011163551 0.054232627 -0.03226527 -0.044547576
0001e0 8d 85 16 bc b0 c4 4e 3d c6 9a 42 bc a9 3d 11 bd
       -0.009187114 0.050480545 -0.011877721 -0.035459194
0001f0 a2 92 83 3c 41 9f a3 3c 73 db e6 bc 3d 4b 32 3d
       0.01606113 0.0199734 -0.028180813 0.043528784

linear1.weight f4 [256, 128]
000000 55 0e cb bc be c9 11 3c b3 c9 96 3d 16 f2 e2 ba
       -0.024787107 0.008898197 0.0736269 -0.0017314579
000010 b6 32 5a bd c1 0e 4d bd d8 3a e9 ba 8f 79 ff bc
       -0.053271018 -0.0500629 -0.0017794026 -0.031185893
000020 e6 58 46 bd cc cc 54 bd b3 d5 fe 39 b5 a5 be 3d
       -0.048424624 -0.051953122 0.00048605874 0.0930895
000030 db 15 8e 3c 0e 38 c8 3c 75 84 5b bd 1c b0 d5 3c
       0.017344406 0.024440791 -0.053593118 0.026084952
000040 c9 0f a0 bd fc 42 97 3c 67 7a 8b bd d6 57 66 bd
       -0.07815511 0.018464558 -0.06810456 -0.05623611
000050 18 7e df bc a5 e8 2a 3c a4 e8 f0 3c a7 34 b4 bd
       -0.027281806 0.010431443 0.029407807 -0.08799105
000060 0a 67 cb 3d c6 90 8b 3d b6 e0 58 bb b8 03 a9 bc
       0.099317625 0.06814723 -0.0033092923 -0.020631656
000070 0b ee 5c bd ca 8f 6f 3d 21 92 cc bd 91 bb ce 3d
       -0.053937953 0.058486737 -0.099888094 0.10094369
000080 14 59 39 3d 8a d7 9e 3d 95 d1 48 bd 5d ee ab bd
       0.045250967 0.077559546 -0.049027998 -0.083950736
000090 ec 2f 49 bd 1e 6f 3f 3d ee 5e 36 bd 65 47 27 bd
       -0.049117967 0.04673683 -0.044524126 -0.04083957
0000a0 94 55 2b bc 90 49 cc bd 61 ff bf bd 9d 18 06 bd
       -0.010457415 -0.099749684 -0.093748815 -0.032738317
0000b0 52 70 ba bd e3 9b 22 bc ba 0a 43 3d ec 6e 2b bd
       -0.09103455 -0.009924862 0.04761765 -0.04185383
0000c0 19 31 e0 bc 90 50 57 bd ee 4c be 3d a5 a2 a1 3d
       -0.027367162 -0.052567065 0.09292017 0.0789235
0000d0 cc df 96 bc 06 3a 7e 3d 53 4d 36 3d 1f f6 b2 3c
       -0.018417262 0.062067054 0.044507336 0.021845875
0000e0 82 de 4f bd c2 97 46 3d d2 c3 54 3c 6b 9b df 3c
       -0.05074931 0.04848457 0.01298614 0.027295789
0000f0 4e ed 7b 3d 08 bc cb bc ee 71 07 bd 7b be 62 3d
       0.06150561 -0.024869934 -0.033067636 0.055357438
000100 87 5b d9 3d 45 e1 86 bd fa 85 c4 3d a9 35 8e bc
       0.106131606 -0.065859355 0.095958665 -0.017359572
000110 27 1e 89 bc 43 90 a0 3d bf 34 54 bd 5f 94 8b 3c
       -0.01673801 0.07840016 -0.051808115 0.017038522
000120 ea 1a 15 3d a7 e8 71 3d e0 8c 8e 3b 60 3e e8 3a
       0.03640262 0.059059765 0.0043502897 0.0017718785
000130 b7 53 c7 bc 08 c5 12 bd fe cb ae 3d 9c e6 bc bc
       -0.02433191 -0.035832435 0.08535002 -0.023059182
000140 ce 41 0c bd 4a 6b 2b 3d 0b 98 dc bc 6f 26 a4 3d
       -0.034242444 0.041850366 -0.026927968 0.08015143
000150 64 3e 1d bd 8c b1 b8 3d 2c 82 c4 bd 63 50 33 bd
       -0.03838958 0.090182394 -0.09595141 -0.043777835
000160 78 55 90 bc 5f a8 ae 3c a2 3c cc bc 76 e9 af bc
       -0.01761888 0.02132052 -0.024931256 -0.021473628
000170 f5 cc dc bc 62 56 39 3d 39 d6 a1 bc 65 13 72 bc
       -0.0269532 0.045248397 -0.01975547 -0.014775132
000180 75 3e 61 3d 33 2e 14 bd 70 e9 ad 3c 6e 49 91 3c
       0.054991204 -0.03617687 0.021229476 0.01773521
000190 c8 9c 9a bd 8d 50 81 3d 37 96 e0 3d 99 68 4a 3d
       -0.07549435 0.06314192 0.10966151 0.04941616
0001a0 8e 8e 41 bd e1 53 ab 3c be 90 93 bc 59 81 7e 3c
       -0.04725509 0.02091402 -0.018013354 0.015533769
0001b0 b9 72 25 3d 52 4a d1 3a 7e 1c dc 3c e1 ec 22 bb
       0.04039261 0.0015967584 0.026869055 -0.002486043
0001c0 b7 2e 51 bd 71 c4 33 bd 95 c2 0b 3d d1 f4 5b 3d
       -0.05106994 -0.043888513 0.034121115 0.053700272
0001d0 7b 8e eb 3b cf ac 0b bd 36 06 e5 3c ae ef 3c 3d
       0.007188616 -0.03410035 0.027957063 0.046127014
0001e0 1d 38 1f bd e0 e6 c3 3c a8 42 a2 3d e6 58 58 bd
       -0.038871873 0.0239138 0.0792287 -0.052819155
0001f0 e3 55 7b bd d9 92 b6 3d 9a d0 ab 3d 5f cd 92 bd
       -0.061361205 0.08914728 0.08389397 -0.07168078
000200 6a b0 bc 3b 69 d5 23 3b a7 30 89 3d d6 b4 25 bd
       0.005758335 0.0024999029 0.06698733 -0.04045566
000210 35 6b 83 bd 38 20 3b 3d c9 e4 c9 3d f8 54 38 3c
       -0.064169325 0.045685023 0.098580904 0.011250727
000220 7a a7 ab bd c3 5f b7 3d d7 33 d7 3d f5 56 67 3d
       -0.08381553 0.08953812 0.105079345 0.056479413
000230 7c cd a8 ba 46 73 9e 3d f6 e6 8e 3c 7b 9c 21 bc
       -0.0012878622 0.077368304 0.017444115 -0.009863968
000240 b4 fd 82 bd b3 80 42 bd ca fc 9c bd e4 fd 8f 3d
       -0.06396046 -0.04748602 -0.07665403 0.07030848
000250 c8 96 a7 3b f0 28 e6 bc 4d 57 01 bd ce 13 62 bc
       0.00511441 -0.028095692 -0.031577397 -0.013798667
000260 5e 32 d6 3b 17 b6 8b bd 69 7f d8 3d 33 a6 49 3c
       0.006536766 -0.0682184 0.105711766 0.012307691
000270 d8 28 6a bd 16 39 d5 bc 50 a4 12 bc 39 2f 2d bc
       -0.057167858 -0.026028197 -0.008950308 -0.010570341
000280 99 25 3e bd a1 2e d3 3d 11 d0 9d 3c c7 91 cb bc
       -0.046422575 0.10311628 0.019264253 -0.024849785
000290 89 bf 91 bd 89 24 ae bc 10 6e ba 3d 26 dd 41 bd
       -0.071166106 -0.021257656 0.09103024 -0.047330044
0002a0 bb f2 e4 3c e1 1d e8 bc 67 e0 87 bd 31 a3 89 3d
       0.027947774 -0.02833456 -0.06634598 0.067205794
0002b0 92 50 84 bc df 9f 87 3d 24 45 0a 3c 82 3b 9b 3d
       -0.0161517 0.0662229 0.008439336 0.075797096
0002c0 98 58 43 bd 08 93 fb bc b4 74 90 3d 5a 0e cd 3d
       -0.04769191 -0.030709758 0.07053509 0.10012503
0002d0 2c be 64 bb 9b 4f 82 bd 25 d8 94 bd 26 08 33 bd
       -0.003490339 -0.0636284 -0.07267789 -0.043708943
0002e0 fd d2 86 bd bc fd f3 3c 57 7e a3 bd 63 63 32 3d
       -0.065832116 0.029784076 -0.07983082 0.043551814
0002f0 e2 74 96 3c 95 51 a4 3d d0 86 97 3d b9 ff 47 3d
       0.018366281 0.08023373 0.0739876 0.04882786
000300 4d 37 18 3d d1 52 ac bd 53 f2 0a 3b a0 3c 6e bd
       0.037162114 -0.084142335 0.0021201565 -0.058163285
000310 bb 70 1d 3d 83 15 f6 bc 8d 24 78 3d 1e 9f bf 3d
       0.038437586 -0.030039554 0.060581733 0.09356521
000320 c9 a3 f5 3c f6 a9 b8 ba 7a 97 03 3d 89 bb 15 bc
       0.029985325 -0.0014088738 0.03212688 -0.00913895
000330 83 fc 78 bc 26 3f d2 3d fd 18 90 3d 8c ba 4c bc
       -0.015196922 0.10265951 0.07036016 -0.012495648
000340 87 db 63 3c b5 aa b4 3d 6d d5 dd 3b 3d ea 40 3d
       0.01390732 0.08821622 0.006769827 0.047098387
000350 85 87 0f 3d c4 af 4d bd 89 c1 c6 bd f5 62 09 bd
       0.03504135 -0.05021645 -0.09704883 -0.03354164
000360 54 93 ca bc 0f c1 bb bd bc f3 89 3d 5c 0e f4 3c
       -0.024728455 -0.091676824 0.06735942 0.029792003
000370 f9 40 2f bd 2a 73 2d 3c a1 a4 a1 bd 50 fc 85 3d
       -0.042786572 0.010586539 -0.078927286 0.065422654
000380 53 a4 8d 3d 8e c0 c9 bd 8d 17 4b 3c b3 f4 80 3d
       0.06916108 -0.0985118 0.012395752 0.06296673
000390 fd 98 37 bd 3f 12 85 bd 16 09 ad 3d 6b 2f 30 bd
       -0.044823635 -0.06497621 0.08448999 -0.04301397
0003a0 c9 bc d4 3c 43 2a d7 bc 8e 6e 24 bd 3f 39 01 bc
       0.025968926 -0.02626527 -0.040144496 -0.007887184
0003b0 98 1d eb 3c 25 e9 7f 3d f9 54 aa bc 21 4b aa bd
       0.028700635 0.062478203 -0.020792471 -0.08315111
0003c0 a0 39 8a bc 14 e3 a9 bd b0 73 97 3d 20 18 27 bd
       -0.01687318 -0.08295265 0.073951125 -0.04079449
0003d0 53 bc 17 bd 1b 0c 36 3d 47 ec 92 3d 79 67 50 bd
       -0.037044834 0.04444514 0.071739726 -0.05087993
0003e0 19 73 c0 bd df 3e c3 3c 91 ef 0a 3d e4 71 43 bc
       -0.09396953 0.02383369 0.033919875 -0.011929009
0003f0 c1 d2 1e 3d 99 15 e4 3c e6 e5 69 bd dc 50 9e bd
       0.03877521 0.02784233 -0.057104014 -0.077302665

linear1.bias f4 [256]
000000 6d ed ec bc 9e 95 b9 3d 52 ee 8f 3d ae 3c 70 bd
       -0.028921807 0.0906174 0.07027878 -0.05865162
000010 d8 db a7 3c 1b 74 6b bd 24 de 47 bd b1 66 6f bd
       0.020490572 -0.057483774 -0.048795834 -0.058447544
000020 cc 1c a0 3d 0d 6d 31 3d 2d d4 f6 3b 46 29 a9 bd
       0.078179926 0.04331689 0.0075326175 -0.082598254
000030 08 6b b4 bd e4 fc 5e bd 55 51 0b 3d aa 53 a9 bd
       -0.08809477 -0.054440394 0.03401311 -0.08267911
000040 2f 19 67 3d 0c c3 84 3c 29 fe af 3d 03 02 71 3d
       0.0564205 0.016206287 0.08593399 0.05883981
000050 2e e4 a2 3c 18 8d 9d bd b4 ff 93 bd 43 fc f2 bc
       0.019884195 -0.07692927 -0.07226506 -0.029661303
000060 ae 80 8f 3d 73 2c d8 3d 9e d0 7e bd 8f f3 b3 bc
       0.070069656 0.10555353 -0.06221067 -0.021966724
000070 8f f2 cc 3d f4 01 8e 3d 56 ed 90 bd ea 4c bf 3d
       0.10007202 0.06933966 -0.07076518 0.09340842
000080 a4 f8 9d 3a 90 cc de 3b ab 9e 92 3d 35 93 3f bd
       0.001205225 0.006799288 0.0715917 -0.046771247
000090 9d f4 2d bd 67 96 87 bd aa 41 93 3b a0 a3 48 bd
       -0.04246961 -0.06620484 0.0044939118 -0.04898417
0000a0 20 36 96 bd 32 0e 90 3d 5f 7e 20 bd 12 b2 55 3d
       -0.07334542 0.070339575 -0.039183017 0.052171774
0000b0 bd 72 56 3d 61 69 98 bd 86 6b e0 bb e7 49 9e 3d
       0.052355517 -0.074419744 -0.0068487553 0.077289395
0000c0 2a f3 94 3d 6e 76 4b 3d 7a fb 14 3d 82 49 00 bd
       0.07272942 0.04967349 0.03637264 -0.031320103
0000d0 2a 9f 12 3c a9 bc 1c bd f3 61 c9 bc 65 e2 da 3d
       0.0089490805 -0.038265858 -0.024582839 0.106877126
0000e0 34 2f 51 3d 40 4e a7 3c 81 3a 3e bd 42 6a 9e bd
       0.051070407 0.020423055 -0.046442512 -0.07735111
0000f0 27 bf d7 ba 7a 08 21 3d 4b d9 6c 3c 30 01 9a 3d
       -0.0016460166 0.039314725 0.014456104 0.07519758
000100 e0 2c 7c 3d bf f7 a9 3d 9f 97 7d bc 83 8a 12 bd
       0.061566234 0.08299207 -0.015478044 -0.035776626
000110 b0 7f 57 bd 6a 49 b2 bd 56 35 35 3d c3 be 9b 3d
       -0.052612007 -0.08705409 0.04424032 0.07604744
000120 65 77 14 3d 05 29 ff bc e7 37 7b 3c f1 f4 87 3c
       0.036246676 -0.03114749 0.015333152 0.01659629
000130 27 34 3f 3d 4c fb ac 3c 1d d9 ae 3d 5f e3 95 bd
       0.046680596 0.021115921 0.08537505 -0.07318758
000140 41 a7 8c 3c 34 15 06 bd 5d 12 5c bd 9f 8b 0e bd
       0.017169597 -0.032735065 -0.05372845 -0.03480112
000150 ab 99 d2 bc d6 75 31 bd 4a 55 f3 bc a2 a4 16 bd
       -0.02570804 -0.043325268 -0.029703755 -0.0367781
000160 9b 76 03 3d e6 6a e1 3c 0c d0 a0 3c 5c 6b bd 3c
       0.032095533 0.027516793 0.019630454 0.023122482
000170 61 e0 55 3c af ef 45 3d 7e 6c 13 3d be a1 86 3c
       0.013053984 0.048324283 0.035992138 0.016434547
000180 78 71 a1 bd 19 05 83 3d 3e c0 78 3d 20 80 35 3d
       -0.078829706 0.06397457 0.06073021 0.044311643
000190 b3 b6 bc 3c ec bc 20 bc 22 b1 c4 3c 77 90 9e bd
       0.023036337 -0.0098106675 0.024010245 -0.07742398
0001a0 50 98 9e bd 69 ac da 3c 98 b9 20 3d 15 f4 13 bd
       -0.07743895 0.02669354 0.039239496 -0.036121447
0001b0 22 c4 7b 3c fd 80 9a bd b1 7e 8e bd 42 12 57 3d
       0.015366586 -0.07544134 -0.06957758 0.052507646
0001c0 4f 38 af 3d ec 74 68 3d 81 05 e8 3d 79 ff 0e b9
       0.08555662 0.05675213 0.11329175 -0.00013637346
0001d0 a6 f6 90 3c 15 6f 1a 3d 8d ff cd 3d d9 16 18 bd
       0.017695736 0.037703592 0.10058508 -0.037131164
0001e0 73 dc 57 bd a0 91 b2 3c 56 9d a8 3d e5 9d 2f bd
       -0.05270047 0.021797955 0.082331344 -0.04287519
0001f0 20 64 e9 bc 9e b2 d7 3d d9 5d ea 3c 0c 1c 81 bd
       -0.028490126 0.105321154 0.028609203 -0.06304178
000200 49 64 fd 3c d1 df 80 bd 76 25 3a bd 7c 18 8f bd
       0.030931609 -0.062926896 -0.04544588 -0.06987092
000210 82 68 37 3c 5b 9f 02 3d d5 2c 43 3c 38 94 88 bd
       0.01119435 0.031890254 0.011912544 -0.066688955
000220 fc 14 74 3d 1b 91 14 bd a9 ff 58 3c 8a c5 2c 3d
       0.059590325 -0.036271196 0.013244548 0.042180575
000230 89 55 89 bc ff e6 4a bc df 24 0b bd 6a 76 bb bd
       -0.01676442 -0.012384175 -0.03397071 -0.09153445
000240 17 8d 54 3c de cf 89 3d 6a d3 32 3d 08 68 11 3d
       0.012973092 0.06729101 0.04365865 0.035499603
000250 9f 62 63 3d ac 93 5a bd 1f c4 0a bd 40 4d 67 bc
       0.055513974 -0.053363487 -0.033878442 -0.014117539
000260 c3 03 dc bc 03 b0 3c 3c ef ec bf bc c7 37 6e 3d
       -0.026857262 0.011516574 -0.023428408 0.058158662
000270 0f 92 91 3d bc 7b 91 3d 0b 56 86 bd a9 b4 6e bc
       0.071079366 0.071036786 -0.0655938 -0.01456944
000280 c2 b7 a3 bd 1e 97 69 bc 54 41 58 bd e3 76 9e 3d
       -0.079940334 -0.014257221 -0.052796677 0.077375196
000290 79 73 38 bd 63 10 1a bd 38 6a b9 3d f6 5d 3d bd
       -0.045032 -0.037613284 0.09053463 -0.046232186
0002a0 78 45 9e 3d 72 a5 dc 3c 88 2d e0 3d 5f 82 a0 bc
       0.07728094 0.02693436 0.109461844 -0.019593416
0002b0 e8 99 06 bd 46 f8 8b 3d f2 01 6d bd 56 89 da bc
       -0.03286162 0.06834464 -0.057863183 -0.026676815
0002c0 0d 17 f4 3d db b0 83 3d 96 91 50 bd f2 35 92 bd
       0.11918459 0.06430217 -0.05092009 -0.071391955
0002d0 c7 60 cb bc ac 6d 5d bd 9a 52 9f bd ce a5 bb 3d
       -0.02482642 -0.05405967 -0.07779427 0.09162484
0002e0 db a8 a7 3c bf 2f 4a 3b 10 04 e8 3c 1b 20 7a bd
       0.020466259 0.0030851213 0.02832225 -0.061065774
0002f0 6f c5 9b bd 98 f3 1c bd 32 ad 8f 3d ba 11 d0 3d
       -0.07606017 -0.038318247 0.07015456 0.10159631
000300 64 05 14 3d a8 18 6c 3d e4 51 92 3d 25 b1 1b bd
       0.036137953 0.0576407 0.07144526 -0.038010735
000310 f8 4c f5 3b 9e cb bb bc fb 3a 25 bd ec df 5e bd
       0.007485982 -0.02292424 -0.04033945 -0.054412767
000320 f4 c2 5d 3c bb 22 31 3d 55 af 7c bc 35 34 a9 3d
       0.01353525 0.043246012 -0.015422662 0.08261911
000330 3e d1 1e 3d 05 34 be bc 98 01 a1 bc 67 ca 39 3d
       0.038773768 -0.023218164 -0.01965408 0.04535904
000340 c2 6c a6 bd 9c f6 8f 3c 18 10 6f bd a8 21 e9 bc
       -0.08126213 0.017573647 -0.058364958 -0.028458431
000350 ef 6b 41 bd 02 a5 62 bd d9 5d c0 3d 55 26 b8 bc
       -0.047222074 -0.055333145 0.093929 -0.022479216
000360 54 b2 ca 3c 99 ff 5f bd b7 09 ae 3c 95 ba a1 3d
       0.024743237 -0.054687116 0.021244867 0.07896916
000370 9a 24 82 bd 01 4c a5 bd bb e2 5c 3d bb 57 6f 3d
       -0.063546374 -0.08071137 0.053927165 0.058433276
000380 94 c0 7f 3d 39 11 4d bc 86 76 f1 bc 44 cf a7 bb
       0.062439516 -0.012516313 -0.029475462 -0.0051211435
000390 2e a1 d1 bc b8 7b 90 3a 62 15 4e 3d 94 36 8e bd
       -0.025589552 0.0011023199 0.05031336 -0.06944004
0003a0 ac 09 c1 bd 4f 36 27 bd e1 8f e4 bc ed c5 c2 3c
       -0.09425673 -0.040823277 -0.027900638 0.023776019
0003b0 82 4c 82 bd bc de 0b bd eb bd 6e bd 1c 64 2b ba
       -0.06362249 -0.034147963 -0.05828659 -0.000653805
0003c0 8b b0 a5 bd 8e ac 05 3c e6 da 6b bd f8 b7 b0 3d
       -0.080903135 0.008158816 -0.057581805 0.08628839
0003d0 47 d2 54 3d ee 4c 81 3d ef 6c 99 bd 88 19 83 3d
       0.05195835 0.06313501 -0.074914806 0.06401354
0003e0 a8 7e 4e bd 59 cf 82 3d dd ba 3a bd c9 5b 2a bd
       -0.050413758 0.06387205 -0.045588363 -0.04159144
0003f0 65 ea fe 3c fe 70 40 bd 98 f6 07 bc b1 6b a9 3d
       0.031117627 -0.046982758 -0.008298539 0.08272494

linear2.weight f4 [512, 256]
000000 00 d4 2f 3d 24 4b 69 3d 6b 68 4a bd 7e 60 62 bd
       0.04292679 0.056956425 -0.049415987 -0.055267803
000010 9e 05 26 3d 63 c9 84 bd 63 76 5d 3d 7c 2f 86 3c
       0.0405327 -0.06483724 0.05406798 0.016380064
000020 50 24 3c bd a5 6a 26 bd fc a9 63 3d 8c 51 47 3d
       -0.045933068 -0.040629048 0.05558203 0.048661754
000030 f3 62 18 3c d5 89 35 3c 6e 99 4a 3c 29 09 25 bd
       0.009300935 0.011080225 0.012365682 -0.04029194
000040 bb 7e ea bb 90 59 23 bc 6f 8f 4f 3d 2c b4 ae 3c
       -0.0071562207 -0.009970084 0.0506739 0.021326147
000050 07 29 50 bd f1 0a 09 3d ef 35 8a ba 2e 26 76 3d
       -0.050820377 0.0334577 -0.0010544638 0.060095005
000060 37 1a f2 3b 27 18 84 3c 84 ea 2d 3d 00 52 63 bd
       0.007388379 0.016124798 0.04245998 -0.055498123
000070 02 98 e0 3c cd b8 91 3c 7b ce 07 3d cb a8 d7 bc
       0.027416233 0.017788315 0.0331559 -0.026325604
000080 73 a8 1a 3d e7 fb 21 3d 0f 51 3a bd cc 3a 49 3b
       0.037758302 0.039546873 -0.04548746 0.0030705212
000090 29 e3 85 bd 0a 49 77 3c da b4 22 bd 8f 2a e4 3b
       -0.06537468 0.015093097 -0.039723255 0.006963081
0000a0 85 c7 ae 3b c7 8d 69 bd 67 94 b5 bc fe 5e 54 bc
       0.005333843 -0.057019975 -0.02216549 -0.012962101
0000b0 7d 12 ef bc da 0b 80 bc 6e 5f 83 3c 69 aa 99 bc
       -0.02918362 -0.015630651 0.016036715 -0.018758016
0000c0 53 89 1f 3d 5e 9e 35 3c ce 0c 74 bd 71 60 62 3c
       0.038949322 0.011085121 -0.059582524 0.013816939
0000d0 a0 3b e0 bc 40 33 56 bd 94 8c 49 bd a7 34 56 3c
       -0.027372181 -0.05229497 -0.04920633 0.013074077
0000e0 1c 7a 2a 3d f0 f3 5a 3b 38 16 6c bd b4 1f ca bc
       0.04162036 0.0033409558 -0.057638377 -0.02467332
0000f0 bf 4b 7c bd 2c b8 04 bd fa cc a2 3c 4a d8 33 bd
       -0.061595675 -0.032402202 0.019873131 -0.04390744
000100 25 55 65 3d 0d 72 d6 3a be 78 e1 3c 8c 5b a7 bc
       0.055989403 0.0016360894 0.027523395 -0.020429395
000110 1d 70 d6 3c 13 3a 41 3c 33 62 65 bd 78 34 8c bc
       0.026176507 0.011793631 -0.056001853 -0.017114863
000120 ee 9e ce bb 93 de 55 3d 8d 2c 63 bd 97 15 fa 3c
       -0.006305567 0.052214216 -0.05546241 0.030527873
000130 4f 8d 0e 3c b0 b0 38 3d a3 87 a0 3c 24 cf d5 3c
       0.008700683 0.045090377 0.019595927 0.026099749
000140 ae d4 8f 3c 5d d2 40 bd b1 6b 75 bd a5 4a 78 3d
       0.017557468 -0.047075618 -0.059917156 0.06061806
000150 58 40 f5 3a 8e 6c 80 bd f7 e3 cb bc 16 07 f8 3c
       0.0018711193 -0.06270705 -0.024888976 0.030276816
000160 be ae 5c bd 76 32 d7 bc 6e ad 56 3d fc a3 26 bc
       -0.053877585 -0.026269179 0.05241149 -0.010170933
000170 e2 da 69 3d 3e 9d 0f bc a5 44 4c bd 13 b5 3b bd
       0.05709351 -0.008765517 -0.049870152 -0.045826983
000180 8f 0a 40 3d a6 fa 30 bd 0c 40 a3 bc fb 8b 79 3d
       0.04688507 -0.043207787 -0.019928 0.06092451
000190 09 1d 03 3c 99 49 0e 3d 68 ec e0 3c 80 a2 b6 3a
       0.008002528 0.034738157 0.027456477 0.0013933927
0001a0 19 71 ec bb b1 63 f4 bc 3e 1b 49 bd 4b 71 1a bc
       -0.0072156307 -0.029832693 -0.049098246 -0.009426425
0001b0 b2 d3 f5 3c fb 41 39 bd e0 37 1c 3d bb 3f d8 3b
       0.03000817 -0.04522894 0.038139224 0.006599394
0001c0 72 0d e0 3c 76 be 00 3d f8 f5 74 bd b9 85 ed bc
       0.027350161 0.031431638 -0.059804887 -0.028994428
0001d0 5a 0c 87 bc 60 c6 36 bd 06 f9 8f bc b9 ac ee 3c
       -0.016485382 -0.04462278 -0.017574798 0.029135095
0001e0 75 ce 11 bd 0f 93 a7 bc be ae 1a bd 85 83 3c bc
       -0.035597283 -0.020455865 -0.037764303 -0.011505966
0001f0 ab 7f 0a 3d f4 cf 1b 3c 07 b2 60 bd 06 78 32 3d
       0.03381316 0.009510029 -0.05485728 0.043571495
000200 d3 f1 81 3b 18 3d 3e 3d f8 fe 4a bd 7d 6c 62 bd
       0.0039655953 0.046444982 -0.049559563 -0.055279244
000210 24 72 20 3d f0 dd 0a 3c cd fc f0 3c e6 ab 21 3b
       0.039171353 0.008475766 0.02941742 0.002466911
000220 f5 06 69 bd ab df 84 3d 2c 58 b5 b8 8f 2b ad 3c
       -0.0568914 0.06487974 -8.647176e-05 0.021138934
000230 46 82 69 3d 72 5b 07 3b e6 86 8b 3c e5 9a 22 bd
       0.057009004 0.002065387 0.017032098 -0.0396985
000240 cf 32 80 3d 21 cb 34 3d 36 87 1f 3c e5 31 53 bd
       0.06259691 0.04413903 0.009736827 -0.051561255
000250 0b c0 19 3c 0c b8 7e 3d f5 ab 1a bd 7e 38 28 bd
       0.0093841655 0.06218724 -0.037761647 -0.0410695
000260 24 73 19 bd f9 c1 79 bd 4a 6b 39 3d aa 2b a1 3c
       -0.037463322 -0.060976002 0.045268334 0.019674141
000270 46 1e 25 3b 67 f4 f2 3c e1 c7 3e 3d b8 01 33 bd
       0.0025195046 0.029657556 0.046577338 -0.04370281
000280 12 6d 1e 3d 90 38 40 3d f8 69 84 3d 16 5b d2 bc
       0.038678236 0.046928942 0.064655244 -0.025678199
000290 e7 9b 9b 3c fc 51 ce bc aa e6 3d 3d c4 a3 2b 3c
       0.018995238 -0.025185578 0.046362557 0.0104760565
0002a0 ad 5c df 3a 1f f9 de ba 22 74 1f bd dc cd 85 bd
       0.0017041169 -0.00170115 -0.038929112 -0.06533405
0002b0 c9 6c 00 3c a7 ea 31 bd 1d 07 19 bc e6 9b 2d 3d
       0.007838436 -0.043436673 -0.009340075 0.042385004
0002c0 40 b6 b7 3c c0 57 80 bc f4 03 80 ba 85 11 6a 3d
       0.02242577 -0.015666842 -0.0009766803 0.057145614
0002d0 d8 67 75 bd 9e b1 84 bd 7a 11 86 3c b2 44 2c bd
       -0.059913486 -0.0647919 0.016365755 -0.0420577
0002e0 7f db 0e 3d 6b 67 92 bc 8d 73 87 3c 0f 1d 65 bd
       0.034877297 -0.01787158 0.016534591 -0.055935916
0002f0 53 3e 11 bc cf 6b 7a bd 12 5a 54 3d 19 84 30 bd
       -0.008864957 -0.06113797 0.05184371 -0.04309473
000300 d3 e4 3e 3d 72 9c 00 3d f7 87 98 bc aa db c6 bc
       0.046604943 0.031399198 -0.01861952 -0.024274666
000310 1c 8c fe bb d1 07 45 3d ca cb 5b bd 4c 52 63 3d
       -0.007768167 0.048103157 -0.053661145 0.055498406
000320 d6 39 5e bd 53 64 3b bd fe 3b b2 3c 83 0c d9 3c
       -0.054254375 -0.045749974 0.021757122 0.026495224
000330 ce e8 44 3d 4d 7c 3b bd 7a 63 c0 3c f0 66 21 bd
       0.048073582 -0.04577284 0.023484934 -0.03940481
000340 52 82 51 bd f5 e7 e5 3c f1 ed 59 3d 37 7b 1b bd
       -0.051149674 0.028064707 0.053205434 -0.037959304
000350 aa bc f5 bc fa 30 32 3b 6f 31 a2 3c 5b 94 7d 3a
       -0.029997189 0.0027189837 0.019798962 0.0009673291
000360 ec 56 bc 3c 88 88 24 bd 7e 23 7c 3c 02 c1 ff 3a
       0.022990666 -0.04016927 0.015389321 0.0019512477
000370 c0 a5 2a ba e8 1c 07 bb 3c 66 1e 3c 5b 84 26 bd
       -0.0006509684 -0.0020616595 0.009667929 -0.040653568
000380 32 c2 37 3b e9 7a 42 bd 78 5b 11 3d ea 76 c0 bc
       0.0028039333 -0.047480498 0.035487622 -0.023494203
000390 be 5c 81 bc eb 55 5e 3c 00 b9 d5 bb cd 4f 95 bc
       -0.015791293 0.013570289 -0.006522298 -0.018226529
0003a0 48 64 b2 3c 77 a0 a4 bb 43 98 b9 3c ec da 4d 3c
       0.021776333 -0.0050240117 0.022655612 0.012564402
0003b0 e4 81 80 3b ac 84 3e bd a1 61 54 bd 27 69 b1 3c
       0.003921734 -0.046513245 -0.05185092 0.021656586
0003c0 a3 15 49 bd 25 4a 00 ba c3 b4 1f 3c 12 58 0f 3d
       -0.0490929 -0.0004893861 0.009747687 0.0349961
0003d0 17 cc e8 bc dd bc 18 3d e7 49 ed bc f4 86 be bc
       -0.02841763 0.03728949 -0.028965903 -0.02325771
0003e0 05 d9 07 3c d2 e7 60 3c df 01 15 3c 13 4f 3f bb
       0.008291488 0.013727145 0.009094684 -0.002919142
0003f0 25 5e 06 3d 00 85 48 3c 3d 84 5f bd a0 68 6a bd
       0.032804627 0.012238741 -0.05456947 -0.057228684
