artifacts/wgan-gps/financial_1y_discriminator.pth (torch, 873877 bytes, 11 tensors)

conv1.weight f4 [32, 4, 5]
00000000: 99ec 053d 7ce6 2abe 0246 313e 0330 23bb
00000010: 97b3 1b3c 8c84 043e d521 0dbe 6a55 323e
00000020: feb8 fcbd b64a 083c 2691 30be 06fa 503e
00000030: 5373 2f3e 64a3 413e 9394 df3c 0ce9 46be
00000040: 2970 2c3e f53d 0dbd 4a2a 473d f599 233e
00000050: 8b6f 5c3e 3820 00be d678 2fbe 4d08 d6bd
00000060: 42a9 48be 1b46 9b3d faba 2bbe ce79 8bbc
00000070: 9d95 183e be70 293e 9f4c 473e 6d93 01be
00000080: ecb3 c43c cd96 a43d 4cc2 5c3d 8fc1 e5bd
00000090: 5676 3fbe 5d66 0d3e f17f 5b3d 0abb e0bd
000000a0: 1486 39be ce0e fe3d fcb1 2bbd 331f 5dbe
000000b0: cc1b c63d eadd 6c3c de42 803d 5006 1f3e
000000c0: 1286 c2bc b339 79bd 9c1d 58be bb29 2c3e
000000d0: c931 0dbd 7dab 5c3e 5eb9 e3bd 913f 51be
000000e0: 1ed2 00bd 7a13 b0bd cfdd 1cbe 5b92 babd
000000f0: 736e 0f3e c71c 22be dd1f 02bd e372 db3d
00000100: 6b09 5c3e de9c 28be 6603 9b3d 8ed1 583e
00000110: 34cf 3ebe e4c6 4d3e 0bfa 2dbe ae5d 50bd
00000120: 3c66 0abe 2877 0b3e f68c 493e 42f7 f83c
00000130: 88e6 42bd b6b5 0abe 9e67 843d b316 b83c
00000140: 4623 383d 3166 48bd 5610 983d 5b46 3a3e
00000150: f8b4 a0bc b3a8 433e 5811 253e 4707 b7bd
00000160: ba73 3c3d 9d7f 033d d4ea b0bd 3258 ccbc
00000170: 03a2 793e 174c 2cbe 72a8 a0bc 4f4f e43d
00000180: 87fb 98bd d4f1 debd 9026 313d a044 e83a
00000190: 1541 d43d 52e6 2c3d 809d 58be 338f 5abd
000001a0: 3a91 1e3e f349 1bbe 7e5c 403e 2b26 dabd
000001b0: ced4 25be 24f3 4fbe 6a3a 88bd f378 463e
000001c0: 9c86 edbd 2f0f 1dbd b0ec e43d c274 dabd
000001d0: 2b7c 44be 49c7 0e3e c7ad e13d 44b9 4bbd
000001e0: 6c62 013e e07c b3bd 39f9 3b3d 41e1 183e
000001f0: 4e38 2fbe ae9e 5fbe 422b 633e d6f6 043e
00000200: 9b43 4bbe 6f46 55be b2fd 6dbc 7472 433e
00000210: 6c12 503e 2d4b 3cbe ae6e 87bb 1ec0 973d
00000220: 1935 70bc ffea 503e 69dc e8bd a265 2a3d
00000230: af99 073e 0b73 09bd 3fb2 453e 6aad 783c
00000240: a9bc babd 68dd dabd 589e 5ebe a6e0 edbd
00000250: 4e19 02be 8f6e 6c3d 982a 643e 5724 83bd
00000260: 85a7 5fbe c0f8 e63d 2115 fb3d 4e07 f13d
00000270: e788 0cbe 9e5c 9d3d 72d7 4bbe e095 f63d
00000280: a616 533e f534 d8bd 729c a23d e3f6 be3d
00000290: eb24 97bc 900c 14be 535e e03d a050 323e
000002a0: 34cc 48be dc4b 4b3e 50c6 8abd 5ee7 033e
000002b0: 97d2 2e3e 7b1b 93bd e6ea b6bc 6197 353e
000002c0: 1457 9f3c 57d8 1fbd 999c d7bd f0c4 5b3e
000002d0: 35c1 c4bd 8163 56bc cab5 5e3e 94f9 373e
000002e0: 5f60 443e 5123 de3d e5dd ff3d 7ba6 56be
000002f0: 0561 30be 95b7 093e 7207 3abe a389 8d3c
00000300: 3142 08be 55ec 473e 9be8 453c 5bf3 5b3e
00000310: ef38 22be 7cd1 b23b d186 6a3d e9cc 31be
00000320: 262f d4bd d8f0 d23d 5e2a 18be 09d1 5cbe
00000330: 95d4 413b 9a9b a8bc c7ad 143e 3a95 473e
00000340: afa0 5e3e eb60 cebc 966e 33be fbf6 85bd
00000350: dfcf 2cbd 8252 e43d 98f4 80bd 6292 2ebe
00000360: 7194 f9bd 4b1a 42be ffeb 56be 2739 343e
00000370: 3b87 fe3d d754 cc3c b9db 20be 57d5 183e
00000380: d5bf c9bd eef5 333e ab50 54be a895 0b3e
00000390: d035 d2bd b390 ecbd 9c17 603e 597b 383d
000003a0: 76e5 943d 8d21 ad3a 267c 23bc ab76 32bd
000003b0: d034 fcbd eb8b ea3b 9564 fcbc 11fa dfbd
000003c0: b998 f4bd 9e95 53bc caab 17be 182e 36be
000003d0: 0000 19be f336 c53c 819f 0f3e 8ff1 fb3d
000003e0: c759 213e 17c4 4fbe 6256 913d b326 dfbd
000003f0: 2705 2e3d 6134 de3d 139c 35be 1f55 583e
0.03269634 -0.16689485 0.17311862 -0.0024900443 0.009503267 0.12941188 -0.13782437 0.17415395
-0.12339972 0.008318594 -0.1724287 0.20407876 0.17133836 0.18909985 0.027292525 -0.19424838
0.1683966 -0.034482915 0.048624314 0.15976699 0.21526925 -0.1251229 -0.17135939 -0.10450802
-0.19595817 0.07581731 -0.16770545 -0.017025854 0.14900823 0.16546914 0.19462822 -0.12653895
0.024011575 0.080365755 0.053896233 -0.11218559 -0.18697485 0.1380858 0.05358881 -0.10973175
-0.18117553 0.124051675 -0.041917786 -0.21593933 0.096732706 0.014457205 0.06262754 0.15529752
-0.02374557 -0.060846042 -0.21105045 0.16812794 -0.034471307 0.21549793 -0.1111934 -0.20434405
-0.031450383 -0.08597465 -0.15318988 -0.09109946 0.14006977 -0.1583129 -0.03176867 0.10715272
0.21487968 -0.1646609 0.075690076 0.21173689 -0.18633729 0.20095402 -0.16989915 -0.05087059
-0.13515562 0.13619673 0.19682679 0.03039134 -0.047583133 -0.1354588 0.06465076 0.022471761
0.044955514 -0.048925582 0.07424991 0.18190901 -0.019617543 0.19107322 0.16119897 -0.08936935
0.046008803 0.032104123 -0.0863854 -0.024944399 0.24378209 -0.16825901 -0.019611571 0.111479394
-0.0746985 -0.10885969 0.043249667 0.0017720647 0.10363976 0.042211838 -0.21153831 -0.05335922
0.15485087 -0.15164928 0.18785283 -0.10651811 -0.1619446 -0.20307595 -0.066517666 0.19382076
-0.1159794 -0.03834456 0.11177957 -0.10666801 -0.19187991 0.13943209 0.110194735 -0.04973723
0.12635201 -0.087640524 0.045891974 0.14929678 -0.17111322 -0.21837875 0.2218447 0.12984785
-0.19850008 -0.2082765 -0.014525818 0.19086629 0.20319527 -0.18388052 -0.004133067 0.0740969
-0.014661097 0.20402144 -0.11370165 0.04160083 0.1324222 -0.03355698 0.19306277 0.015178064
-0.09118015 -0.10686761 -0.21740091 -0.11615114 -0.12704965 0.057722624 0.22281873 -0.06403416
-0.21841247 0.11277914 0.122598894 0.117689714 -0.13724099 0.07683681 -0.19906405 0.12040305
0.20614108 -0.10556976 0.07939996 0.09324434 -0.018450221 -0.14457917 0.10955491 0.17413568
-0.19609147 0.19853157 -0.06776106 0.12881228 0.17072521 -0.07182976 -0.022328805 0.17733528
0.019450702 -0.039024677 -0.105279155 0.21461844 -0.09607164 -0.013085247 0.21749035 0.179663
0.19177388 0.1084658 0.12493495 -0.20961945 -0.1722451 0.13448937 -0.18166903 0.017277544
-0.133065 0.19523747 0.012079383 0.21479551 -0.15842031 0.0054571014 0.057257477 -0.17363323
-0.10360555 0.102998435 -0.14859912 -0.21564116 0.0029576172 -0.02058201 0.14519416 0.19490519
0.21740983 -0.025192698 -0.17522654 -0.065412484 -0.04219043 0.111485496 -0.062966526 -0.17048028
-0.12186516 -0.18955342 -0.20988463 0.17599927 0.12428137 0.024942799 -0.15708818 0.14925133
-0.09851042 0.17574283 -0.20733897 0.13631308 -0.1026417 -0.11551037 0.21884006 0.04503951
0.07270329 0.0013208851 -0.00997833 -0.0435702 -0.12314761 0.007157793 -0.03080968 -0.10936368
-0.11943192 -0.0129140895 -0.14811626 -0.17791021 -0.14941406 0.024074053 0.1402569 0.12301933
0.15756904 -0.20289646 0.07096554 -0.10896053 0.042485382 0.10849834 -0.17735319 0.21126221

conv1.bias f4 [32]
00000000: 5c5b c7bd e976 3fbb 1002 133e b592 f1bc
00000010: ce26 8dbd 8625 43be 3bd5 e2bd 1d74 98bc
00000020: a2f4 25be 4187 313e 576e e13d 28cf 0e3d
00000030: 3d91 c8bb f143 cebd b53c 76bd 25ab 453e
00000040: c683 1abe 4735 febd ea69 6ebe 8c63 2f3e
00000050: 6250 7bbc e6b4 dabd 25dd ed3c 7101 113e
00000060: f8fa 7abe a2a4 0f38 de9b cbbd fc8a 27be
00000070: 7c8d 9bbd fe4e e73d 278f 663e 1c83 7a3e
-0.09734222 -0.0029215163 0.14356256 -0.0294889 -0.06892167 -0.19057283 -0.11075827 -0.018610055
-0.16206601 0.17336752 0.11007374 0.03486553 -0.0061208294 -0.100715525 -0.06011649 0.19303568
-0.1508933 -0.124125056 -0.2328259 0.17127818 -0.015338989 -0.10679035 0.029036114 0.14160706
-0.245098 3.4247183e-05 -0.09941839 -0.16361612 -0.075953454 0.112943634 0.22515546 0.24464077

conv2.weight f4 [64, 32, 5]
00000000: 57f8 3ebc d4ed 84bd 1986 12bd 2866 803c
00000010: a385 163d db50 3bbd 642a fe3a c970 ebbc
00000020: 5b8c 313d 2c6c 9a3d b172 cebc d396 a8bc
00000030: a379 6e3c 88a7 76bd 74c5 54bd b71e 92bd
00000040: e18b b23b 0ed5 e43b 5c9c 3a3d cc6d 8d3d
00000050: 8bad 90bc cbe3 8f3c d249 86bd 09b0 93bc
00000060: 1bf1 5b3d 82f4 153c 7273 db3c 4399 ac3d
00000070: 2244 9d3d b1c4 febc 3996 f73c 52c1 89bd
00000080: 4320 613d acc9 d4bc afde 413a c334 91bd
00000090: 3788 4bbd 334d f33a 8982 533c a3f8 18bd
000000a0: cb3d c33c 4da7 d4bc b6d2 833d efc6 4cbc
000000b0: ef4e 743d ddce b33c 0609 26bd 61d2 1e3c
000000c0: acdd 8ebd 0dbd 96bd 3bbf 2e3d eb69 33bd
000000d0: 3e47 2abd 6b09 6e3d 7289 9c3d 0bde d33b
000000e0: 564b 6a3d 60f7 2bbd e00d d83c d1ec 8e39
000000f0: a0b4 87bd f80e acbc 8c1c d33c 2975 a73c
00000100: 5af6 ac3c 2b4a 03bd fab1 beba 7f59 9d3d
00000110: cbc9 5b3d ca74 893d 2aee 453c 4a0f e03a
00000120: 8d20 9d3d 4531 91bd 69f5 073c 7172 3c3c
00000130: bb8f 323d c31b c53d 741d fc3c e85b c53c
00000140: 3299 b83c ea68 ff3c 25da 81bd f2bf 74bc
00000150: 7272 39bd 44c0 513d 2f01 66bd 88da 44bd
00000160: ceb6 c23c 45c6 403d d02e 84bd 60bb 91bd
00000170: a53a 4cbc 2400 683d 0d6d a63b c2f3 00bd
00000180: c0ba 243d 1463 0dbd 6019 37bc cd43 39bc
00000190: e2ce 313d 581c 9ebc 805f cd3c bd0e e73c
000001a0: 7ef5 66bd dd40 373d eadc 513d 291f b8bb
000001b0: 62bc 903d 7e3a 7d3d 3216 3b3d 4b02 0f3d
000001c0: 35be 75bc 24a7 52bd 2246 3c3c d102 2cbd
000001d0: befd 27bd 509c 143d 3a15 7dbd 4694 3bbd
000001e0: 8057 8e3d 9c36 913c 7408 03bc 8505 643d
000001f0: 5b31 a13d 2547 7f3d 6815 dbbc 4f5e 0dbd
00000200: accf c63b 9623 5ebd f8d7 a1bd 5d2f bf3b
00000210: 720b 2ebd f4f6 de3c 5c52 0b3d 198e 983d
00000220: cd55 773d 3328 983c 6af1 993d 2a8e 4ebd
00000230: b2e2 2ebd c37e 3d3d fac3 59ba 8fdf 353d
00000240: 2a1b 37bd 5ea2 8d3d 7f18 79bd 44fa 8b3d
00000250: f5d1 3bbb 3d10 963c 8e38 263b d4db 9ebd
00000260: fb8c ebbc 8f1c 98bd cf03 86bc b6af 42bb
00000270: 10b9 633d fe19 563b a479 993d f953 873d
00000280: fd49 e03c 96d7 5e3d 1cfd e83c f5ce ff3c
00000290: 39fd 58bd 98c2 623d 6b3d 29bd 7692 7fbd
000002a0: e764 4fbc b8ac 8d3d 37ed 5fbc 178c 63bd
000002b0: 4913 b93c b34a 29bb 9bc0 773d 6c1e 8d3d
000002c0: fcc1 3ebc 7f86 7bbd 5a85 a03d 8bc8 2fbd
000002d0: 169d 68bc 19dc d83c 75a9 edbc d116 f63c
000002e0: 4cce 74bd 22b6 22bd 9bf4 9f3d 4b44 52bd
000002f0: cfc1 a0bd cc5c 953c 0ded 8b3d 8ced 193d
00000300: ea5d 5fbd 75c7 593d e9a1 0ebd c2e5 7bbd
00000310: 7144 a43c 411e 5bbd dbba 65bd ae4e 6e3d
00000320: 7f0a 4b3d b9d7 9ebd ac57 5c3d 607e 6dbd
00000330: 1a15 a33b ce9b 083d 30e5 68bd 8066 08bd
00000340: f841 2f3d 9891 88bd fe83 053c 8acc 843d
00000350: faf7 3a3d 1d75 5b3d a02b 2fbb 09ea d93c
00000360: 1420 783d 8f83 043d 838a cfbc 2846 bdbc
00000370: 775c 593c 3b54 54bc 2d8f 0fbd 7ad8 ee3c
00000380: 09c8 893d 76f6 9ebd ff80 d7bc b187 923b
00000390: 847c 843d 4667 8cbd ce04 3e3c 1048 5dbd
000003a0: 8155 193d dfb4 793d 683a 9fbd 2a13 0e3d
000003b0: fc42 183d a32f 58bd 7855 023d 82d3 46bd
000003c0: 5fc9 52bd fcfc 093d d445 563c 0677 ab3b
000003d0: c8c2 b5bc b281 ab3b 1c5e edbc 1bce 2cbd
000003e0: 9d0f 11bd 378e 68bd b073 0f3b bcd8 813d
000003f0: 4895 4fbc 81f9 113d 9bf7 a7bc da6d dbbc
-0.0116558885 -0.064906746 -0.035772417 0.015673712 0.03674854 -0.045731407 0.0019391296 -0.028740304
0.043346744 0.075401634 -0.025201173 -0.020579731 0.014555368 -0.060218364 -0.05194612 -0.07134765
0.005448804 0.006983406 0.045559272 0.06905708 -0.017660877 0.017564675 -0.06557049 -0.018028276
0.053696733 0.0091525335 0.026788447 0.0842767 0.07679011 -0.03109965 0.030222999 -0.06726326
0.054962408 -0.02597507 0.0007395548 -0.070901416 -0.04969045 0.0018562436 0.01290954 -0.037346493
0.023833176 -0.025958681 0.06436674 -0.012498601 0.05964559 0.021949226 -0.04053595 0.009693713
-0.06975874 -0.07360277 0.04266284 -0.043802183 -0.041571848 0.05811445 0.07643403 0.0064656786
0.057200752 -0.041983962 0.026373804 0.00027260793 -0.06626248 -0.021003231 0.025770448 0.020441609
0.021113563 -0.032053154 -0.0014548891 0.07683086 0.05365924 0.06711729 0.0120807085 0.00170944
0.07672224 -0.070894755 0.008298256 0.011501894 0.043594103 0.09624436 0.030775763 0.024091676
0.022533987 0.031177957 -0.06340436 -0.014938341 -0.04527516 0.05120875 -0.056153473 -0.04805997
0.023768809 0.047064085 -0.06454241 -0.07115817 -0.012465154 0.05664076 0.005078918 -0.031482466
0.04021716 -0.034518316 -0.011175483 -0.011307669 0.04341019 -0.019300625 0.025069952 0.02820527
-0.056386463 0.044739593 0.05123607 -0.005618949 0.07067181 0.06182336 0.045675464 0.034914296
-0.014998962 -0.05142893 0.01149133 -0.041994873 -0.04101347 0.036281884 -0.06178782 -0.0457957
0.06950283 0.017726235 -0.007997621 0.055669326 0.07870742 0.062323708 -0.026743606 -0.034513768
0.006067237 -0.054233156 -0.07902521 0.0058345036 -0.042491384 0.027217366 0.03401409 0.07448978
0.06038456 0.018573856 0.07516749 -0.050428547 -0.042696662 0.046263468 -0.0008307096 0.044402655
-0.04470364 0.06915735 -0.060814377 0.06834844 -0.002865908 0.01831829 0.00253633 -0.07756773
-0.028753748 -0.07427322 -0.016359238 -0.0029706783 0.05559641 0.00326693 0.07493904 0.066078134
0.02737903 0.054404818 0.028441004 0.031226614 -0.052975867 0.05536136 -0.04131834 -0.062395535
-0.012658334 0.06917709 -0.013667396 -0.055553522 0.022592204 -0.0025831878 0.060486417 0.06890568
-0.011642929 -0.061407562 0.07837935 -0.042915862 -0.014197608 0.026472138 -0.029011467 0.030040177
-0.059767053 -0.039724477 0.07810327 -0.05133466 -0.07849466 0.018232726 0.06832323 0.037580058
-0.054532923 0.053168733 -0.03482238 -0.06149841 0.020052167 -0.05349565 -0.056086402 0.058180504
0.049570557 -0.077559896 0.053794548 -0.05798185 0.0049768807 0.033351712 -0.056859195 -0.033300877
0.042787522 -0.06668395 0.008149145 0.06484325 0.045646645 0.053578485 -0.0026728883 0.026600854
0.060577467 0.032352027 -0.025334602 -0.023104742 0.013266674 -0.012959535 -0.035048652 0.029155958
0.06727607 -0.077618524 -0.026306627 0.004471742 0.06469062 -0.06855635 0.011597825 -0.054023802
0.03743506 0.060963508 -0.07774812 0.034686245 0.037173256 -0.052779805 0.03181979 -0.048541553
-0.051461574 0.03368853 0.013078172 0.0052326946 -0.022187606 0.0052339667 -0.028975539 -0.042188745
-0.03541528 -0.05677625 0.0021889023 0.06340167 -0.012669869 0.035638336 -0.02050381 -0.02678578

conv2.bias f4 [64]
00000000: 61bf 93bc 5cbb 17bc 4310 ab3d f750 2e3d
00000010: 20b0 b23d c14b 53bd efa7 93bd 0db5 623d
00000020: f2cf 413d 912e 89bd d623 8c3d a976 83bd
00000030: 0384 443d 70b9 b6bb 5945 acbd 684d 1fbd
00000040: 983e 0a3d 58aa 933d 4c19 50bd 81b3 9abd
00000050: 5a9f 1dbd d1d4 68bd 904e 8f3d 88d3 f13b
00000060: 8e65 d83c 34b3 3a3c 8284 963d f8f9 9bbd
00000070: 0494 8a3d 6c86 c5bd 4466 aa3d 5b2a bdbd
00000080: 8b0d cc3c 7e0d 00bb 696d b2bd 1b27 c1bd
00000090: 338b 973d 5be3 cd3b 51b0 8d3d c5af d0bc
000000a0: 23af 963d 4ae7 003b d706 893d f459 c83c
000000b0: f8e6 353d 96f6 1ebb 64c8 6b3d e7c2 a8bd
000000c0: 7511 31bd 7423 1f3d 05d6 b33d 2bdb 423c
000000d0: 029c a0bc 09fe c9bc 43e2 e4bc 7d1f a83c
000000e0: cff3 80bc aded c2bb 77ec 78bd 2b15 be3d
000000f0: 6fb6 07bd 4ce4 fc3b 53a4 e2bd 39bf 963c
-0.018035593 -0.009260979 0.08352711 0.042557683 0.087249994 -0.051585916 -0.07209765 0.055348445
0.047317453 -0.06698335 0.06842773 -0.06419117 0.04797746 -0.005576305 -0.084116645 -0.03889218
0.0337511 0.07210225 -0.050805375 -0.07553769 -0.038482048 -0.056843583 0.069974065 0.007379953
0.026415613 0.011395264 0.073494926 -0.07616037 0.06766513 -0.096447796 0.08320287 -0.09236594
0.024908802 -0.0019539292 -0.087122746 -0.09431287 0.07399597 0.0062832064 0.06918395 -0.025474438
0.073576234 0.001966911 0.06690758 0.024456955 0.044409722 -0.0024255863 0.057564154 -0.082403
-0.04322954 0.03885217 0.08781055 0.011893074 -0.01960564 -0.024657266 -0.027939921 0.020522827
-0.015741257 -0.0059487433 -0.060772385 0.09281381 -0.033132967 0.007717645 -0.110664986 0.018401729

conv3.weight f4 [128, 64, 5]
00000000: cbe2 a7bc 8773 4e3d daca 9f3b 7452 4dbd
00000010: df3a ba3b 895e 493d 92e8 1f3d 81ae 58bc
00000020: 5971 0a3d 2ed3 9e3c b85c 9b3c 943a 94bc
00000030: 616a 7f3d a7af 963c a0b2 e03a 92ca 00bd
00000040: 9c76 ddba 71af e33d 0c1b 85bb 6916 613d
00000050: d26d 483b c8cf 2a3d 2d17 a03c 9638 27bd
00000060: f362 07bd 84f7 5cbc 7838 3c3b 6d89 0ebc
00000070: 4446 10bd ceb3 143d b40d f13c 8274 fabb
00000080: 5929 853b 102d 2f3d 460e d13c c7a0 76bc
00000090: e304 623d 871e 3f3c 52ed 84bc e65e 2abd
000000a0: c442 413c 51c7 733c fea8 a93c a89e b33c
000000b0: d25c 57bd e3ae 083a 16cf a6ba 76b7 263a
000000c0: a743 bebb d3b0 623d deea 54bd e925 2dbb
000000d0: c376 e7bb 7c13 083d 877f e73c 12e9 b8bc
000000e0: 8261 5ebc 181a 91bd 94e9 d13c 5002 a4bb
000000f0: bdb7 41bc 5137 393d 024e 4dbd 6821 1fbd
00000100: 0109 9b3c 587a c03c 82cf c73c 3d63 633c
00000110: e19c 453d 9f9b 60bd 9080 1fbd d5e1 8b3c
00000120: 9031 7bbd bdfb 083d 4ce4 193d d03f b7b9
00000130: 7a8c c5ba 05ec f9bd d324 3bbd 37e7 3abc
00000140: bf28 d2bc 26b4 4ebd 00bb 363d d2ca cbbc
00000150: 91ae 14bd 5ea6 5fbd 6d50 7bbc 27aa 953c
00000160: 0961 59bd 708a ecbc d9c9 b7bc 28db 05bc
00000170: 5ec5 883d ca04 ea3c 7786 013d b9ff c03c
00000180: 4b43 623d 8bde 0e3d ae1b 483d 73aa 643d
00000190: 309a 3dbc 40f1 9d3a 2cf2 183d 7198 4d3d
000001a0: 5b33 4bbc b423 6abb 0359 403b 110a 0abd
000001b0: 374d 46bd 1a19 8a3c 543b fe3c 0600 88ba
000001c0: c7ff 55bb 0cc3 303d 06ca 35bc 3dfd 453d
000001d0: 9f28 6abc c02c 40bd de98 03bd 0db6 62bd
000001e0: 098c 02bd 16e3 f5bc 7a93 bb3d 8675 223c
000001f0: 1a7e 30bd ada4 16bd 1d5c 353d 316a e7bc
00000200: 68c9 103d bd81 493d ed03 dc3b f94c 17bd
00000210: 02b3 3ebd 4fe6 e93c d605 153d a9d2 a53c
00000220: ae37 21bd 639b 48bb 1120 ca3b 12cf b63c
00000230: dafa 33bb f24c 2d3d 5b64 663d f8f2 5dbd
00000240: 72d8 4abd 1f08 503d 9e63 ed3c 00fa 56bd
00000250: e7f9 123d 8f44 a6bc 405a 0c3d 5a13 f13c
00000260: e2c6 cebc 6763 4bbc 9a40 e2bc 2cbd 4bbd
00000270: 6b29 63bc f411 25bd fcd6 3fbb d749 463d
00000280: 44fc 063d 9fcc 3b3d 1682 cd3c 296b e4bc
00000290: bcd5 c33c 7a65 313c 208d 63bd 2e20 ae3c
000002a0: fd93 00bd 1967 0a3d c664 2ebc 898e b8bc
000002b0: 7ed0 ef3c da1c 69bc 3df8 d93b fdb8 87bc
000002c0: 63bf 11bd c5e0 7bbd aeae 03bd aea0 efbb
000002d0: 0e98 403d b5b4 453d 417e 63bd 773b 1cbd
000002e0: 26c5 6b3c d9db 293d 786b 003d 9c70 2c3c
000002f0: d92c 5d3c e46c 37bd 1bd9 1f3c d6ca 443d
00000300: 22e1 aabc 7f33 4dbb 9de3 343d ae78 a1bb
00000310: 4f87 3ebd 8d94 35bd b9f2 323d f796 f53c
00000320: 1cf6 1e3d 1712 59bc 376a f139 a71b 5fbd
00000330: 051b 043d a702 463d e224 ee3c 276a 7abc
00000340: dbef 57bd ed64 f2bc 722e c1bb 5fc6 8b3c
00000350: 7630 e9b9 a5eb c2ba 8ac9 3b3d 6f75 5d3d
00000360: fb77 a23a 3bad 1cbd 763c 1ebd 5bc5 95bc
00000370: 804b bbbc ecdf 4f3d 22a0 54bd 8f6d f83c
00000380: b58f 983c 6f94 333d e8d9 66bc 5ce1 923d
00000390: 4899 81bc 8369 233d eda4 263d 82c0 dcbc
000003a0: e1cb 44bd 1252 05bd 159e 55bd 0c55 da3c
000003b0: 9d61 4b3c c90b da3a e815 a53a 46bd 843c
000003c0: ae8b 883c 2a1a d0bc 6456 8fbd 2d25 913c
000003d0: 562d 59bd 7a86 cabc c257 95bc ff60 5f3c
000003e0: 54a2 2a3d 22a6 533c b69c f7bc aff7 1fbc
000003f0: f451 86bd d218 4ebd 452b 0bbc 13f2 15bc
-0.020493886 0.050403144 0.0048764767 -0.05012746 0.0056832875 0.04916242 0.039040156 -0.013225199
0.033799503 0.019387808 0.01896511 -0.018094338 0.06235731 0.018394304 0.0017143078 -0.031443186
-0.001689631 0.11117447 -0.004062062 0.054953013 0.0030583036 0.041702062 0.019542301 -0.04082545
-0.03305335 -0.013486747 0.0028720181 -0.008699757 -0.03522326 0.036304288 0.02942548 -0.0076432833
0.004063767 0.042767584 0.025519501 -0.015052981 0.05518044 0.011664993 -0.016226444 -0.04159441
0.011795703 0.014879064 0.020710465 0.02192624 -0.052578755 0.00052140484 -0.0012726511 0.0006359735
-0.0058064046 0.055344414 -0.0519818 -0.0026420301 -0.007063718 0.033221707 0.028259052 -0.022572074
-0.013573052 -0.07085055 0.025624074 -0.0050051585 -0.011823592 0.04521877 -0.050123222 -0.038850218
0.018925192 0.023495838 0.02439094 0.013878641 0.048245315 -0.05483591 -0.038940966 0.017075459
-0.061326563 0.0334432 0.037571236 -0.00034952024 -0.0015071773 -0.1220322 -0.045689415 -0.011407665
-0.025654195 -0.05046477 0.04461193 -0.024876986 -0.036299292 -0.05460202 -0.015338999 0.018269612
-0.053071056 -0.028874606 -0.022435116 -0.008169927 0.0667827 0.028566737 0.031622376 0.023559438
0.055239957 0.034880202 0.048854522 0.055826616 -0.011572406 0.0012050048 0.037340328 0.050194208
-0.012402381 -0.0035726847 0.002934993 -0.033701006 -0.04841348 0.016857672 0.03103415 -0.0010375984
-0.0032653676 0.04315476 -0.011095529 0.04833721 -0.014291911 -0.046917677 -0.032128207 -0.0553494
-0.03187183 -0.03001551 0.09158988 0.009915715 -0.04308901 -0.03677814 0.0442773 -0.028248878
0.035348326 0.049195994 0.006714335 -0.03693864 -0.046557434 0.028552203 0.03638252 0.020242052
-0.03935974 -0.0030610196 0.0061683734 0.022315536 -0.0027462752 0.04230971 0.05624805 -0.05418679
-0.049522825 0.050788995 0.028978165 -0.052484512 0.035882857 -0.020296363 0.034265757 0.029428173
-0.02524132 -0.012413836 -0.027618695 -0.049740955 -0.013864855 -0.040300325 -0.0029272428 0.048410263
0.032955423 0.04584944 0.025086444 -0.02788313 0.023905627 0.010827417 -0.05555451 0.021255579
-0.031391133 0.033789728 -0.010644143 -0.022528904 0.029274222 -0.01422807 0.0066519068 -0.016567701
-0.03558291 -0.061493654 -0.03214901 -0.0073128557 0.04702001 0.04826804 -0.055540327 -0.038142648
0.014390266 0.04146943 0.03135249 0.010524895 0.013499462 -0.04478158 0.009756352 0.048045002
-0.020859305 -0.0031311212 0.04416238 -0.004927716 -0.04651576 -0.044331122 0.04368851 0.029979212
0.038808927 -0.013248942 0.00046046238 -0.05446973 0.03225233 0.048342373 0.029070321 -0.015284098
-0.05271898 -0.02958914 -0.0058954293 0.017062364 -0.0004447733 -0.0014871253 0.0458465 0.05406707
0.0012395376 -0.038251143 -0.03863188 -0.018282583 -0.02286315 0.050750658 -0.051910527 0.03032568
0.018623212 0.04384273 -0.014090039 0.0717189 -0.01582016 0.039895546 0.04068463 -0.026947264
-0.048045997 -0.03254897 -0.052152712 0.026651882 0.01241341 0.0016635592 0.001259503 0.016203534
0.016668167 -0.025403101 -0.069988996 0.017717922 -0.05302175 -0.024722327 -0.018230323 0.0136339655
0.041658714 0.012918027 -0.030226093 -0.009763642 -0.065586 -0.05031664 -0.008494203 -0.009151953

conv3.bias f4 [128]
00000000: 9f45 343d b092 373b fc0a c4bc ea08 d7bc
00000010: b8cf 7d3d 2516 713d bcd6 9abd 6f42 17bd
00000020: 566d 973c e712 91bc d76f 9fbd b8c2 b53b
00000030: f04e a3bc 6736 0e3c 0e0e cb3c b972 0b3d
00000040: 9fcf a9bb a71a 263d c240 8a3d 2913 1abd
00000050: 74ba 8cbc f0b0 4cbd d918 70bd 14c7 2e3d
00000060: d92f 7f3c 8836 83bd 51b6 413d 971f 893d
00000070: ee6e 253d df71 0bbc 75a5 093d 34c4 9b3d
00000080: 7fc6 e73c e3f9 a63b 3d3e 35bc 5529 d23c
00000090: e686 51bc 64b3 ed3c 58ec 8ebb 19b3 0d3d
000000a0: 9d82 653d 904a ccbc f285 8039 3c92 173d
000000b0: 4808 4a3d 88cc 393d 711f 283d 682d 00bc
000000c0: febe 203c 35b9 673d 4041 8abd a9cb 063d
000000d0: c9b4 b23c ccfa 613c 1a36 803c 1f1b 453b
000000e0: 45f5 7a3c 8064 8c3d 88dc 83bd 89cc 2a3d
000000f0: bd20 383b 5f11 bd3c 234e 08bd 1abb 88bd
00000100: c3ed 1f3d f427 3ebc 24bb a33d 25a9 173c
00000110: 51ea 92bd aeb3 433b 92ee 95bc b362 6cbd
00000120: 8487 f9bc 6ef8 8abc cdcd a5bc 2083 203d
00000130: 0086 9bbc b6ec 133d c818 85bc 546b 233d
00000140: a7b3 823d d5ec 343d 0269 50bd b3bf b63c
00000150: ecc1 fabc 4b12 d0bc 6879 893d 9e26 b7bd
00000160: 7297 4ebd a87a 5f3d 78a1 773d 0b8a bbbc
00000170: ac43 d8bc 56c6 673d 12a2 5a3d a4ef 883c
00000180: 205b 6d3a 03a5 b6bb a85b a5bd ef03 083d
00000190: 4c4b 823d 5785 dc3c ab85 debc 868c 03bd
000001a0: ccd2 383d da98 243d 9c70 533d 3bc2 dfbc
000001b0: 19b0 ebbc aab6 3c3d b1b4 72bd 6832 0b3d
000001c0: 2411 6cbd 586c 833d 9ea8 163d d56d ae3d
000001d0: 1991 f63c 5009 afbb 6ed2 9b3d 2561 98bc
000001e0: 47b6 9bbc c4e3 503d d26b 12bc 621c a93c
000001f0: 00c9 d9bb 72eb d23c ff32 393d b1c5 513d
0.04401171 0.0028011017 -0.023931019 -0.026249368 0.061965674 0.05885901 -0.075604886 -0.03692859
0.018484753 -0.017709209 -0.07785004 0.005546894 -0.019935101 0.008679963 0.024786975 0.034044955
-0.005182221 0.04055276 0.06750633 -0.03761593 -0.017178752 -0.04997343 -0.058617447 0.042670324
0.015575373 -0.064068854 0.04729301 0.066954784 0.040388994 -0.008511036 0.033605058 0.07605782
0.028292893 0.005095707 -0.011062202 0.025654474 -0.01278851 0.029016204 -0.0043616705 0.03459463
0.056032766 -0.024937898 0.0002451386 0.037004694 0.049324304 0.04536107 0.04104561 -0.007823326
0.009811161 0.05657311 -0.06750727 0.03290907 0.02181472 0.013792705 0.015650798 0.003007598
0.015317266 0.06855106 -0.064385474 0.041698966 0.0028095685 0.023079572 -0.033277642 -0.06676312
0.039045107 -0.011606205 0.079946786 0.009256636 -0.071735986 0.0029861736 -0.018302236 -0.057711314
-0.030460127 -0.016964164 -0.020239735 0.03918755 -0.018984795 0.036114417 -0.016247168 0.039897278
0.06381922 0.044171173 -0.050881393 0.022308206 -0.030610047 -0.025399348 0.067126095 -0.089429125
-0.0504374 0.054560333 0.060456723 -0.022892972 -0.026399456 0.056585632 0.05337722 0.016715832
0.0009054411 -0.00557387 -0.08074123 0.033206876 0.06362018 0.02691905 -0.027163347 -0.032116435
0.045122907 0.040184833 0.051621065 -0.027314296 -0.028770493 0.04607264 -0.059254352 0.033983618
-0.057633534 0.06417149 0.0367819 0.085170425 0.030098485 -0.0053416863 0.07608496 -0.01860101
-0.019007815 0.050998464 -0.008936839 0.020643417 -0.0066462755 0.025747035 0.04521465 0.051213924

linear1.weight f4 [256, 128]
00000000: bd6d 8bbb 4a2d 9dbc 69af 2b3c 159c aebd
00000010: 6d83 eb39 85ad b43d e4d5 a2bd 8c84 a3bd
00000020: 9156 9d3b b0e4 c7bd 0ed5 7f3c 976f 673c
00000030: e387 333d f769 0fbc 9579 053d a6f2 483d
00000040: 2b06 40bd f258 03bc 235f 7abd 622c 923c
00000050: f4d3 8e3d 1873 48bd d5ed d33d 8a93 93bd
00000060: 2fca 933d 9621 99bc 286d 7c3d a110 73bd
00000070: a0df 973d b5cb 2d3d 0a9a 30bc 9f94 9b3d
00000080: 6d69 cfbd 4a44 c3bd 1bd9 863c fa33 4b3d
00000090: 26b4 47bd a65d a03d 83ac 2abb f505 36bd
000000a0: 38d9 1dbd 8416 a33d caf1 c83d 4be2 da3c
000000b0: bb3f c63d 7f85 d7bd 1a52 063c 853d c9bd
000000c0: 2746 74bd 04f9 febc 98e4 40bd 1a11 0d3c
000000d0: 2703 b7bc 8762 03bc c034 ef3c 18e8 a1bd
000000e0: d52c 97bd 43ca 01bd 6cbe 98bd 6d3a d8bc
000000f0: f375 043d c691 60bd 951c 0c3d b893 b73d
00000100: 3c89 b23d ae08 de3b 21e6 b03c 0097 c2bd
00000110: 4ced 593d 8dcb cbbc aa7f fdbc 9a48 c0bb
00000120: 08d8 81bd d4d1 2fbd 4bac d9bd 044c 13bd
00000130: 7c59 093d 5631 dfbd 12f2 5ebd 9c06 0d3d
00000140: 651f 1fbb 432b 1d3d 0a43 f4bb 6bea f33c
00000150: 2777 a6bd 2032 92bd b0a3 65bd fba9 4bbd
00000160: f283 07bd d889 173d 6eaf c3bd 4e82 573d
00000170: 7807 9a3d f894 d13c 43cd 823d 0c16 983d
00000180: 20ba 26bd 175a b6bd 9db3 7ebd 2abe bd3c
00000190: 1866 883d 5329 ea3c d952 2d3d 10f4 ca3d
000001a0: 3cf7 9ebc 37e5 5c3c 5a94 c03d 7dc6 d63c
000001b0: b67f c43a 7b28 8e3b 070c 273d a144 2ebc
000001c0: be1b b9bd cd50 26bd 1bca 523d 32b5 613d
000001d0: 5bca d93b ebfb 383d 211c ac3c 8298 89bd
000001e0: ce34 81bd 72ef 4d3d ad74 013d 0d93 ae3d
000001f0: 5919 483d 7f32 703d 74c2 6cbd 6e82 603d
00000200: 1ca1 4bba bf9a 843c 55ae 21ba 0e7c 3e3d
00000210: 35fb a5bd faea 3d3d b02f 96bd c23d 89bd
00000220: 8c2b 1dbd 41c8 543d 2281 09bd 2268 853d
00000230: 48c3 823c 4f9e 803d b7fc b6bc 0ff3 813d
00000240: b1f6 193b 4ad1 4fbd 7596 5a3c 753a d53c
00000250: 2a57 86bd c86c cf3a a7f6 ae3d d9ca 3bbc
00000260: 667c 573d 3a5a 3e3d a6fd 883d 3add 943b
00000270: 6292 86bd 3b36 01bd a1cd 10bd 655e ffbc
00000280: d51c 05bd c536 67bd 729b eabc 11e7 46bd
00000290: 1454 aebd 2fb7 bcbc 91a8 46bb 2a23 683d
000002a0: 070c e33b fd6c 033c 2a41 023d 69e1 973c
000002b0: 55b5 4d3d c925 70bd 6c29 bcbb 3e35 233c
000002c0: 5dbb 1bbd 16f4 d83c cd8f 4b3c 55e5 57bd
000002d0: d9c8 593c a144 b53d 1330 3e3d 2377 a53d
000002e0: e25d b33c bed6 ecbc 2e6f 6cbd 1d97 2a3d
000002f0: 5abe 483d f6a9 87bd 0b9a a03c f9fc 9c3c
00000300: 4198 afbb 9bff c9bc bb0c 823d 64bd 59bd
00000310: 3196 143d 7db5 cc3b 29a8 98bc 54f8 893d
00000320: fed6 9f3d 00fc a0bc 0fa2 c5bd 38c1 af3d
00000330: cea5 c9bd e430 a93d ea57 d33d 651c 99bd
00000340: 9fce 5cbd cd5b 1c3d 13bc a0bc 789e 553d
00000350: b16f 8f3c a7a9 61bd 7b8d 263d 304d 03bd
00000360: a7fb 223c 3986 db3a c9c8 6f3d f645 343d
00000370: ed2b 5fbd 479a 853d 1619 3c3d 17e3 28bd
00000380: e556 08bc e453 8b3d 97d9 303d bc47 55bc
00000390: 6900 26bd eecc b73d 485c 103d 2547 97bc
000003a0: 2f57 b43c aa7b 29bd e232 d43c eddb 1d3d
000003b0: 8c53 b33c a0e6 133d 5681 bbbd 63ba 7dbd
000003c0: c099 b2bd afe3 89bb c013 7d3d 5c6c 26bd
000003d0: c719 ba3d 0220 3ebc 67f9 adbd 9f9f a23d
000003e0: 2346 16bd 8fce 9ebc c76e 613c 5024 8e3d
000003f0: 94dd 9b3d e24c 913d a4bb 1e3d 3023 95bd
-0.004255025 -0.019186635 0.010478833 -0.08525864 0.00044920613 0.08822159 -0.07950953 -0.07984266
0.0048015793 -0.097604156 0.015614761 0.014125726 0.043830764 -0.008753291 0.032586653 0.049059533
-0.046880882 -0.008016812 -0.061125886 0.017843429 0.069740206 -0.048937887 0.10348097 -0.07205875
0.07216298 -0.018692773 0.061627537 -0.05934203 0.074157 0.0424306 -0.010778913 0.075967066
-0.1012753 -0.095345095 0.016460946 0.049610116 -0.048755787 0.07830362 -0.0026042766 -0.044439275
-0.038537234 0.07963279 0.098117426 0.026719233 0.09680124 -0.10523509 0.0081982855 -0.09826187
-0.059637215 -0.0311246 -0.047093004 0.008610034 -0.02234037 -0.008019096 0.029199958 -0.079055965
-0.07381598 -0.031687032 -0.07458195 -0.026395047 0.032339048 -0.05482652 0.034206945 0.08963722
0.08717582 0.006775937 0.021594109 -0.09501457 0.05320482 -0.024877334 -0.030944664 -0.00586803
-0.06340033 -0.042924717 -0.106285654 -0.035961166 0.033532605 -0.10898082 -0.054430075 0.03443013
-0.0024280187 0.038371336 -0.0074542807 0.029774865 -0.08128195 -0.07138467 -0.056064308 -0.049722653
-0.033084817 0.036996692 -0.09554945 0.052614503 0.07520956 0.02558373 0.06386807 0.0742608
-0.040704846 -0.08903902 -0.06218301 0.023161966 0.06660098 0.028584158 0.042315338 0.099098325
-0.019405 0.013482383 0.09403296 0.026217693 0.0014991674 0.0043383217 0.040782955 -0.01063648
-0.090384945 -0.0406044 0.051462274 0.055104442 0.006646437 0.045162123 0.021009507 -0.06718542
-0.063089 0.05027718 0.03160541 0.085241415 0.0488523 0.058641907 -0.057802632 0.054811887
-0.00077678426 0.01618707 -0.000616764 0.046505027 -0.081045546 0.04636667 -0.073333144 -0.067012325
-0.038371608 0.05194879 -0.033570416 0.065140024 0.015962258 0.06280195 -0.0223373 0.06345188
0.0023492987 -0.050736703 0.013341536 0.026028851 -0.06559594 0.0015825266 0.08543139 -0.011461937
0.05260887 0.046472766 0.066890046 0.004542974 -0.06570889 -0.03154586 -0.035352353 -0.03117294
-0.0324982 -0.056448717 -0.028638575 -0.048560206 -0.085121304 -0.023036567 -0.0030312876 0.05667416
0.006928924 0.00802159 0.031800427 0.018540101 0.05022176 -0.058629785 -0.0057422426 0.009961424
-0.03802048 0.026483577 0.0124244215 -0.052708942 0.013292515 0.088509806 0.046432566 0.08079364
0.021895353 -0.02891099 -0.057723217 0.04164802 0.04900966 -0.06624214 0.019604703 0.019163596
-0.0053587263 -0.024658015 0.063500844 -0.053159133 0.036276046 0.006247221 -0.018634873 0.06736818
0.078046784 -0.019651413 -0.09650051 0.085817754 -0.09846078 0.08261278 0.10319503 -0.07476119
-0.053907987 0.038173486 -0.01962093 0.05215308 0.017509313 -0.055093434 0.04066227 -0.032056034
0.009947694 0.0016748375 0.058541093 0.044012032 -0.05448525 0.06523567 0.04592236 -0.041232195
-0.0083214985 0.0680311 0.04317626 -0.013017591 -0.040527735 0.08974634 0.035244256 -0.018466542
0.022014229 -0.0413777 0.025903169 0.038539816 0.021890424 0.036108613 -0.09155528 -0.06194533
-0.08720732 -0.00420805 0.061786413 -0.040630683 0.09086948 -0.011604311 -0.08494835 0.079406016
-0.03668798 -0.019385604 0.0137593215 0.0694052 0.07610622 0.07094742 0.038753167 -0.07282102

linear1.bias f4 [256]
00000000: 73d3 363d 9759 f33c d485 5c3d aeb6 2e3d
00000010: 4bda a8bd 52ba ed3b 5ab6 913d 6333 643d
00000020: 6001 0c3d d5cd 753d 7564 a83d 9310 28bd
00000030: 8c03 4d3b b725 9c3c 6e79 84bc 6266 ac3d
00000040: d251 653d b45c 8ebc 134e b43d 82de 1cbd
00000050: e6c7 a5bd c986 a2bc 355d 99ba 9d46 2f3d
00000060: 31f6 c63d 4644 5a3d 2daa af3d e5d0 e33c
00000070: 24d6 35bb 38d4 8a3d a8af c23c ba17 263d
00000080: c5be 91bd e9ce a9bd 1f75 85bc 46f4 a53c
00000090: 92b7 813d 9008 f03c 8d82 a1bd 472a 493b
000000a0: cee9 473c bb83 d23c 7885 de3d 8fd2 9e3d
000000b0: 00ef e73b 97d9 883c c9ae e33c 9b23 8d3d
000000c0: 5693 4b3d 9619 2fbc 4554 a3bc 0d01 00bd
000000d0: 2bfd 2dbd 1a75 553d b464 38bd c985 8ebd
000000e0: 3cb5 38bd 3adb 8bbc 4ca9 08bc 4a96 b4bb
000000f0: 7fe1 a63d 2d28 713d 4c20 a03c 1d53 74bd
00000100: 6a64 0e3d 549b 643d f980 d33d 2ca3 c2bc
00000110: 4398 113d 7c44 f0bc 2340 203c 913c 9d3d
00000120: 9f7f 47bd 9d52 413d cda3 a73c 2b6c a7bd
00000130: daa0 3b3d c67e 5a3d e632 abbc 694b 95bd
00000140: 0dce 143d a24e 8b3d 77a6 703d 0aee 5a3d
00000150: 3b51 ca3c 49c2 643d 9799 3e3c e009 d83b
00000160: ea54 d23d d377 c9bd a2f1 713d fc1d 6d3d
00000170: e072 a13b b201 64bd 0d84 593d eadb ce3c
00000180: 41fe b13d b900 34bd bdb6 af3d 033e fd3c
00000190: 8edb 7d3d bcee ff3c 2246 443d 2c64 10bd
000001a0: 7570 bcbd 78b9 e63c 7701 d6bc 7cc6 893d
000001b0: 01d5 85bd 3c35 653d bf13 babc eb52 3cba
000001c0: 2da9 e5bc 7533 4abd 3ce1 ca3c abfd 083d
000001d0: 1e44 afbd 02f9 6a3d 1d0a 653d efa8 303d
000001e0: ae93 04bd 5a32 8d39 a2eb a83b de2e 073d
000001f0: bb7b b03d 8fb3 cbbd f7b3 43bd 6205 943d
00000200: 77ae 1dbd c727 753d 5593 fc3c 93e3 653d
00000210: 2b62 4d3d 270c ddbc 6f9f 463d 12ea fbbb
00000220: a64e 113d b5b8 6ebc 5864 cd3d 0d0a 813d
00000230: 3b6e 02bc 1741 dbbc 34fb 3dbd f3c4 53bd
00000240: a816 4c3d 1783 3f3d 4322 a63d 46a4 8abd
00000250: d2f0 52bd 79d1 103d 7070 08bc 7493 133d
00000260: ebea e53c 9198 83bb e9ed 11bd 3649 4a3d
00000270: 21f2 3a3d 4318 db3c 96f0 9f3b 20f1 1fbd
00000280: da21 0abc ba94 2b3d 1198 2c3c be1b e3bc
00000290: 8d6a 913d 08ae 933d 0eb8 bcbd 8a89 0b3a
000002a0: 0baa b83d 464b f03c 89e6 18bd 753b f9bc
000002b0: 40bf d33c 96e5 39bd 6408 9dbb eca0 acbb
000002c0: f498 4d3d daa7 b0bd d3a0 3c3d cb9b 4a3d
000002d0: 0d03 993c 6662 e33c 78d9 f7bb 76f1 e93d
000002e0: 74d3 09bc 918c 123b 8d82 60bd 2d20 8cbd
000002f0: 772c af3d 2121 1abc 289e aab9 2bdd 1f3d
00000300: 8d73 663d 9917 c03d 5ab6 da3c 7f59 83bd
00000310: ab52 16bb f882 0fbd 20c3 b73c 277f 8c3d
00000320: 7a60 c83d c12a 993c ff07 c23c 826a 4fbd
00000330: 629c 80bd 3ffe a13d a23d 82bd 9b22 41bd
00000340: 979f c63c b1db ff3c 8498 97bd 02dc 2a3c
00000350: b8b3 44bc 2321 643d 35f1 d5bc 3f21 233c
00000360: 961d a73d f18f 853b fcd8 5b3d b7f4 1abd
00000370: 6e3f dd3d 23f3 a43d 1235 953c 6c12 b4bc
00000380: 3c20 58bd 639c 1e3d 62ec 9cbd 8037 ed3c
00000390: 80d9 5ebc b985 41bd bce6 12bc 3910 8bbd
000003a0: 417c f33c fbea 7d3c 0dba 223d f60b b23c
000003b0: a66c 093c fed3 593c 2abd 9abc d1be 14bc
000003c0: d280 ba3d cb5f 0dbc c4ca cdbd dfd3 4dbd
000003d0: 0455 da3c a4c5 a23c 14d5 af3c 9331 c7bb
000003e0: 1059 67bd 3325 8b3d c8e2 0dbc c4b4 0fbc
000003f0: 15fa 533d 957c 26bd b015 c0bc bb2a 57bc
0.044635247 0.029705806 0.053838566 0.042654686 -0.08244761 0.007254877 0.07114859 0.05571307
0.034181 0.06001075 0.08222286 -0.04103143 0.0031282632 0.019060953 -0.016171183 0.084179655
0.055986233 -0.017378189 0.08803954 -0.038298137 -0.08094768 -0.019839661 -0.0011700751 0.04279195
0.09714926 0.053287767 0.0857738 0.02780957 -0.0027746046 0.06778759 0.0237654 0.04054997
-0.071164645 -0.08291418 -0.0162912 0.02025808 0.063338414 0.029300958 -0.07886229 0.0030695365
0.0122017395 0.02569758 0.10865301 0.077550046 0.0070780516 0.016705317 0.027793305 0.06891557
0.049701057 -0.0106872525 -0.019937644 -0.031251002 -0.042477768 0.05211363 -0.045017913 -0.06959111
-0.045094714 -0.017072309 -0.008341145 -0.00551108 0.08148479 0.058876205 0.01954665 -0.059649576
0.03476373 0.055812195 0.10327334 -0.023759447 0.0355456 -0.02932953 0.009780916 0.07677568
-0.048705693 0.047197927 0.020463848 -0.08174928 0.045807697 0.053343557 -0.020898294 -0.07289774
0.036329318 0.068021074 0.058752503 0.053449668 0.024696937 0.055849347 0.011633298 0.006592974
0.10270102 -0.09837308 0.05906833 0.057889923 0.0049270242 -0.05566568 0.05310445 0.025251348
0.08691073 -0.043946 0.085797764 0.030913359 0.06197696 0.031241767 0.047918446 -0.03525178
-0.09201137 0.02816461 -0.026123745 0.06727311 -0.06534768 0.05595897 -0.022714494 -0.00071839866
-0.02803477 -0.04936548 0.024765603 0.03344504 -0.08557914 0.05736638 0.055917848 0.043129858
-0.0323674 0.0002693113 0.0051550427 0.03300368 0.0861735 -0.099463575 -0.04777905 0.07227589
-0.03849646 0.059852388 0.030831972 0.056125235 0.05014245 -0.026983334 0.04849189 -0.0076878155
0.035475396 -0.014570405 0.10028905 0.06300745 -0.007960851 -0.026764436 -0.046382144 -0.051701497
0.049826294 0.046755876 0.08112004 -0.06769614 -0.051499195 0.03535602 -0.008327588 0.036029294
0.02806612 -0.00401599 -0.03562728 0.049386226 0.04564107 0.026744967 0.004880975 -0.039048314
-0.008430922 0.041889884 0.010534302 -0.02772319 0.07100401 0.07210928 -0.09214793 0.0005322924
0.09016808 0.029332768 -0.03732923 -0.03042386 0.025848031 -0.045384966 -0.00479226 -0.005268207
0.050194696 -0.08625765 0.04605181 0.049464982 0.018678213 0.027756881 -0.007563766 0.11423008
-0.008412231 0.0022361616 -0.054812003 -0.068420745 0.08553403 -0.009407313 -0.00032542762 0.03902928
0.05626254 0.09379501 0.02669828 -0.064135544 -0.0022937458 -0.03503701 0.02243191 0.0686019
0.097840264 0.018697144 0.023685453 -0.050638683 -0.06279828 0.07909822 -0.06359412 -0.047152143
0.02424602 0.031232687 -0.07402137 0.0104284305 -0.012005739 0.055695664 -0.026115993 0.009956657
0.0815994 0.004075997 0.05367373 -0.037831035 0.10803114 0.08054187 0.018213782 -0.02198144
-0.052765116 0.03872336 -0.07662274 0.028957129 -0.013601661 -0.04724667 -0.008966144 -0.067902036
0.029722335 0.015497918 0.039728213 0.021734219 0.00838772 0.013295172 -0.018889029 -0.009078697
0.09106602 -0.008628796 -0.1004844 -0.050250884 0.026651867 0.019869633 0.021463908 -0.0060789078
-0.05648142 0.067942046 -0.008660026 -0.008771125 0.05175217 -0.040646154 -0.023447841 -0.013132746

linear2.weight f4 [512, 256]
00000000: ff97 41bd 08ec eebc ab56 373c 97cb 32bd
00000010: 287f d73c a533 11bd 907c 9dbc 4369 54bd
00000020: 3e69 663c f21a 1dbc 386c 91bd 311d 0cbd
00000030: 1dc9 82bc c763 f03c fd69 7e3c 4c60 7c3a
00000040: 3623 1abc a88e 8ebb 0f46 4f3c e330 dabc
00000050: 9ed8 70bc ffe4 03bd 812a a63c 76ec 083d
00000060: 2cd7 443c 7dd8 4a3d fd11 b53b 591e 85bd
00000070: aa7d 3b3d a0d8 4a3b d45c a0bd be57 9bbd
00000080: bc6e 213d 9c66 773d 8841 533c eb33 2a3d
00000090: a115 723c 2573 49bc 2020 84bc c818 4ebd
000000a0: d36a 64bd 4bbf af3a 689b 823d 0159 2c3d
000000b0: 2bae 03bd 427d bd3c c5d5 5cbc ebd6 9abc
000000c0: e2fa 9bbd c99b 94bd 680b 23b8 1bb5 6cbc
000000d0: 04ff 8cbd 58a7 7d3d eefb b03d 41fb 873b
000000e0: 0d49 99bd 526d 05bd 3a9a 213c 97ec 80bc
000000f0: 5519 cf3c cb71 aabd f76f 073c 5933 49bd
00000100: 9564 52bc 1407 813a 171d 933a 992a 31bd
00000110: 1958 0e3d 9522 313d 4cb9 663d 435e 133c
00000120: 0a62 a0bb 0e2c 903d 0b2e e63b b08b 8b3d
00000130: 4b31 273d 9625 a93d 85d9 c9bc 0b57 a93c
00000140: 2fdc 953d ebec 343d ea21 703d 1d18 d5bc
00000150: 4ab9 cfbc eb2a 5a3d bba1 19bc 7818 28bd
00000160: e6f3 8abc 3d41 9cbd e914 94bc 5204 b43c
00000170: fa69 3abd 4f66 563d 7f34 f93c cb1d 243c
00000180: c2d0 22bd 6e8f 853c b428 66bd f5a7 ec3c
00000190: 1a62 4bbd a4d1 0039 0218 37bd 7cae 16bc
000001a0: 361b c2bc bed0 a93d 469f 123d 96d7 8cbc
000001b0: e2b6 c53c 1279 663d 616f 59bc 1973 733c
000001c0: a030 3f3d ba8b 0b3d d8ef 0ebd f8b2 febc
000001d0: 843d 82bd 7912 a5bd f65b a23d fba3 f2bb
000001e0: d8ab 9f3c 2234 e4bc 3631 11bd ac45 643d
000001f0: 046f 1ebd 07d8 74bd 5a20 953c 703d e43b
00000200: 194b 7b3b f882 b33d 6d43 873c afb1 533c
00000210: c235 fbbc 1050 bcbc c60c fcbb 2e75 b9bc
00000220: 68f1 99bc b4ae 633d 14be a1bd 9456 8abd
00000230: fb9d 153c 5a65 2ebd f56f 36bd 05ec 9f3c
00000240: 35bc 243c 9522 9dbd 0efe 85bc ae3b 943d
00000250: 9b3b 92bd 073e 673d c457 d8bc d3c7 94bd
00000260: c249 bebb 95ce 5e3d cd2b 9a3d 964b 933c
00000270: 69bb b73a 6405 97bc 86af 8c3d 9e99 df3c
00000280: 89ba 913d c89f cabb 7a72 5bbd d4cc 063c
00000290: 8c50 1d3d 7448 b73d de05 d739 aba1 073d
000002a0: 9331 3a3c c26e 0c3d 8a62 febc 96f7 93bc
000002b0: dd30 aabc 5fe4 943d 01f4 00bd f006 a53b
000002c0: e7b8 bebc e0ee b0bd 087f 9a3c bd7e 97bc
000002d0: 9857 43bc e183 45bc ec47 3ebc 2738 a53d
000002e0: b0d0 92bd 7222 d3bc d754 fbbc 7a5b 2fbd
000002f0: 83a0 6f3d 7be5 403d a3a5 3e3d 856d 7a3c
00000300: 5f25 2c3d 75b1 f4bc 3b84 b13b dce6 9d3d
00000310: 4624 3ebb b15b c13b 23f6 a63c d4bc 443d
00000320: 9db6 823d 3661 4a3d f085 493d 7f08 f9ba
00000330: 2d22 4f3c 3541 c1bc 9334 a53c 9053 1c3d
00000340: f662 6bbd 67b2 5d3d a705 aebc b66f 0a3d
00000350: 3893 aab9 2255 84bd dcba 15bc 3630 e83c
00000360: 26c9 b13d e21c 593c 1f25 22bd 2ba0 51bd
00000370: 6ad6 43bd bf63 663d cd39 b53d c972 123d
00000380: 902d d1bc 6baf 543d 54d2 333c 876b a0bd
00000390: c1f9 32bc 3403 9b3d b1a6 a4bc abc1 d2bc
000003a0: 3558 1d3d 7704 8c3d 39ed 043d 0cda ec3a
000003b0: 1018 bc3c 40b9 39bc 718a 22bd a82b 3cbd
000003c0: d3e2 1f3d ab01 593d 6871 f53c 7f25 abbd
000003d0: 1bd8 cd3c b20a 3ebb 72f4 b13d 2b38 2d3c
000003e0: f919 ba3c ed9c 043a f6a7 87bd bf78 d1ba
000003f0: eb17 793d bf15 18bd 2cba 6f3c a792 1fbd
-0.047264095 -0.029165283 0.011190097 -0.04365119 0.02630575 -0.035449643 -0.019224435 -0.051858198
0.014063178 -0.009588944 -0.07100719 -0.034207527 -0.015965039 0.029344453 0.015528199 0.00096273865
-0.009407809 -0.004350502 0.012650981 -0.02663464 -0.014700083 -0.03220081 0.02028394 0.03342863
0.012014192 0.049522866 0.005525826 -0.06499929 0.04577414 0.0030951872 -0.078302056 -0.07585095
0.039412245 0.06040059 0.012894042 0.04155342 0.014775665 -0.012295519 -0.0161286 -0.050316602
-0.055765938 0.001340845 0.06377298 0.04207707 -0.03214852 0.023131017 -0.013478701 -0.018901309
-0.076162115 -0.07256276 -3.887285e-05 -0.014447476 -0.06884578 0.06192717 0.08641802 0.004149825
-0.074846365 -0.03257496 0.009863431 -0.015737815 0.025280634 -0.083224855 0.008266441 -0.049121235
-0.012841363 0.0009844028 0.0011223879 -0.043253515 0.034751985 0.04324587 0.056329057 0.008994642
-0.0048944997 0.07039653 0.0070245317 0.06813753 0.040818494 0.08259122 -0.024639854 0.020671388
0.07317387 0.044171255 0.058626093 -0.026012475 -0.025356907 0.053263586 -0.009376938 -0.04103896
-0.016962003 -0.07629631 -0.018076377 0.021974716 -0.045511223 0.052343663 0.03042054 0.010016869
-0.03974987 0.016303744 -0.05619116 0.028888682 -0.049654104 0.00012285128 -0.04470063 -0.009196874
-0.023694616 0.082917675 0.035796426 -0.017192643 0.024135057 0.056267805 -0.013271184 0.014858984
0.04667723 0.0340688 -0.0348967 -0.031091198 -0.063593894 -0.08060164 0.079276964 -0.007404802
0.019491121 -0.02785689 -0.03544732 0.055730507 -0.03868009 -0.059776332 0.018203903 0.0069653317
0.0038344322 0.08765215 0.016511643 0.012920781 -0.030665282 -0.022987396 -0.0076919524 -0.022638883
-0.01879187 0.05558653 -0.07897583 -0.06754795 0.009131904 -0.042577125 -0.044540364 0.019521723
0.010054638 -0.076726116 -0.016356494 0.072379455 -0.07140275 0.05645564 -0.026409037 -0.07264676
-0.0058071325 0.05439623 0.075278856 0.017980378 0.0014017645 -0.018435188 0.06869416 0.02729493
0.07115657 -0.006183598 -0.05357597 0.008227546 0.038406894 0.08949366 0.00041012367 0.033113163
0.0113643585 0.034285314 -0.031052846 -0.018062394 -0.020775253 0.07270121 -0.0314827 0.0050362274
-0.023281528 -0.08639312 0.018859401 -0.01849305 -0.011922739 -0.012055368 -0.011613827 0.08067351
-0.0716871 -0.02577326 -0.030680103 -0.04281185 0.058502685 0.04709385 0.046544682 0.015284901
0.042027827 -0.029869774 0.0054173744 0.077100486 -0.002901332 0.005900823 0.020381039 0.048031643
0.06382487 0.049409114 0.0492 -0.0018999724 0.0126424255 -0.023590663 0.02016667 0.03816563
-0.057467423 0.054125216 -0.02124293 0.033797942 -0.00032534613 -0.0646155 -0.009138789 0.028343301
0.08680944 0.013251515 -0.039586183 -0.05117814 -0.047811903 0.05624747 0.08848915 0.035754
-0.025534421 0.051925104 0.010975439 -0.07833009 -0.010923804 0.0756897 -0.020099016 -0.025727114
0.0384142 0.06836789 0.032452796 0.0018070354 0.022960693 -0.011335671 -0.03968281 -0.04594007
0.039034676 0.052980106 0.029961303 -0.08356761 0.025127461 -0.0028998074 0.08689202 0.0105724735
0.022717463 0.0005058784 -0.06623833 -0.001598142 0.060813826 -0.037130114 0.014631789 -0.038958218

linear2.bias f4 [512]
00000000: 36dd ac3c be82 aabb 0ba1 8bbc cc25 31bd
00000010: 9a8c 1d3d 8a40 17bd e44a 42bd 211a 73b9
00000020: 3ed0 0c3d 7c57 3bbc 18c5 ad3c 80f1 5ebd
00000030: d134 d53b a507 e03c 4cc0 9dbc ddc8 223d
00000040: b346 80bb b6c6 0cbd a1b1 32b9 9c2d 0ebd
00000050: ac9d a1bc 66e7 7cbd f8a4 3cbd c88a 64bc
00000060: 58a4 76bd 9522 20bd dad3 393d cf90 4f3d
00000070: 7648 6f3d e8a3 c33c ac43 df3c 00a4 db38
00000080: 5ccc 6a3d 73e4 26bd ac0e 6abd c3bb 203d
00000090: 620d 353d c074 06bd a02c e5bc 13c7 363d
000000a0: 224f 19bc 5f0b 273d 41f0 723d 8feb 893d
000000b0: e16b 153c 054a 453d 7428 ffbc e591 edba
000000c0: 12ac 0abc 976d 253b 7893 36bd ef6c b63c
000000d0: 3b70 d93c 2669 de3c f679 40bd 9b1a c43c
000000e0: 3686 453d 1ccb 183c 6b53 2b3c 5e0f 6abd
000000f0: 9818 583d aee4 42bd e88b 3a3d 4365 543d
00000100: 34e2 18bd bb24 523d 0726 343d 3e76 1cbd
00000110: f20f c0bb 486d 5ebd 9c53 213d 73ad a33c
00000120: 666b 46bd e5c1 ad39 61fd cb3b 0a52 1bbd
00000130: 54c1 febc 0091 3d3c e955 7f3d 6375 683d
00000140: 3ef7 76bd af3e 853d f5c0 8c3d 157d c63c
00000150: 21ff 083d 8b85 4e3c 01ae c03b 1d7a 243d
00000160: 6ab1 3cbd c703 01bb d0a0 8c3b 9247 223c
00000170: 90bb 23bd 9ef1 7ebb d602 fb3c 5a9c 20bb
00000180: 5eda 813d f459 4dbd 9c08 7ebd de57 2bbd
00000190: ff4d 073d 3e84 e13c 645d f839 107f b2bc
000001a0: f400 83bd 70c9 60bd 8e0a 5abd 5c2c f3bc
000001b0: 0ef8 5bbd ec27 1cbd 6bcc 803c 602e 51bb
000001c0: 4379 06bd 88c0 513b f34d 1d3d 7e5c 1dbb
000001d0: b95a ae3c df71 023d d5f7 4c3c d36c 363d
000001e0: b49f 18bd 48ea dfbc 2221 59bd 6165 e63c
000001f0: 7388 b3bb 00f4 0c3d 8c02 5ebd 34b6 f8bc
00000200: 04ee 99bc b867 dabc 45e1 c6bc 34ed 40bd
00000210: 967b e43c 4054 1bbc 119a 413d 26e4 3d3d
00000220: 2e15 ca3c de8b 77bd 6c22 e83c 1c34 d2bc
00000230: d3b1 4a3c 62e8 39bd bc86 143d 9358 193d
00000240: eb84 663d 8000 3bbd 9fdb c6bb 6e2c 09bd
00000250: 1ca2 5dbd a477 0cbd beda a2bc 9b40 61bc
00000260: c8db 243c 0b57 0a3c 1064 17bc 7622 10bd
00000270: 3a0d 1cbd 2761 34bd 1620 31bc 8804 63bd
00000280: 9d90 d2bc 9c1a c03c d600 643d 94f7 28bd
00000290: cc34 68bd c6bc 2fbd 4498 38bd 3c5c ee3c
000002a0: f68a 703b d210 12bd 3847 77bc 71e2 993b
000002b0: 1857 1bbd 2b38 893d a45e 3bbd 627b 23bd
000002c0: 1811 e13b 28aa d8bc f049 0c3c a7d8 6f3d
000002d0: 3213 453d 2e19 c83b 98e7 8e3c 1139 60bd
000002e0: 20e9 d93b 3203 123d 8ceb 2a3d 1a6f 37bd
000002f0: 50a3 d2bc bc8a a1bc 6af8 0bbb cef0 23bd
00000300: d30a 4cba 06cb 873b a98b 8d3d 9047 a03b
00000310: bb36 df3c 0944 ed3b 7a48 4abd b6c6 73bd
00000320: c032 cf3b b040 ffbc f6ac a1bc 0c02 b93c
00000330: 68f0 a23c 89b8 b53c 006c 60ba 2354 433c
00000340: 89d5 203d 2ef1 d2bc 6b6b 813d 041d cd3c
00000350: 5690 55bd 02bd 7d3c 5cd8 66bd 8c73 09bd
00000360: 6a0d 6abd 2c2c 6cbd df83 cc3c 04de 4ebd
00000370: cc3d 22bd 4465 5abd 2c3d 75bd 58e7 a73c
00000380: eb59 9ebb ce3a 55ba 397e 4b3d aa55 1fbc
00000390: 43c3 783d 58e4 133c a94e 5f3d 7919 b73a
000003a0: 01ba 793d 32b9 8b3d c448 643d c842 64bb
000003b0: d650 6c3d 3d81 aeba eead 2c3d 14fd ea3c
000003c0: f4c5 823d dbb7 2b3d 04be 573d 245c cfbc
000003d0: 8070 18bc 00c1 763d 62e4 50bd f8fa 183c
000003e0: b643 23bd 521b 603c 7037 61bd c45e a8bc
000003f0: e9e9 823d 3095 873c 7a21 bc3c 38df 45bd
0.021101575 -0.005203574 -0.017044565 -0.043248937 0.038464166 -0.036926784 -0.047434703 -0.0002318402
0.034378283 -0.011434432 0.021212146 -0.05442953 0.0065065403 0.027347395 -0.019256733 0.03974234
-0.003914678 -0.034369193 -0.00017041575 -0.034711465 -0.019728504 -0.061744116 -0.046055764 -0.013949104
-0.060215324 -0.03909548 0.045368053 0.05067521 0.058418714 0.023881868 0.027253948 0.00010473281
0.0573238 -0.04074521 -0.0571429 0.039241564 0.044202216 -0.032826185 -0.02797538 0.044623446
-0.009357246 0.04078233 0.059311155 0.06734382 0.009119959 0.048166294 -0.03114722 -0.0018125145
-0.008463876 0.0025242323 -0.04457423 0.02226874 0.026542773 0.027149748 -0.04699131 0.023938468
0.048223697 0.009325769 0.0104569 -0.05714356 0.05275783 -0.047581367 0.04554358 0.051854383
-0.0373251 0.05130456 0.04398158 -0.038198702 -0.005861276 -0.054303437 0.039386377 0.019980168
-0.048442267 0.00033141594 0.0062252735 -0.037920035 -0.031098045 0.011570215 0.06233779 0.056752574
-0.060294382 0.065060966 0.06872741 0.024229566 0.033446435 0.012605081 0.005880118 0.04015552
-0.046067633 -0.001968609 0.0042916313 0.009904759 -0.039973795 -0.003890134 0.030641 -0.0024507255
0.06340478 -0.050134614 -0.06201993 -0.041831844 0.033033367 0.027528878 0.00047371828 -0.021789104
-0.06396666 -0.054879606 -0.053232722 -0.029684238 -0.05370336 -0.03812401 0.015722474 -0.003191851
-0.032830488 0.0032005627 0.038404416 -0.0024011428 0.021283494 0.031846877 0.01251026 0.044537377
-0.03726168 -0.027333394 -0.053010114 0.028124513 -0.0054789125 0.034412384 -0.054201648 -0.030360319
-0.018790253 -0.026660785 -0.024277339 -0.047101215 0.027890962 -0.009480536 0.04726607 0.046360157
0.024668302 -0.060436122 0.028336726 -0.025659613 0.012371498 -0.045387633 0.036261305 0.037437987
0.056279104 -0.045654774 -0.0060686613 -0.033489637 -0.054109678 -0.034293786 -0.019879695 -0.013748313
0.010062166 0.008443604 -0.009240165 -0.035189115 -0.03809855 -0.044037964 -0.010810873 -0.055424243
-0.025703723 0.023450188 0.05566486 -0.041251734 -0.056690976 -0.042904638 -0.045067087 0.029096715
0.003670392 -0.035660572 -0.0150926635 0.0046961834 -0.037924856 0.06700166 -0.045744553 -0.03991259
0.006868493 -0.026448324 0.00856255 0.058556225 0.04811401 0.0061065173 0.017444417 -0.054741923
0.006650105 0.03564758 0.04172854 -0.04478369 -0.02571264 -0.019719474 -0.0021357783 -0.04002457
-0.00077835954 0.0041440753 0.06911404 0.0048913434 0.027247777 0.0072407764 -0.049385525 -0.059515677
0.0063231885 -0.031158775 -0.019735795 0.022583984 0.019890025 0.02218272 -0.0008561015 0.011921915
0.039266143 -0.025749769 0.063193165 0.02503825 -0.052139603 0.0154869575 -0.05635868 -0.03355746
-0.0571417 -0.057659313 0.024965225 -0.0505047 -0.039609715 -0.05331923 -0.05987279 0.020496055
-0.0048324964 -0.0008134068 0.049680922 -0.009725014 0.06073309 0.009026609 0.054518376 0.0013969383
0.060968403 0.068224326 0.055733457 -0.0034829844 0.05769428 -0.0013313662 0.04215806 0.02868513
0.06385413 0.041923385 0.052671447 -0.02531249 -0.009304166 0.060242653 -0.050999053 0.009337179
-0.039859496 0.013678389 -0.05498451 -0.020553 0.06392271 0.01655063 0.022965182 -0.04830858
