models/energy_1y_discriminator.pth (torch, 873823 bytes, 11 tensors)

conv1.weight f4 [32, 4, 5]
00000000: b177 a33d d8c7 44be a36b 553e 011c 51be
00000010: e926 353e be65 1a3e 0217 8b3d f7a6 28be
00000020: 1369 d1bd 21fb a33d 848c ff3d 5fcb 563e
00000030: 727f 7b3d 6b15 69bd b321 c2bd f657 d6bd
00000040: 9750 ac3d ce65 093d 941c 5d3d e3ef 4a3e
00000050: 6688 fcbd 88f8 563e 0a4a a7bd bba3 5ebe
00000060: 2bdb d23d 3b64 98ba be49 0a3e 4846 623e
00000070: 82a7 afbd d35e 53be 07ce 19be 3ddb 103e
00000080: b585 46be 61dc 303e 6ca4 82b9 b664 0b3d
00000090: c745 fcbc 5e35 cfbd 5d49 193e c56e 28bd
000000a0: 5625 5e3e 0452 1dbe fc00 0dbe b5af 1ebd
000000b0: 9f30 a1bb f7f2 efbc 56b8 43be ed01 05bd
000000c0: dc42 a9bd 2d8c 57bd fc03 303d 5885 b23d
000000d0: f766 8e3d a2a2 40bd af87 63be e26e c13d
000000e0: 0e4a 5d3d 15a3 f9bd 6a69 4dbd bebf f43c
000000f0: 6a15 c93b 8348 a53d c993 77bd 66e0 f13d
00000100: aaee b3bc 63ac 3b3e 415c 02be 5e13 573e
00000110: 5833 cdbd 1599 0fbe e014 97bd e3d1 10be
00000120: 0121 0c3e 56f1 f93d 5353 a23d 294d 28be
00000130: 504b 5cbe fcdb 5cbe bcc3 133e 74ae 613e
00000140: 3691 523e e253 fd3d ebe4 203e 4383 09be
00000150: 50ed 22be 7ad4 1dbe f767 2abe 9a4f 373d
00000160: 9b37 45be 64e9 9a3c b0af c1bd 90d2 9e3d
00000170: 57e1 8c3d 2051 b6bd 72bf 4c3c c6d1 163e
00000180: 17c9 363e 5176 f0bd 853c b33d 4c82 54be
00000190: 9150 23be 4afc 46be bae9 4d3e a37b 97bd
000001a0: 0623 573c cf71 a53a 79b2 0a3e 69a9 243d
000001b0: de06 3fbe 0009 153e 4119 9abd e977 fcbd
000001c0: ac95 3a3e db12 a2bc addb 2d3e 0437 783c
000001d0: 547a 21bd d07c 213e 0862 e2bd 7316 1b3d
000001e0: 55cb 5c3e daaf 5abe fded 533e 0d35 0ebe
000001f0: 590a 0dbd 62c8 48bd abbc 273d 875d 09be
00000200: 69cf 2c3e fab4 a6bd d8ed 2e3d 8720 343d
00000210: 7246 f23c 78db 153e b991 123e 57dc 57bd
00000220: 905e 77bc 311c 9fbd e6ae 8f3d c004 18bc
00000230: 7a2d b7bd a113 1cbe 2e2a dcbd a789 863c
00000240: 4aba 0bbe 5738 70bd f7aa d83d d7b2 45be
00000250: 257b b3bd 83c0 62be dcb3 ea3d a775 9cbd
00000260: 72e4 343e bed8 013e a13a b1bd b68c 683d
00000270: 6839 ea3d d44e 95bd 8d11 f43d 7a03 293e
00000280: b9c1 12be d760 efbc 505a 49bd 0f1e aebc
00000290: f7ee 5abe ce57 32be af04 213d 8fe2 333e
000002a0: c44a cd3d 60c3 f4bc 2a96 32be 7e38 0b3e
000002b0: b5ef 08be 2e96 0abe b9b7 573b 8e71 b9bd
000002c0: b0e3 d63d 607d febd f97d 28be 3d9e 0ebe
000002d0: 69db 12be b26b 383e 440c 6bbc bce7 3c3e
000002e0: b1fd db3d ea8c 7c3d c52e 33be 0f15 db3c
000002f0: 06b4 373e 9630 4b3e 39e5 dc3d 5292 493e
00000300: 53d0 723d 58ef 0a3b 4c65 aabd d095 443d
00000310: 8623 63bd d1df 6a3e bc44 b23d 075f 50be
00000320: 853c 49be 4109 8a3c 1ea4 2a3e 2ba4 aebc
00000330: a693 2f3b 649d 283d 4e0d 123e cd9e 183e
00000340: 5915 abbd 3be8 433e 8d21 0fbc 1b02 303e
00000350: 4d69 a2bd 13b8 8bbd 2b6c dcbd 705b db3c
00000360: 71be 51be 8d77 42be 83ee 0e3d be4f be3d
00000370: 8885 8f3d 1a6d d33d 45cc 7dbd 11fe c23d
00000380: e4dc adbd c710 533e cef4 dd3d 4341 d6bb
00000390: 3a7e 53be 0c5f b03d a363 18be 1b6c a4bd
000003a0: 5241 9a3d 621f 11be 4ee5 db3d 7d1a 843d
000003b0: 814f 893d 3684 9c3d 2110 ce3d 3150 1c3e
000003c0: 1ad7 603e f4cc 5f3d 95d2 873c d0e8 2e3a
000003d0: cc31 30be 2e90 ea3d 05c6 823d 1276 be3d
000003e0: f451 823d 9056 043e 7498 393e e7b3 143e
000003f0: 40b8 463e 37bd 3f3d 252e 51be f531 0b3e
0.07981814 -0.1921686 0.20841841 -0.20420839 0.17690624 0.15077874 0.06791498 -0.16469942
-0.102251194 0.080068834 0.12477973 0.20976017 0.06140084 -0.05690519 -0.09479084 -0.10465996
0.08413809 0.033544354 0.053982332 0.19818072 -0.123307034 0.20993245 -0.08168419 -0.21742146
0.10295709 -0.0011626551 0.13504693 0.22097123 -0.085768715 -0.20641641 -0.1502 0.14146133
-0.19386943 0.17271568 -0.00024918036 0.034031592 -0.030794991 -0.10117601 0.14969392 -0.041121263
0.2169393 -0.15363318 -0.13769907 -0.038741786 -0.004919126 -0.02929066 -0.19113287 -0.03247254
-0.082647055 -0.052623916 0.04297255 0.087168396 0.06953233 -0.0470301 -0.22219728 0.09444977
0.054025702 -0.121893086 -0.05014936 0.029876586 0.006136586 0.08070471 -0.060443673 0.11810379
-0.02196439 0.18327479 -0.12730505 0.21003482 -0.10019559 -0.1402324 -0.073770285 -0.14142565
0.13684465 0.12204234 0.07926049 -0.16435684 -0.21513104 -0.21568292 0.14430135 0.22039205
0.20563206 0.12369515 0.15712325 -0.13428979 -0.1591084 -0.15413085 -0.16641222 0.04475365
-0.19259493 0.018910117 -0.09457338 0.07755005 0.06878918 -0.08902192 0.012496816 0.1472846
0.17850147 -0.11741317 0.087517776 -0.2075283 -0.15948702 -0.19432178 0.20108691 -0.07396629
0.013130909 0.0012622419 0.13544644 0.040200625 -0.18654963 0.14554214 -0.07524348 -0.123275585
0.18221158 -0.019784382 0.16978331 0.0151498355 -0.0394233 0.15770268 -0.11053854 0.037863206
0.2156194 -0.21356145 0.20696254 -0.13887425 -0.034433696 -0.049019225 0.040951412 -0.13414584
0.16875996 -0.08139987 0.042707294 0.043976333 0.029574607 0.14634502 0.14313401 -0.052700367
-0.015098229 -0.07769049 0.07015781 -0.009278476 -0.08944221 -0.15241863 -0.10750233 0.01642306
-0.13645282 -0.05864748 0.10579484 -0.19306503 -0.08763722 -0.2214375 0.11460087 -0.07639628
0.1766527 0.12680337 -0.08653761 0.056774817 0.114367306 -0.07290426 0.1191741 0.16505232
-0.14331712 -0.029220982 -0.049158394 -0.021254567 -0.2138022 -0.17416307 0.039311107 0.17566894
0.10024026 -0.029878318 -0.17440096 0.13595769 -0.13372691 -0.13533852 0.0032915904 -0.09054862
0.10492647 -0.12426257 -0.16454305 -0.1392755 -0.14341511 0.18009833 -0.014346186 0.18447775
0.10741747 0.061657824 -0.1749831 0.02674344 0.17939767 0.19842753 0.10785908 0.19684723
0.059280705 0.002119979 -0.08320102 0.047994435 -0.0554538 0.22936942 0.08704516 -0.2034875
-0.19651993 0.016850116 0.16664168 -0.021318516 0.0026790886 0.041165724 0.14262888 0.14904328
-0.08353681 0.19131558 -0.0087360265 0.17188303 -0.07930241 -0.06822219 -0.10762819 0.026777
-0.20482804 -0.18990918 0.03489543 0.09292553 0.07007891 0.10323544 -0.061962385 0.095211156
-0.08489397 0.20611869 0.108377084 -0.0065385415 -0.2065362 0.08611879 -0.14881758 -0.08028432
0.0753199 -0.14172128 0.10737096 0.06450365 0.06704617 0.07642405 0.1006167 0.15264966
0.21957055 0.054638818 0.016579906 0.0006672265 -0.17206496 0.11453281 0.063854255 0.09299864
0.063632876 0.12923646 0.18124563 0.14521752 0.19406223 0.04681131 -0.20427759 0.13593276

conv1.bias f4 [32]
00000000: e190 41be 6166 66be 0e2e 5dbd dc40 eabd
00000010: 1825 fc3c 0abf 963d b97b e33d 29af 24bd
00000020: e3d8 0f3e a028 83bd 3394 0b3e 2aca 04be
00000030: 75d6 2ebe 7648 7c3e 0096 db35 14eb d4bd
00000040: bc0e 23bd 009f 2a3e 300e 27be 8806 043e
00000050: a73c 0dbd a5bd 3a3d ff18 4d3e 96d5 8a3c
00000060: de83 0539 afc5 fe3d 0d98 533e 326e 1f3e
00000070: 62ef 0d3e ec2e 9d3c 6d4e 96bd 16b7 36be
-0.18902923 -0.22499992 -0.053999 -0.11438152 0.030779406 0.073606566 0.111075826 -0.04020611
0.1404758 -0.06404233 0.13630752 -0.12967744 -0.17073996 0.24637017 1.6360427e-06 -0.103964
-0.039808974 0.16662216 -0.16314006 0.12893116 -0.03448167 0.045591015 0.20029067 0.016947549
0.00012732993 0.12440049 0.20663472 0.1556938 0.13860849 0.019187413 -0.07339177 -0.17843279

conv2.weight f4 [64, 32, 5]
00000000: 03f2 3ebc 3157 a13d 0ccd 523c 0153 42bd
00000010: 0823 593d a66f a1bb d941 5d3d e61d 7b3d
00000020: 22a1 a03d 3a41 00bd 447b 90bd 8a88 5ebd
00000030: 1a9d 59bd c889 00bd ba20 f4b5 16e5 9bbd
00000040: e107 a03c 2923 e8bd 1959 8dbd 985d 4b3d
00000050: 745a e0bc 3d83 3a3d 4bc2 da3b 09a7 743d
00000060: f5ea 4bbd 24f9 48bd 1ea2 99bd fcaa 183d
00000070: 836d 693d 07ea 84bc 24ea 4abd 1fad 9b3d
00000080: 9cdd 0b3d e2d9 bb3c 4ccf 01bd ff17 23bd
00000090: 6763 44bd 024d aebc 17e8 633d 8268 64bd
000000a0: 4027 17bc 1a2e b33c 5b2d 9abc 58d1 48bd
000000b0: eed7 283d 3280 18bd 5f77 7fbd c1ab 8dbc
000000c0: 82fd b6bc 48e1 413d 4d58 9c3d b0f4 843d
000000d0: 8eb9 143d 6816 753d 55d3 c33c 549c 9cbd
000000e0: 32f7 15bd 243c 4bbc a269 1e3d b6cd d23c
000000f0: fd88 58bd fa0a 863d 9c7e 553d 43fa 003d
00000100: 5539 02bd d2d9 97bc b8c9 7f3d bf0a 0e3d
00000110: 6705 92bc 3e11 92bc 8f98 1fbd a21b 753d
00000120: b10d 36be bc2e 303d 86c6 093d d9a7 d63c
00000130: cb6c 8cbc a891 853d 55f6 f3bc 2ba2 d8bc
00000140: 9a36 453d 24a3 bcba f78d 763d cae4 76bd
00000150: 90d2 72bd 3c83 973d d406 173d a87f 523d
00000160: 4081 96bd e291 4d3d 7141 9e3c 972e 833d
00000170: 9a6d 9ebd 0d08 6cbc 4a8f 21bd 14c6 9c3d
00000180: 9560 2d3d 7a5f 8e3d 5c5b 293d 9db5 873d
00000190: 0351 b4bc 0c0a 87bd 3a9b df3c 3364 723d
000001a0: 469e f5bc e6b9 dabc 0923 65bd 2b76 cdbc
000001b0: 97f9 4cbd c39b 5e3d 40a4 82ba 6bf7 193b
000001c0: 393d 17bc fe39 77bd d52f 8dbd c297 61bd
000001d0: 5168 193d 5271 45bd 6e0e a13d 064f 42bd
000001e0: fee3 163d 36e8 81bc 9ed5 47bc 253e 84bd
000001f0: e983 16bd a855 6bbb 816c a43c a27c e8bb
00000200: 0fb9 6f3a 35f3 88bd 7ace 01ba a1ad a13d
00000210: e561 bcbc e1d4 0f3d 876b 853d 483c 913d
00000220: 226f 5ebb 970f 3abd 8d83 97ba 7c97 97bd
00000230: c0b3 873d 91e9 43bb d1d7 c53d 0952 9fbd
00000240: 5341 bb3c 7c57 f63c b4bd 423c 2d5e 0fbb
00000250: 92e8 fc3c f837 053d bc60 92bc f85a 403d
00000260: 3722 2abd 41a0 0d3d b1c7 88bd 2576 c0bc
00000270: d0b3 41bd 62fd c93d f5fd 0d3d ae37 98bc
00000280: 74d9 d93b 7805 82bd ee4f 423d 01fc 8c3d
00000290: c896 68bd 1fb2 08bc b7b7 ec3c 13db 99bd
000002a0: 77c4 4e3d 64bc 073d e733 733d 3313 873d
000002b0: 7a4a 54bd 3861 1fbd eafc 56bd 5890 9e3d
000002c0: c237 3dbd 1ccf 6bbc e508 503d a6c5 e9bc
000002d0: 29e3 2c3d 2ab9 bd3c 5d3c 50bd 3f25 533c
000002e0: f905 5abd 1f1f 19bc e676 7c3d 180c 71bb
000002f0: 5edb 50bd 1378 953c dd21 e6ba 6087 c33c
00000300: 4f06 6ebd f5fe 1a3c 5654 b83c 8be6 90bc
00000310: 4f32 4cbd d693 60bd 853d dd3c 39ae 78bc
00000320: f587 8fbd aa67 603d 81b5 4abd 4adb 833d
00000330: 9dee 24bd d54a c2bc 36a8 2a3c a2d6 95bd
00000340: f0ca 5ebd 9b19 a13d 140b 393b 13bc 713c
00000350: b62b 1dbc f1d6 c23c 4138 95bd d3a0 403d
00000360: 3100 edbc 59b1 9b3d 3da7 2b3d 9b9f 24bd
00000370: f79d b93b 887c e1ba bccb 993d 9d51 15bd
00000380: db11 7ebd f3e9 a1bb 2557 983c 6732 5abd
00000390: b75d a03d 9556 9dbc 324f 9e3c e7b7 9cbd
000003a0: 9d7d 693d 9b42 09bd d5df 5bbd 5ab1 9e3d
000003b0: 133b 113d fe4c 83bc bb42 0abd 7ec5 983d
000003c0: 2ab5 df3b 8465 84bd 9890 293d 3013 97bd
000003d0: 9725 f1bc ec50 743d c9df 10bd 9885 933d
000003e0: 9bea 283d 20f7 9f3d b285 4ebd 3b91 e83c
000003f0: c7ee 663d 1e25 53bd ba2c 3bbc 4a46 51bd
-0.01165438 0.078779586 0.01286627 -0.04744244 0.053011924 -0.0049266396 0.054017875 0.06130781
0.07843234 -0.031312205 -0.07054761 -0.054329433 -0.05312834 -0.0313814 -1.8188941e-06 -0.07612054
0.019535007 -0.11334831 -0.0690176 0.049649805 -0.027386881 0.045535315 0.0066759936 0.05972961
-0.04978462 -0.049065724 -0.075016245 0.03727244 0.056989204 -0.016224874 -0.0495397 0.076013796
0.03414689 0.022931043 -0.031691834 -0.039817806 -0.04794636 -0.021276955 0.05564126 -0.05576373
-0.0092256665 0.021872569 -0.018820455 -0.04902777 0.04122155 -0.03723163 -0.0623697 -0.017293813
-0.022337679 0.047333986 0.076340295 0.06491983 0.03630977 0.05983582 0.023904482 -0.07647005
-0.036612697 -0.012404475 0.038674958 0.025732856 -0.052865017 0.06545062 0.052122697 0.03148867
-0.031792957 -0.018536482 0.062448233 0.034678217 -0.017824842 -0.017830487 -0.03896385 0.059840806
-0.1777866 0.04301332 0.033636592 0.026203083 -0.01714172 0.06521922 -0.029780546 -0.026444515
0.048147775 -0.0014391881 0.060193982 -0.060276784 -0.05928284 0.07398078 0.036871746 0.051391274
-0.07348871 0.050187953 0.019318314 0.06405371 -0.077357486 -0.014406216 -0.03944329 0.07654968
0.042328436 0.069518045 0.041346893 0.06626437 -0.022011286 -0.06593713 0.027295697 0.05917759
-0.029982697 -0.026699971 -0.055941615 -0.025080761 -0.050042715 0.054347765 -0.0009967163 0.002349342
-0.009230905 -0.06035804 -0.06893889 -0.05507637 0.037453 -0.048203774 0.0786408 -0.047438644
0.036838524 -0.015857797 -0.012196926 -0.06457166 -0.036746893 -0.003590921 0.02007127 -0.0070949355
0.00091447023 -0.06687013 -0.0004951727 0.07894445 -0.022995899 0.035115127 0.0651465 0.07091576
-0.0033940752 -0.045425024 -0.0011559591 -0.0740194 0.066260815 -0.0029893855 0.09660304 -0.07779319
0.022858297 0.030071013 0.011886049 -0.0021876201 0.030872617 0.03252408 -0.017868392 0.046961755
-0.041536536 0.03457666 -0.06678713 -0.023493836 -0.047290623 0.09862782 0.03466602 -0.018581238
0.006648237 -0.06348699 0.04743951 0.068840034 -0.05678442 -0.008343249 0.028896196 -0.07512488
0.050480332 0.033138648 0.05937567 0.06595459 -0.05182884 -0.038911074 -0.05248729 0.07742375
-0.046195753 -0.01439264 0.050789732 -0.028536629 0.042208824 0.023159582 -0.050838817 0.012887298
-0.053228352 -0.009345799 0.061636828 -0.003678089 -0.050990455 0.018245732 -0.00175577 0.023868263
-0.058111485 0.009460201 0.022501152 -0.017688056 -0.049852666 -0.054828487 0.027006874 -0.015178257
-0.070083536 0.05478636 -0.049489502 0.064383104 -0.04026662 -0.023717323 0.010416081 -0.073163286
-0.054392755 0.07866212 0.0028235363 0.014754313 -0.009592941 0.023784133 -0.0728612 0.047028374
-0.028930755 0.07602186 0.041907538 -0.040191274 0.005664583 -0.0017203251 0.075095624 -0.036454786
-0.062028747 -0.004941219 0.018596241 -0.053270724 0.07830375 -0.019206325 0.019324873 -0.07652264
0.05700456 -0.033510786 -0.05368026 0.07748671 0.03545673 -0.016027924 -0.033755045 0.07459544
0.0068270164 -0.06464675 0.04139766 -0.073767066 -0.02943687 0.059647486 -0.03536967 0.07203215
0.041239362 0.07810807 -0.05042047 0.028389564 0.05638006 -0.05154907 -0.011424238 -0.051092423

conv2.bias f4 [64]
00000000: cacb 373d 47df c13c 8607 6d3d e913 823d
00000010: 3645 0c3d 6bc7 873d cea1 573d 5655 8a3d
00000020: bae6 a43d f990 71bd 137a 883d 9c74 983d
00000030: d266 30bc afd5 6d3d 4497 843d eb7d 163d
00000040: aa95 313c d40d 65bd ac06 e7bc 3638 9cbc
00000050: cd54 5dbd fa11 f4bc 80bd a23b 8118 13bd
00000060: 3dbd 8dbd c37c 003d f4ae 29bd b24a 833c
00000070: c050 c13d fba9 b83c 9427 39bd 4fd6 84bd
00000080: d3c8 b2bd df1a 1abb b584 8dbd b5f2 023d
00000090: 9ae5 cd3c 601c a0bb d44a a23c 7724 623d
000000a0: 83d5 793c 3e7b 4abd 6329 133d 7317 9e3b
000000b0: e8b9 24bd bf13 8abc f995 1abd a79e 213d
000000c0: 2330 133d e982 bdbb 768d bd3c 64e3 0bbd
000000d0: d042 c13b d2ee 803c f933 823c f994 513d
000000e0: 7e95 223d 9e0d b2bd 2e9e c4bc 38cc 023d
000000f0: 8102 5a3d 6940 d3bd 71fc 11bd a591 01bb
0.044872083 0.023666037 0.057868503 0.06351454 0.034245692 0.06629833 0.052644543 0.06754558
0.0805182 -0.058976147 0.06663909 0.074441165 -0.010766702 0.058065113 0.06474164 0.03674118
0.010838905 -0.05592139 -0.028201424 -0.019069772 -0.05403595 -0.029793728 0.004966438 -0.03591204
-0.0692086 0.031368982 -0.041426614 0.016026828 0.0943923 0.02254199 -0.04520376 -0.064861886
-0.087297104 -0.0023514552 -0.069100775 0.031969745 0.025133897 -0.004886195 0.019811071 0.055210557
0.015248659 -0.04943394 0.03592814 0.0048245727 -0.040216357 -0.016855119 -0.03774068 0.039457943
0.03593458 -0.005783428 0.023138743 -0.034152403 0.0058978572 0.015738878 0.015893923 0.051167462
0.039693348 -0.086940035 -0.024001207 0.03193304 0.053225044 -0.1031502 -0.035641138 -0.0019770649

conv3.weight f4 [128, 64, 5]
00000000: 3a7e 573c 16a4 4b3d 222d 7e39 ebe6 eeba
00000010: c8df abba 4cd9 1cbc 7da1 5fbb d05f f63c
00000020: fe7e 223d ebca 3dbd 5dff 0c3d 63b5 91bc
00000030: d319 5e3d 0d3d 093d b8a7 463d 81a5 2f3d
00000040: e2be 8ebb df7f 95bd 2b4d 263d c1b7 abba
00000050: 5175 d1bc 66db 5c3c 3988 053d 56e1 17bd
00000060: 915a 10bd f518 103d 1411 283c 0807 bc3c
00000070: c8e2 313c 05a8 cbbc c95d 5c3d 0ab5 d739
00000080: 11f1 13bd db35 12bd edf8 dbbc a178 11bd
00000090: 4942 a13b 5032 393c 8d99 c0bc 7815 cf3c
000000a0: 584c 39bd 13ac 2abd 5bb4 d6bc aa3a 8fbc
000000b0: 2e0b ddbc c57d 9cbc 210b f0bc 8b0f 5cbd
000000c0: b816 0b3d cf64 abbc 58d9 2bbd 6ec2 263d
000000d0: 600a 58bd f7a4 e43c 3678 bbbc a93d 65bc
000000e0: fae0 98bc 620d 143c 07f2 0a3a 0608 21bd
000000f0: 7e07 a9bc 0190 a9bb 9778 f7b8 f473 3f3c
00000100: b2a1 233d e18b d63c 62fb 21bd 5fd2 cc3c
00000110: 569f 83bc 2a46 0d3b d6e0 553d 9091 723c
00000120: e18d ea3c 4723 76bc 8f50 4c3d 70bf f5bc
00000130: 80a4 543d 4035 b43b eed0 cdbc d8dd f43c
00000140: 01f9 31bb debe e7bc 91ab e7bb 653d b03c
00000150: 942d 853c b115 d7bc dd09 173d acec 2abd
00000160: da70 bf3b 13bd 21bd 86ab 133b d73e f13c
00000170: 4996 e9bc 844d 063d 28d2 1e3d c2ed 283d
00000180: 5a58 99bb e712 d53c bb5c e73c beb2 e3bc
00000190: 7f55 07bd c6a6 b3bb c59f c6ba cb94 173d
000001a0: db30 af3c d4fc 913c db1e 1fbd 85b3 e9bc
000001b0: 61b9 00bc 3191 f43c f5e5 143d 44c1 98bc
000001c0: 546a 50bc b29a 7d3c 8861 54bd 85e1 a03b
000001d0: f649 17bd 226d 3c3c 0856 17bc 971e e43c
000001e0: 6c30 03bd a0b1 60bd 011d a93c bc2a 543c
000001f0: f88c 49bd 8df3 cebb 686c a83c 5ac1 9b3c
00000200: af94 3f3b 0c63 603c 0c3a 533b 2836 213c
00000210: 0070 013d 744f 23bd cf54 333d 0859 5bbd
00000220: 8322 243c e93e eabb 87df 2abd db91 573d
00000230: 42b6 54bd c1dc b63b f31d 323d a2b2 37bc
00000240: 5ad4 4c3c 9351 213d f09e 8e3c 8e48 653d
00000250: 2624 acbc 359b 363d dac5 de3b 01b7 3c3c
00000260: 75de 483d 31e8 1bbd a3f8 123d cbc9 263d
00000270: 2340 7ebc b345 a8bb e974 60bd c173 9dbc
00000280: 62b4 f63c 7dd7 5bbd ff8f afbb 8bd8 1e3c
00000290: 3a8c 13bd ef17 4b3c e687 b03c 16de 373c
000002a0: 3d44 ea39 f772 5f3d 9069 023d 8e28 98bc
000002b0: a912 4c3c a131 b03b 87f8 efbc ee8c 75bc
000002c0: 9f23 4dbb c00f 80bc 8b3d e33c fc54 913b
000002d0: ac4e 4239 a8b6 50bd 917e 2abc 1875 d23c
000002e0: 5c3a 3dbd 011a 39bd 81a8 7dbc 433f 25bd
000002f0: b4d1 22bd 1fcb e63b 2365 3d3d edfa 1f3c
00000300: 94dc 9d3b 6e25 2abd c7a5 a0bc 549c ed3c
00000310: 174d 0bbc d0d5 86bc d5a1 ecbc 5a9e 64bd
00000320: 518d a73c c199 db3c 5d66 04bd 3edd 4cbd
00000330: fbd6 453d ed58 4ebd 1894 4cbc d939 0d3d
00000340: d5a8 9ebc 2afe cabb f427 cd3c aa73 9a3c
00000350: 5671 ff3c 3dc4 cc3c f3d9 92bb eaec 0fbd
00000360: 61f0 8a3c 3a95 c63b 982a 533d c675 df39
00000370: f313 523d c4a8 d63b 001e fe3c 2ce4 f1bc
00000380: 88fd ef3a b907 dabb 34fd 353c 6c16 6b3d
00000390: d165 59bd a96e c83b 5b11 28bc c979 23bd
000003a0: cb6a a4bc 11ec 38bd d1f6 173d 79fb 30bd
000003b0: 95a1 ddbc d017 dfbc f5d0 c4bc fdd4 b83a
000003c0: 1310 c0bc 828b ab3c 90c4 533d 331a 06bd
000003d0: c4e5 5cbd 4778 f03c 2762 fdbc 3ac7 0a3d
000003e0: fe33 aabc bca6 203d c3b1 213d f669 303d
000003f0: 65c2 b0bc 4776 94bc 04db 183d aef6 a73c
0.013152653 0.04971703 0.00024240141 -0.0018226778 -0.0013112957 -0.009573292 -0.0034123354 0.030074984
0.03967189 -0.046336096 0.03442322 -0.017786687 0.054223847 0.03350549 0.048499793 0.042882446
-0.004356251 -0.0729978 0.040600937 -0.0013101028 -0.025568636 0.013480043 0.032600615 -0.03708013
-0.03524262 0.03518005 0.010257978 0.022952572 0.0108572915 -0.024860391 0.053800378 0.0004114288
-0.03611857 -0.03569589 -0.026852095 -0.03551543 0.004921232 0.011303499 -0.023510719 0.025278792
-0.045238823 -0.04166801 -0.026209047 -0.017484028 -0.02698287 -0.01910294 -0.029302182 -0.05372576
0.033957213 -0.020922093 -0.041955322 0.040712766 -0.05274427 0.027910693 -0.02288447 -0.013991752
-0.018661965 0.009036394 0.0005300347 -0.039314292 -0.020633455 -0.0051746373 -0.000118003394 0.01168536
0.039949127 0.026189746 -0.039546378 0.025002657 -0.016067188 0.0021556714 0.052216373 0.014805213
0.028632106 -0.015023059 0.049881514 -0.029998511 0.051914692 0.005499512 -0.02512404 0.02989094
-0.0027156475 -0.028289255 -0.007070013 0.02151365 0.016257085 -0.02625546 0.03687464 -0.041729614
0.0058423104 -0.039486956 0.0022532656 0.02944891 -0.028514044 0.03278877 0.03877464 0.04124237
-0.004679722 0.02600999 0.02824246 -0.027795192 -0.03304052 -0.0054825274 -0.0015153816 0.037007134
0.0213856 0.017820753 -0.038847785 -0.028527984 -0.007856698 0.029854389 0.036352117 -0.018646844
-0.012720663 0.015478777 -0.051850826 0.0049096965 -0.03693577 0.011500629 -0.00923682 0.027846618
-0.0320286 -0.054856896 0.020643713 0.012949642 -0.049206704 -0.0063156546 0.020559505 0.019013096
0.002923291 0.01369549 0.0032230644 0.009839572 0.031600952 -0.039870694 0.04378205 -0.053551704
0.010017994 -0.0071486128 -0.04171708 0.052629333 -0.051931627 0.005580515 0.043485593 -0.011212023
0.0125018 0.039384436 0.017409772 0.055977397 -0.02101333 0.04458161 0.006798488 0.011518241
0.049040277 -0.03806323 0.03588165 0.04071979 -0.015518221 -0.005135262 -0.054798994 -0.019220235
0.03011531 -0.053672303 -0.005357742 0.009695183 -0.036022402 0.012395843 0.021549176 0.011222383
0.000446828 0.054553 0.031838953 -0.018574025 0.012455621 0.00537701 -0.029293312 -0.014987214
-0.003130175 -0.01563251 0.027739307 0.0044351798 0.0001853059 -0.050955445 -0.010406152 0.0256906
-0.046198234 -0.045190815 -0.015482069 -0.040343534 -0.03975077 0.007043257 0.04623903 0.009764415
0.0048175547 -0.041539602 -0.019610299 0.029005207 -0.008502266 -0.016459376 -0.028885761 -0.05581508
0.020453127 0.026806714 -0.032324184 -0.05001568 0.048300724 -0.050377775 -0.01248648 0.034478996
-0.019367615 -0.0061948495 0.025043465 0.018853981 0.031181972 0.024995917 -0.004481548 -0.03513805
0.016960325 0.0060602697 0.051554292 0.00042621623 0.051288556 0.00655088 0.031020164 -0.029527746
0.0018309811 -0.0066537526 0.011107732 0.05739443 -0.053075615 0.0061167073 -0.010258044 -0.039911065
-0.020070454 -0.045147005 0.037100617 -0.043208573 -0.027054587 -0.027233034 -0.02402542 0.0014101561
-0.023445165 0.020940546 0.05170113 -0.03273983 -0.05393006 0.029354228 -0.030930592 0.033881404
-0.020776745 0.03922151 0.039476167 0.043069802 -0.02157707 -0.018122805 0.037318245 0.020503368

conv3.bias f4 [128]
00000000: 7df0 503c 070c 2d3c 05f7 123d 75e7 08ba
00000010: cf58 473d 5d35 e43c 4362 0cbc af79 fb3a
00000020: 919e 233d 4bb2 e43b 77f0 d23c 3e9a 063d
00000030: 1c2a e4bc c67a c4bc fa4e 90bc f75e d03b
00000040: 11a0 0c3d 9ed7 edbc 572e f83c c3a5 3fbd
00000050: 5e50 01bd a9d4 0dbd ff04 60bd 3c35 1c3d
00000060: 43be f83c 39da 86bc 32e8 4c3d e29f b23c
00000070: 49cf 5e3c b9e2 57bd 7ae4 1dbd b432 92bc
00000080: 5439 92bc c121 203d 569f 9c3d b904 443d
00000090: 2d7c 18bd b7b7 263c ab21 093c 9a50 563d
000000a0: 8181 3dbc 3934 f7bb 2f7b 7abd 3c06 023d
000000b0: 0d54 6e3c e475 89bd ad34 873b a946 fdbb
000000c0: fbd5 233d 210f 88bb 9847 623c 7a64 913b
000000d0: 6e54 403d cf1c 39bd 770d 08bd 8fba 3dbc
000000e0: 219f 9bbc ab19 29bd 9e75 853d 5457 1f3d
000000f0: 4f6a 803d 8504 953a bb4a f43c acd6 d3bc
00000100: 67e4 883d d03b 3a3d 490e 653d f33d a4bd
00000110: ab9f 2f3d 6552 20bc 963e 9b3d 4255 3b3d
00000120: 90fa ca3c 96c0 36bd a9cb 5c3d 2a4c 383d
00000130: 7977 e23c 257b 083d 1d8c c3bc b982 27bd
00000140: e53b c33c 5d68 ed3b b23a 653c 3809 583c
00000150: 4e9c 6e3d 9e6d a3bd f341 1dbd 9011 44bc
00000160: f6e0 f13b ff39 17bd 5e4a 513d fdba 6d3c
00000170: 25ed 503d acda 283d 47d1 4e3d cf55 f33c
00000180: 7355 043d 8992 1f3b d142 773d b6ca 813c
00000190: 0059 00bd b3bd 873d 3cc0 c3bc e854 2fbd
000001a0: eb09 63bc 6bc4 2dbc 233f 9ebc b8be 053d
000001b0: fda3 cf3c a45e 27bd f101 b43c c839 88bd
000001c0: edd3 263d ddb3 8ebd 89fa 973c e34a 21bd
000001d0: d74f 98b9 00c9 f13c 98bc 81bd 3a55 25bc
000001e0: d480 2a3d f22a 413d 5d43 83bd f648 503d
000001f0: 54bf 193d c650 3d3d f1b1 8bbc f6d1 4e3d
0.012752649 0.01056195 0.035880107 -0.0005222478 0.04866868 0.027857477 -0.008568349 0.0019186045
0.039946143 0.006979262 0.025749428 0.03286194 -0.02785211 -0.023984324 -0.017615784 0.006358977
0.03433234 -0.029033478 0.030295534 -0.046788942 -0.031570785 -0.034626637 -0.054692265 0.038136706
0.030364161 -0.016461479 0.050026126 0.021804754 0.013599225 -0.052706454 -0.03854797 -0.017846443
-0.017849602 0.03909469 0.076475784 0.047856066 -0.0372278 0.010175637 0.0083698435 0.05232296
-0.011566521 -0.007544067 -0.061152633 0.031744227 0.014546406 -0.06711939 0.0041261525 -0.0077293706
0.03999899 -0.004152194 0.013811015 0.0044370266 0.04695552 -0.04519349 -0.033215966 -0.011580124
-0.018996777 -0.041284245 0.06516574 0.038901642 0.06270277 0.0011369145 0.02982079 -0.0258592
0.06684189 0.045467198 0.055921827 -0.080196284 0.04287688 -0.009785269 0.07580297 0.045735605
0.02477768 -0.044617258 0.053905163 0.04499451 0.02764486 0.033320565 -0.023870522 -0.04089615
0.02383227 0.007245107 0.013991045 0.013185792 0.058254533 -0.07979892 -0.038392972 -0.011967078
0.0073815538 -0.036920544 0.051096313 0.0145099135 0.05100741 0.041224167 0.05049255 0.029704003
0.032308053 0.0024348816 0.060366455 0.01584373 -0.031334877 0.06627979 -0.023895375 -0.042805582
-0.013857345 -0.010605912 -0.019317215 0.032652587 0.02534675 -0.04086174 0.021973582 -0.06651646
0.040729452 -0.069679 0.018552082 -0.03937806 -0.00029051185 0.02951479 -0.063347995 -0.01009112
0.041626766 0.047160096 -0.06409333 0.05085083 0.03753598 0.04621961 -0.017052623 0.050493203

linear1.weight f4 [256, 128]
00000000: 7e41 1dbd 41f4 a63d 2125 1abd 4d90 49bd
00000010: bf55 bb3c d2b7 463d 95ec 16bd 1676 683d
00000020: e2ba 9b3d f2bd 9ebd 327e 9bbd 12e7 a5bb
00000030: dcc6 3b3b 7136 7bbd 2f2f 9abd 0e4a f73c
00000040: 292d 743d 06d3 c83d 9d3b 8b3d 39ab f03c
00000050: 4dac a4bb 6a2b 2b3d 3415 84bd a199 2f3d
00000060: 8d89 653d 84d7 a83c 4a14 e3bc d04d 4dbd
00000070: 1d26 8d3c f9a8 1dbd 2b9d 6dbd 6fb8 273d
00000080: 28df 75bd f65e 593d ff05 bbbd 61a9 003d
00000090: 326a 9f3d ca60 43bd 3f73 0bbb 62d3 8d3d
000000a0: 7c57 8c3d 449b 973b 6172 88bd 6403 2abd
000000b0: 4eb7 653d e4a1 a03d 54cc ae3d 6ac9 c23d
000000c0: 2c33 a1bc 1765 12bc 3ed9 1d3d 451d c83d
000000d0: 42a3 343d b41d 8bbd e328 1fbc 77e5 a73d
000000e0: 4df0 823d 54a3 aabd 227e 843d 147f 963c
000000f0: 4f38 463c d825 69bd 1cf1 ae3c 713f 8e3d
00000100: 6021 70bc 1b15 be3d 45e1 d0bb c523 863d
00000110: 6d87 b9bc aa4e 33bd 6856 ea3c 8c73 7abc
00000120: 8974 69bd 6366 0b3c 0dc1 c33c 1b3d b2bd
00000130: f3cc 573d 93ab 81bd 3436 bcbd 49e4 a63d
00000140: c47f 713d 0061 89bd 0f4b 83bd 8999 bc3d
00000150: df40 9dbd 2c45 ba3c a464 613c 7de2 2fbd
00000160: 39d6 b2bb 7e04 8dbd 9566 a7bd 1994 99bd
00000170: 893c 9c3d b992 9dbd 1a6a 61bb 83e6 adbb
00000180: 96c7 bc3d 94e7 51bd 3c66 9c3d 9b60 89bb
00000190: 3ba1 a53d 26c8 603d 939f 01bd 5269 47bd
000001a0: cb8b 6a3c bc99 51bb b6db aa3c e858 cf3d
000001b0: a99c 1a3d 8885 293d e0f8 98bd ad30 213c
000001c0: cf2f bdbd 73f8 733c a20f aabc 394e e1bc
000001d0: ef73 b7bc 8288 46bc 06b3 d13c 4080 3cbd
000001e0: c389 52bd c266 76bc 76c6 93bd 3622 6dbd
000001f0: 5304 40bd 7ed3 b73c a3c2 4cbb c726 17bd
00000200: 535d e6bc d1a4 65bc 5444 76bd c1c4 38bb
00000210: 9d7b 9ebd 1544 7cbd 0e6d 32bd 22ae 713d
00000220: b91e e9bb 1632 59bd 2f38 c03c 0caf a03b
00000230: 2877 623d a6d1 8a3c 5f89 a2bd d1b6 57bd
00000240: dd19 1b3d 3b52 64bb a072 563d a62f cbbc
00000250: 8e42 e33b 4c3a a4bb 8aa7 85bd d8ed b33d
00000260: c031 593c 6cad c9bc de0a dfbc 25d3 14bd
00000270: 3efc c7bd e5d1 81bd 8e2e a23d b301 48bb
00000280: 4555 81bc 4bda 9d3d a76d dbbc 4229 95bd
00000290: e69b 073c 5a32 febb f8f9 de3b 02b6 063d
000002a0: da61 583d 4f95 e13d 2b32 373c 09bc 1b3c
000002b0: 3ea8 7cbd 9184 8c3c ff7e 35bc 7bf2 273c
000002c0: c790 333b 3960 cb3c de5c bd3b 6253 babd
000002d0: d818 023d 5f20 963b 31cc fa3c 9110 49bd
000002e0: bc4b b3bc 337b 34bc 86f0 a73d d5f9 e0b9
000002f0: 3b2d 9d3d 2622 8dbd 57ba 9e3d 3e41 bbbd
00000300: 155e f53c 4fbc 653d a4c9 073c 12e5 a4bd
00000310: 9f64 b73c f19e b2bd d7cf f33b 5eba 50bc
00000320: 55e9 443d 1022 2abd 2adc b0bc 750f 67bd
00000330: 52ee cdbc e6fd 623d caad 7e3d a87d 2bbd
00000340: 368a 683d 4ba9 8cbd 5d4a 1f3d ec93 7c3d
00000350: c9cd 91bd e146 71bd 9942 053c 657b a73d
00000360: e28f 9abd f6e3 19bd 3167 8e3d bfb1 31bd
00000370: d79d 683b f879 8c3c f48c 48bc b432 bebd
00000380: a4c8 ba3c cccd 803d 3625 833d d5f4 563d
00000390: f710 0b3d bb4d 8bbd 044f 1d3d 556a ee3b
000003a0: 005b 55bd 65f3 673d 1a53 813d f479 c13c
000003b0: 9e5a 76bc 38ce 90bd a887 123d b737 b73b
000003c0: 0315 b43d c334 8bbd d624 06bd 32f9 0ebd
000003d0: 4743 fc3b ac2e 84bd 37b4 a4bc 6c31 1f3d
000003e0: be0c 9d3d a0ce 4cb9 8ef5 debc b137 cc3c
000003f0: 3ba3 3cbd 885c 05bd b971 6dbd 5a3f dcbc
-0.038392536 0.081520565 -0.037633065 -0.04920988 0.022868035 0.04851515 -0.036846716 0.05675324
0.076040044 -0.07751073 -0.07592429 -0.005062946 0.0028652465 -0.061331216 -0.07528531 0.03018668
0.05961338 0.098058745 0.0679848 0.02937852 -0.0050254227 0.04178945 -0.06449357 0.04287112
0.05603938 0.020610578 -0.027719636 -0.050123036 0.017230088 -0.038491223 -0.058011215 0.040947374
-0.06002727 0.053069077 -0.09132003 0.031411532 0.07783927 -0.047699727 -0.0021278409 0.06925084
0.06852624 0.0046266634 -0.06662441 -0.04150714 0.056083016 0.07843378 0.08535066 0.09511073
-0.019677721 -0.0089352345 0.038537256 0.09771208 0.044101007 -0.06792775 -0.009714338 0.08198064
0.0639349 -0.083319336 0.064693704 0.018371142 0.012098386 -0.056920856 0.021355204 0.06945694
-0.014656395 0.09281369 -0.0063745105 0.06549791 -0.022647584 -0.04377619 0.028605655 -0.015286338
-0.056995902 0.008508298 0.023895765 -0.08703061 0.05268569 -0.06331553 -0.09190026 0.08149011
0.058959737 -0.067079544 -0.06410801 0.09208972 -0.07678389 0.022738062 0.013756905 -0.042940605
-0.0054576662 -0.068856224 -0.08173863 -0.074989505 0.07628734 -0.07694001 -0.0034395517 -0.00530702
0.092177555 -0.05124624 0.07636687 -0.0041924245 0.08087393 0.054878376 -0.031646322 -0.048684426
0.014315556 -0.0031982502 0.02085672 0.101243794 0.03774706 0.04138711 -0.07469344 0.009838265
-0.092376344 0.014890778 -0.020759407 -0.02750312 -0.022394149 -0.012117507 0.02559806 -0.046020746
-0.05140091 -0.015039148 -0.07215588 -0.057893954 -0.046879124 0.022439715 -0.0031243942 -0.036902215
-0.028120672 -0.014016346 -0.060123757 -0.0028193446 -0.07738421 -0.061588366 -0.043561034 0.059003957
-0.007114258 -0.05302628 0.02346429 0.0049036797 0.055289418 0.016945671 -0.07936358 -0.05266458
0.037866462 -0.0034839052 0.05235541 -0.024802994 0.006935424 -0.0050118323 -0.06526096 0.087855995
0.01325649 -0.024618827 -0.027226862 -0.036334176 -0.09764908 -0.06338862 0.07919036 -0.003051859
-0.01578773 0.07707652 -0.026785685 -0.0728326 0.008276915 -0.007757467 0.006804701 0.03288842
0.052827694 0.110148065 0.011181395 0.00950528 -0.061683886 0.017153056 -0.0110776415 0.010250683
0.0027399526 0.024826156 0.005778893 -0.09097935 0.031761974 0.0045814957 0.030614944 -0.049088065
-0.021886699 -0.011015701 0.08200173 -0.0004291075 0.07674643 -0.06891279 0.07750385 -0.09143303
0.029952088 0.05608779 0.008287821 -0.08051504 0.022386847 -0.08721722 0.007440548 -0.012739746
0.048074085 -0.04153639 -0.021589357 -0.056411225 -0.025138054 0.055417918 0.062177457 -0.041867882
0.056772433 -0.068682276 0.038889278 0.061664507 -0.071193285 -0.058905486 0.008133554 0.081778325
-0.07546975 -0.037570916 0.06953276 -0.043382403 0.003549447 0.017148003 -0.012240637 -0.092870146
0.022800751 0.06289253 0.06403582 0.052479584 0.033951726 -0.06801935 0.038405433 0.0072758594
-0.052088737 0.056628603 0.063146785 0.023617722 -0.015036253 -0.07070583 0.035773903 0.0055913585
0.0879307 -0.06797173 -0.032749973 -0.03490562 0.00769845 -0.064542145 -0.020105464 0.03886549
0.07668446 -0.0001953193 -0.027216699 0.0249289 -0.046054106 -0.032558948 -0.057969783 -0.026885677

linear1.bias f4 [256]
00000000: 3f8b b23c 8ee9 463d 23c0 fabc 8b20 75bd
00000010: f77a eebc 31b4 c33d f60c 4abb 27db 973d
00000020: 9d27 8dbd 1b65 693d 08c0 413c d7d4 80bd
00000030: d039 56bd b756 553c 55ac 893d 5a1b 0dbd
00000040: d89d 97bc aae6 6e3a ecf7 133d 7818 483d
00000050: 279b f03d 11cb 31bd 5fd6 4d3d b06a 653d
00000060: 1922 353d 5fb6 8cbd 2025 083d 4284 9fbd
00000070: 0722 62bd f7cd c03d d68f 7c3c 7234 373d
00000080: 28f0 e3bc 7a17 02bd 2742 61bd 342b 89bc
00000090: e3db 803d 92f1 7abb a483 3ebd 1f6a 1fbd
000000a0: 6d4d 593d b8e9 3b3c 4775 8f3c e199 5d3d
000000b0: 7c25 433d 1104 923d 43f9 8c3d 6ca9 a93d
000000c0: 19fc 5f3d d0b5 413c 9100 bf3c cf79 56bd
000000d0: f510 f83b 7fb2 69bd 2cd2 0e3c 86bc 8b3d
000000e0: b80e e0bc 605a 113b 924b 603d 47d0 acbd
000000f0: cdae 8cbd 2b60 75bd 38b0 4bbc cc81 443d
00000100: 4df1 bdbd 1e5d ce3c 178c f0bc dd16 833d
00000110: 0e21 35bb 66a4 d7bc 0bdf 953d e636 cb3c
00000120: 249b d73d 17d5 88bd d068 42bd 069d 80bd
00000130: 81c7 2a3c b1fe a5bd 0d3e bd3d ff32 463d
00000140: 6698 983d bf5b 493d c258 dd3c 1ce9 373c
00000150: ba29 84bb 9fc5 5dbc a08a 1bbb c54e 24bc
00000160: f2af 763d 1300 b3bd f098 3ebd eb36 12bd
00000170: 53fa 46bd c6f8 c13d d5b3 4fbd 5b28 37bd
00000180: fbdc 763d 9d66 39ba 33c4 3abc 2775 f13d
00000190: 6b61 8b3d f954 873d a9bf b13d 71a8 a23d
000001a0: 1cc3 84bd 6dce 1f3d 2e7b 5f3d a576 35bc
000001b0: b331 9abb 8a90 90bd e165 76bb 5ffd 8fbd
000001c0: 8b41 c4ba c010 c6bd 60d0 74bd f76e 8d3d
000001d0: 09cd 44bd d4fb 403d 43ee b33c 6268 a53d
000001e0: 1490 a3bd ccae a0bd b850 25bd caf8 92bc
000001f0: be8d 403d dbe6 d83d f081 83bd 2bb0 823d
00000200: 96ae 7abd afb1 cdbd 48fd 88bc f347 b2bd
00000210: 6aef 0bbd 5b60 553d ca92 c7bd a289 b3bd
00000220: a22c 91bd e0a7 dabd 288b 993d 5245 643b
00000230: 7871 17bd aa16 a93d de20 ad3a 0217 54bc
00000240: 2454 99bd 5cba 023d c480 b33d 8f43 bcbd
00000250: 3d6b 763d d5ab 95bd 1d8d 703d 2007 66bd
00000260: 155f 1cbd 9086 5fbc f35f 4abc bc99 ae3d
00000270: b442 93bd ff3b b6bc a6d2 fbbc 6083 c5bd
00000280: a820 133d 7f0b a8bd 5ff6 60bd 57dc d43c
00000290: aed4 7fbd e86f 963b ef9a a0bd 94a4 a33d
000002a0: 752c 97bc 3d3b 233d 63a1 dcbc 43d7 183d
000002b0: 7837 133c 8c44 bfbb c7f0 1f3d 3743 ad3d
000002c0: ae72 81bc 4255 24bd a6e0 e53c 88a4 823d
000002d0: c979 abbb 60cc d93c f7c6 123d 37b9 923d
000002e0: 1265 5f3d f295 59bd 5b3c 0a3c 15da 83bd
000002f0: 2c62 af3d 0fb7 86bd 4f90 5b3d 33f8 c33d
00000300: a043 69bd 28cf 213d 8ee7 303d 7e52 b4bd
00000310: 85b6 5abd fbe4 f23c 6767 9cbb 3ba1 de37
00000320: 89f0 cfbc a1b3 a33d 9636 c43d 7d36 853d
00000330: 5dad 5bbc 55d5 15bc b01f 12bd 90e1 cf3c
00000340: 8467 923c 345a eb3c 8cbf 013e 40b7 de3c
00000350: caed 633d bb22 513d 18d5 12bd eebb 4b3d
00000360: 9c7b b73c 0354 a8bc 7c75 a8bd 2817 4a3d
00000370: d5a2 66bd 791d aebd d2f3 12bc 1b35 4f3d
00000380: 60fc a9bd 3070 a03d 824a 77bd 6010 b7bd
00000390: 6c0e d03c 3155 8abd 4a84 393d 4d39 693d
000003a0: b064 f9bc 4ef9 7bbd 9b13 973d 3d92 ccbd
000003b0: 195e e73d 8378 843d 0f75 9f3d 77a6 a6bc
000003c0: 1509 92bc cbc7 69bd 727a b33d f10f fa3c
000003d0: bdd8 b03d ccc9 06bd 6097 ecbc c9ff 9fbd
000003e0: 5735 95bd f29e 57bd d644 913d 3c11 dfbc
000003f0: ca60 f4bc f4f2 803d a742 bd3d bfcf 1b3c
0.021794913 0.04856258 -0.030609196 -0.05984549 -0.029111369 0.09555853 -0.003083048 0.07414847
-0.06892321 0.056981187 0.011825569 -0.06290596 -0.052301228 0.013021163 0.06722323 -0.034449913
-0.018507883 0.0009113351 0.03612511 0.04885146 0.11748343 -0.04340655 0.05025327 0.05600995
0.04422197 -0.06870722 0.03323853 -0.07788898 -0.055208232 0.09414285 0.015415153 0.04472775
-0.027824476 -0.03176067 -0.05499473 -0.016744234 0.0629194 -0.003829096 -0.04651226 -0.038919564
0.053052355 0.011469297 0.017511977 0.05410183 0.04764317 0.07129682 0.068834804 0.08284268
0.05468378 0.011823133 0.0233157 -0.05236226 0.007570381 -0.057054993 0.008717101 0.06823067
-0.027350768 0.0022179112 0.05475957 -0.08438163 -0.06869278 -0.059906166 -0.012432151 0.047975346
-0.0927454 0.025190886 -0.029363675 0.06400845 -0.002763811 -0.026323508 0.07317933 0.024806451
0.105276376 -0.06681269 -0.04746324 -0.0627995 0.010423542 -0.08105219 0.09240351 0.048388477
0.07450943 0.04915976 0.027019862 0.011225011 -0.0040332945 -0.013535886 -0.002373375 -0.010028546
0.06022639 -0.087402485 -0.04653257 -0.035696905 -0.04857857 0.09471278 -0.05070861 -0.04471622
0.060269337 -0.00070724805 -0.011399317 0.11789923 0.068056904 0.06608004 0.086791344 0.07942284
-0.06482527 0.039015222 0.054560833 -0.01107565 -0.0047056316 -0.07058819 -0.0037597346 -0.070307486
-0.0014973147 -0.096711636 -0.059769034 0.069059305 -0.0480471 0.047115162 0.021964198 0.0807655
-0.07986465 -0.0784584 -0.040360183 -0.017940897 0.047010176 0.10590907 -0.06421268 0.063812576
-0.061201654 -0.10043656 -0.016722336 -0.087051295 -0.03416387 0.052093845 -0.09744795 -0.08766486
-0.07088591 -0.10676551 0.07497245 0.0034831357 -0.036973447 0.08256276 0.0013208648 -0.012944939
-0.07486752 0.031916007 0.087647945 -0.09192573 0.060160864 -0.07308165 0.058728326 -0.05615914
-0.038176615 -0.013642922 -0.012351978 0.08525416 -0.07190457 -0.022245405 -0.030740093 -0.096441984
0.035919815 -0.08205318 -0.054922458 0.025983972 -0.062458687 0.004590977 -0.07842051 0.07990375
-0.018453816 0.039851416 -0.026932424 0.037314665 0.008985393 -0.005837029 0.039047983 0.08460086
-0.015801754 -0.04012037 0.028061222 0.06379038 -0.005233024 0.026586711 0.03583428 0.07164233
0.054539748 -0.053121515 0.008437241 -0.0643808 0.08563647 -0.065778844 0.05360442 0.095688246
-0.056949258 0.0395042 0.043189578 -0.08804797 -0.05339672 0.029650202 -0.0047730687 2.6539541e-05
-0.02538325 0.07993246 0.09580724 0.065045334 -0.013408032 -0.009145101 -0.03567475 0.025376111
0.017871626 0.028729536 0.12670726 0.02718699 0.055646695 0.051058512 -0.035847753 0.04973977
0.022397809 -0.020547872 -0.08225533 0.04933849 -0.056307632 -0.08501715 -0.008969264 0.050587755
-0.0830009 0.07833898 -0.06037379 -0.0893867 0.025397502 -0.0675453 0.045292176 0.056939412
-0.03044352 -0.061517052 0.07376786 -0.0998883 0.112972446 0.06468298 0.07785999 -0.020343048
-0.017826596 -0.057075303 0.08763589 0.03052518 0.086350895 -0.032907292 -0.028880775 -0.07812459
-0.072855644 -0.052641816 0.070932075 -0.027229898 -0.029831309 0.0629634 0.092412286 0.00950998

linear2.weight f4 [512, 256]
00000000: 9753 febc 52b1 3dbc 159d fe3b 2acf ce3d
00000010: 2d5e 743d ed67 9c3c 3609 5dbc 0418 2a3d
00000020: 1761 90bc 0ac3 4ebd 326a 643c e705 bdba
00000030: 2b64 39bc 8e87 083d ef77 db3c 4466 7b3d
00000040: c0a5 743c 12e6 01bd 704a 0f3c 152e 1bbd
00000050: 5842 ea3c 3786 0e3d c87a 6a3c 5e7b 30bd
00000060: ec0b 683d 2aa4 803d 007c 843a 9c0b 92bd
00000070: a988 bd3b 3b3b e8bc 6229 033d c4ad 163d
00000080: c90e 5b3d 9065 4c3d c58d 02bd 7168 07bb
00000090: 35eb 44bd 3afd 653d c898 3dbd e792 973b
000000a0: 27a9 16bd 9aaa 34bd 9c67 ebb9 4b6c f4bc
000000b0: bc3f 76bd 90d6 60bc 8a7b 4fbc ee01 953c
000000c0: bf6c 02bd 7e76 a8bc ecdc 18bd 9394 acbb
000000d0: 161f c63c 8a3e 413d 1740 7cbc 8ab5 1cbb
000000e0: f3bf 463c 0605 7fbd 0077 523c e461 a63c
000000f0: 3868 caba ebd6 c8bc c276 c13c 0f7f 6cbc
00000100: 0eda 0c3d 9b8d 24bd 3464 dfbc 8507 0d3d
00000110: 2c52 933d 631b 113d 8050 a73a 4456 393d
00000120: f216 d93b 01cb 983a 3707 1ebd cf11 0ebd
00000130: 720e 39bd f3b7 5b3d 567a 1e3c f0c1 773b
00000140: b4bd 1fbc 9aa7 113d 1cc6 25bc 12b4 80bd
00000150: b211 71bd f024 d8bc bf70 903d 6f66 06bd
00000160: 7230 03bd c99c 123d 2ad4 933c e2b7 f73b
00000170: 298d f73c 42e3 45bd b357 24bc c772 a0bb
00000180: 2246 cf3a f702 2f3c 6d8d 923d 6d36 b83b
00000190: 33b3 4abd a6d2 aabc df3e 2ebd 42de 1d3d
000001a0: fd48 f23c 48ac 40bd 6357 4b3d d3cd 76bd
000001b0: 2d9e 5f3d 18f9 323d b3de 4e3d 35e4 83bd
000001c0: 6a57 ebbc 8cbc 23bc dabc 2abd b1fd b4bb
000001d0: 24f9 0fbd 1a4c 963d e07c 9b3c d9ff 16bd
000001e0: 5820 5b3d 5ea3 d6bc fdef e83c d67e f23c
000001f0: 27ab b13d c0e4 45bc 61db 253d b353 8d3d
00000200: c986 72bd d29a 0a3c 2f35 fbbc 26c1 91bc
00000210: 8f9f 0cbd 2e8b c0bc 4df9 56bd e389 403c
00000220: 09b2 223d 9cd5 09bd 0448 feba f03c ab3c
00000230: 1138 31bd 9e9b 1cbc 3766 fcbc 2514 6a3c
00000240: f78f 993d 70d9 3a3d 054c fabb 4eec e4bb
00000250: 4351 853d e544 99bd a0cc 353d ec86 1fbb
00000260: da1a 033c 7c86 09bb ce5a 923d ae38 383c
00000270: 0974 b53c ce46 76bc 50e7 273d 11e3 8c3c
00000280: ae5a 04bd 6731 58bd 5ff2 aabb 0aad 75bd
00000290: 119c 293d 895e 6b3d d888 c8b9 219c 5bbc
000002a0: f49c 9b3b ded4 0ebd 8c58 2e3d d444 a13d
000002b0: a1a1 1a3d 4680 ad3b 6e41 933c b066 9cbd
000002c0: a3a8 d43c 2fb3 573d ded1 c8bc b92b 22bd
000002d0: e20f b33a 4c55 233d 5a54 633c 0582 c63c
000002e0: 123a 8d3d 9ead 873d bcdb 90ba 22b2 0dbd
000002f0: 632d febc cfbd e43c 99d9 203c d813 253d
00000300: 947e 933b 002b 8dbc 8a9b 9c3d ab3e 603d
00000310: 07b2 abbc 67ff 39bd 98d4 fdbc ef4d 1fbd
00000320: fca9 6bbd 9fc7 653c 1d20 153d 4048 77bd
00000330: 8403 51bc 975e 33bd d358 ad3b f028 453d
00000340: cafd 15bd 7f19 5c3d 2918 ebbc 3569 9ebc
00000350: 0228 8abd fd34 8dbd 6ea2 023d 7664 a4bb
00000360: 318f ab3a 31da 7f3d b0dd 23bd f57c f5bc
00000370: 78c5 703d 71a5 28bd a4bf 4e3d 528a 8dbc
00000380: a8ed 5e3a dce5 463c d966 a93d 2b3c a4bd
00000390: e281 503d 9428 133d 0dea 483c 63ab 65bb
000003a0: 013d 4fba c6a7 9a3c 61bd 883d 3808 bdbd
000003b0: 933c ac3c 99b3 6fbc b61e dbbc 732c b73b
000003c0: 5cf5 be3a 0f14 51bd 31e4 333d 1f0a a43c
000003d0: 737f 9cbb 56f3 023d 5393 4d3c 100f 60bc
000003e0: 3dab eb3b 1a40 0dbd fe47 2cbd 5c2f e6bc
000003f0: 0b74 053d 6b76 5c3b 7bbd 943d a567 663d
-0.031045718 -0.011577921 0.0077701905 0.10098107 0.059660126 0.019092524 -0.013490966 0.04152681
-0.017624421 -0.050478972 0.013941335 -0.0014421315 -0.011315386 0.0333324 0.026790587 0.061376825
0.014932096 -0.031713553 0.008745775 -0.037885744 0.028596088 0.034795966 0.0143115 -0.043086402
0.056651995 0.06281312 0.0010107756 -0.071311206 0.0057841134 -0.028348556 0.032021888 0.03678681
0.053480897 0.049901545 -0.031873483 -0.0020661617 -0.048075873 0.0561497 -0.04628828 0.0046256664
-0.03678241 -0.04410801 -0.00044899888 -0.029836794 -0.060119376 -0.013723031 -0.012663731 0.018189397
-0.03184199 -0.020564314 -0.037320063 -0.005266735 0.024184745 0.047178783 -0.01539614 -0.0023911917
0.012130725 -0.06226065 0.012845755 0.02031035 -0.0015442437 -0.024516543 0.023616198 -0.01443459
0.03438764 -0.040174108 -0.02726946 0.034431 0.071934074 0.03542651 0.001276508 0.045248285
0.0066250497 0.001165718 -0.0385811 -0.034684952 -0.04517979 0.053642225 0.009672722 0.0037804805
-0.009749819 0.035560228 -0.010118034 -0.06284346 -0.058854766 -0.0263848 0.070527546 -0.032812532
-0.032028623 0.035794053 0.018045504 0.0075597623 0.030218678 -0.048312433 -0.010030675 -0.004896495
0.0015813748 0.010681859 0.07155881 0.0056217224 -0.049487304 -0.020852398 -0.042540427 0.03854204
0.02957582 -0.0470393 0.049643885 -0.060254883 0.054594208 0.043694586 0.05050535 -0.064400114
-0.028728206 -0.009993684 -0.04168401 -0.0055234064 -0.03514971 0.07338734 0.018980443 -0.03686509
0.053497642 -0.026200946 0.028434748 0.029601496 0.08675223 -0.012078464 0.04049242 0.0690073
-0.059210572 0.008459764 -0.030665008 -0.017792296 -0.034331854 -0.023503866 -0.052483846 0.011751625
0.03972057 -0.03365098 -0.0019400124 0.02090308 -0.04326636 -0.009558586 -0.030810459 0.014287029
0.07498162 0.04561752 -0.0076384568 -0.0069861775 0.0650964 -0.07483844 0.0443846 -0.0024341894
0.008002007 -0.00209847 0.07146226 0.011243982 0.022150056 -0.01503153 0.04099208 0.017198117
-0.03231304 -0.05278149 -0.005216881 -0.059979476 0.041408602 0.057463203 -0.0003824893 -0.013403923
0.004748935 -0.034870975 0.042564914 0.07874456 0.037751798 0.0052948324 0.017975535 -0.076367736
0.025959319 0.052661117 -0.024514135 -0.03959248 0.001366135 0.039876267 0.013875091 0.02423192
0.06895842 0.06624912 -0.0011051814 -0.03459371 -0.031027501 0.027922539 0.009817504 0.040302128
0.0045011733 -0.017232418 0.07646854 0.054747265 -0.020958913 -0.045409586 -0.030985162 -0.038892683
-0.057535157 0.014024644 0.03640758 -0.060371637 -0.012757186 -0.04379138 0.0052901297 0.048134744
-0.036618985 0.053735252 -0.028698044 -0.019337276 -0.06745912 -0.06894872 0.031893186 -0.0050168587
0.0013088939 0.062463943 -0.04000634 -0.02996681 0.05878207 -0.041173402 0.05047573 -0.01727787
0.00085040415 0.012139764 0.0827157 -0.08019289 0.050905116 0.03592737 0.012262833 -0.0035044781
-0.00079055136 0.018878829 0.06676746 -0.09230083 0.021024978 -0.014630222 -0.026748043 0.0055900156
0.0014568972 -0.05104452 0.043918792 0.020024357 -0.0047759353 0.031970344 0.012547332 -0.013675466
0.007192044 -0.03448496 -0.042060845 -0.028098755 0.03258137 0.0033639919 0.07262703 0.056251187

linear2.bias f4 [512]
00000000: 5a96 7f3d f8a8 24bd 6eab 02bd d4aa 4fbd
00000010: c22f 36bd 88af 08bd 8487 8cbc 9042 c1bc
00000020: def3 383d 32b4 433d a4d6 8a3d aa40 c2bc
00000030: 5c48 4d3d 12b3 4bbd 00e0 63bc 471a a83c
00000040: dd65 223d 604c a5bb 67a8 a33c f140 0abd
00000050: edb1 e4bb c181 b7bc b615 2d3d 3c05 3b3d
00000060: d013 14bd 6c5a 803d 34ea 3abd 4d14 073c
00000070: 7d68 293d e721 853d 5ce0 913c 442b 34bd
00000080: 04da 443b c7d9 523b b310 093d 6b87 013d
00000090: 51e7 4cbd bf54 bf3c 5cc7 2f3c 8bdf a2bb
000000a0: 9d93 af3c 1698 dc3c 0126 1c3d 3c66 ddbc
000000b0: d832 653d aa99 c03c c8ee 853d d9c1 fe3c
000000c0: 99a7 18bb c34f e6bc 9ea6 1bbd 2231 21bd
000000d0: e7b3 83bc e980 2bbc 9957 133d e94d 1abd
000000e0: 8085 533b f2a2 573d 01cb 153d 4baa cc3b
000000f0: e8a0 aebc 5f46 3cbd 1711 e73c ecfe e3bc
00000100: cfcf 7f3d e47d 853d d8f9 97bc 4cdb 893d
00000110: 12c1 183d 5471 70bd 065e b63c 0711 01bd
00000120: 504a 593d fcd3 46bc a12b 763d 52aa f93c
00000130: 6051 27bc da10 bb3b b8a1 e63b 1c11 60bd
00000140: f842 1d3d 61bb c8bc 2f2b 7abd f5d5 483d
00000150: a785 823d 9921 b63c 50bb 163b 00aa 31bd
00000160: b84e 3cbc f1a6 613d 6a1b 05bd b008 57bc
00000170: f0dc 83bc 2a28 05bd 2184 e83a b846 e4bb
00000180: 11ec 6fbd e7b9 fe3b 14d5 31bd 5eff c2bb
00000190: f4cc 433d 8a63 253d dfae 273d e68f 88bc
000001a0: 4183 c0bc 3813 b03c 4db8 2d3d d5fe 013d
000001b0: 253e 11bd efbe 803d e694 73bc d2a6 393d
000001c0: 28be b33c b56c 98bc bd76 553d c819 bdbc
000001d0: f27f 853c 2b96 90bb 36d3 18bd 244b 19bb
000001e0: d114 6c3d 3f9f 87bc 98f0 683d 4700 8a3d
000001f0: f83b 1b3d ce22 e83c e20e 093d 8270 413d
00000200: 58c9 3cbd b658 40bd ecc5 2dbd 49b2 29bb
00000210: 280d b13c 66ac 603d 6e77 193d 9c02 bcbc
00000220: 4913 a3bc 87cb 79bc 1b4b f9b9 895a 4bbc
00000230: 10d6 dabb 28c9 653d 198c f23c ced1 75bd
00000240: 24e1 5b3d 820b 96bc 917e c03b 8e9c 823c
00000250: ce25 d83c 3ef6 b6bc 9b71 703d 5797 01bd
00000260: 60b4 673c 4d01 3c3d cf6c 9db8 1e44 05bc
00000270: 4ac7 c2bc c6cb 1cbd 354e c73b 1f05 a63b
00000280: 94ae 26bd 96c5 313d 97fa 213d 0038 e0bc
00000290: 5c82 3abc bf71 153d 8ec1 39bd 8d96 ca3c
000002a0: 0c36 513d ad30 b53c 0cca 43bd 9674 81bc
000002b0: 90c3 cabb 3a02 b63c 8d44 513d 4642 4f3c
000002c0: 8014 06bd 0230 63bd 8603 ac3c 2a8a 5d3d
000002d0: 1e13 f13c 2390 d9bb a5aa 9f3a efbe f5bc
000002e0: 8cf3 62bd 0ecf 66bd dbdc 4e3d 6760 ffbc
000002f0: 8697 263c 23ee 97bc cc70 09bd 456b cb3c
00000300: ec93 f9bc 469e 20bd fef3 b63c aebd 5bbd
00000310: 915f db3c 4e61 013d 71c9 9abb be80 bdbc
00000320: 1041 41bd 3ed7 3bbd 1d28 de3c 339a 143d
00000330: 7ad7 253d f4a6 c6bb 5660 22bc 6210 883d
00000340: 807b 56bd 3c35 cebc f87d 4c3d b0a1 4bbc
00000350: f06d 753d 7c1e 1fbd 2671 2abc 5618 023d
00000360: a05f 333d b1e7 b4bb a8ea 1cbd ef25 0b3c
00000370: a068 633d db8a c9bc 6dd8 173d ec04 9d3c
00000380: 80e1 e2bc fd11 d73c 4725 41bb a3ff b13c
00000390: dad4 643d e9ee 8a3d fe42 09bd 2d92 2abd
000003a0: c82a 883c 85f6 463d f022 c7bc c355 3e3d
000003b0: c059 74bc c05d 443c 946c 4abd 0a9d 343d
000003c0: 6fdb 9e3c 3186 4c3d 6eae 903b 3a8f 7cbd
000003d0: 640e 5abd 8815 65bc 9464 7b3c c01e 53bc
000003e0: 7492 30bd f6f7 43bd 0dca 0abd 408e 9abc
000003f0: 7f44 b63c c3b0 363d db0d b73c 42af 74bd
0.062399246 -0.040200204 -0.03190177 -0.050700024 -0.04447914 -0.033370525 -0.017154463 -0.02359131
0.045154445 0.04777927 0.06779221 -0.023712475 0.050117835 -0.04973132 -0.013908386 0.020520343
0.039647926 -0.005044505 0.019977761 -0.03375334 -0.006979218 -0.022400739 0.042257033 0.04565929
-0.036151707 0.062672466 -0.04563351 0.008244586 0.041359413 0.06500607 0.017807178 -0.043986574
0.0030037174 0.0032173262 0.03346319 0.031623285 -0.050025288 0.02335584 0.010728683 -0.004970496
0.021432692 0.026927989 0.03812218 -0.027026288 0.05595669 0.023510773 0.065396845 0.031098293
-0.0023293255 -0.028114205 -0.038000695 -0.039353497 -0.016076995 -0.010467746 0.03597221 -0.037671957
0.0032275617 0.05264563 0.036570553 0.0062458864 -0.02131696 -0.04596555 0.028206391 -0.027831517
0.06245404 0.06518152 -0.018551752 0.06731281 0.0372935 -0.058701828 0.02226163 -0.03151038
0.053049386 -0.012135502 0.0601002 0.030476723 -0.010212272 0.005708796 0.0070383213 -0.054703817
0.038393945 -0.024503412 -0.06107634 0.04903217 0.063731484 0.022232817 0.002299983 -0.043375015
-0.011493377 0.05509085 -0.032496847 -0.01312463 -0.016096562 -0.032509007 0.0017739573 -0.006966438
-0.05857474 0.007773626 -0.043416098 -0.0059508523 0.04780288 0.04037813 0.040938254 -0.016670179
-0.023500087 0.02149354 0.04241209 0.031737167 -0.035459656 0.06286418 -0.014867043 0.045325108
0.02194126 -0.018606523 0.05211519 -0.023083583 0.01629636 -0.0044124327 -0.0373108 -0.0023390735
0.05763704 -0.016555427 0.056870073 0.06738334 0.037898988 0.028336909 0.03346146 0.047226436
-0.046090454 -0.0469596 -0.04242508 -0.002589362 0.021612719 0.054851912 0.037467413 -0.022950463
-0.019906657 -0.015246279 -0.0004754894 -0.012411722 -0.0066783503 0.05610004 0.02960782 -0.06001454
0.053681508 -0.018316034 0.005874463 0.015943792 0.026385214 -0.022334214 0.058702093 -0.03163847
0.014142126 0.045899678 -7.5066106e-05 -0.008133916 -0.023776669 -0.03828027 0.006082321 0.0050665285
-0.040693834 0.043401323 0.03954562 -0.027370453 -0.011383619 0.03648543 -0.045350604 0.024729991
0.051076934 0.022117937 -0.04780011 -0.015802663 -0.0061878636 0.022217859 0.051090766 0.012650078
-0.032734394 -0.055465706 0.020997774 0.05408684 0.029428061 -0.006639497 0.0012181593 -0.02999827
-0.055408046 -0.056349806 0.050503593 -0.031173898 0.010167962 -0.01854617 -0.033554837 0.024831424
-0.030466042 -0.03921344 0.022333141 -0.05364769 0.026778968 0.031586938 -0.0047237207 -0.023132678
-0.04718119 -0.045859568 0.027118737 0.03627987 0.040488698 -0.006062383 -0.009910664 0.0664375
-0.052363873 -0.025171869 0.04992482 -0.012428686 0.059919298 -0.03884743 -0.010402953 0.03176149
0.043792367 -0.005520784 -0.038309723 0.008492931 0.0555197 -0.024602344 0.037071634 0.019167386
-0.027695417 0.026253695 -0.0029471682 0.021728342 0.055867054 0.0678385 -0.033511154 -0.04164331
0.016621962 0.048574943 -0.024308652 0.046468507 -0.014913976 0.011985242 -0.049419954 0.044095077
0.019391743 0.049932662 0.004415325 -0.06166003 -0.05323638 -0.013982184 0.015343804 -0.012885749
-0.04310842 -0.047843896 -0.033884097 -0.018866658 0.022249458 0.044602167 0.022345474 -0.05973745
